miniprojekty/model_mnist_cnn_20250621162737.pth (torch, 876009 bytes, 6 tensors)

0.weight f4 [64, 1, 5, 5]
00000000: 8d23 23bd aa6c a4bd 98e3 ffbd fca0 89be
00000010: a043 a7be b29b ac3d 6c9a a83d 18e7 8b3d
00000020: b178 323b 3889 93bd 0b25 843d afc1 9c3e
00000030: cfbb 733e ecf7 9b3e 6a09 883e 02fb 8ebe
00000040: 89b9 04be 01c4 f93c 2752 16bd 7cb2 713e
00000050: 3031 0fbe 35fb 78be 3dc2 c0be bcd8 8ebe
00000060: bb7c 87be 7093 7e3c 0a6a aabd 4904 b33d
00000070: 39c0 00be 4648 d7be da09 88be 9081 13be
00000080: 03ef 08bf 39b2 cebe 4a3e 90be 872a f0be
00000090: 508c d1be aba7 50be 62e5 bc3d e716 493e
000000a0: 1d14 2abe 46f3 cdbd e069 b43e b22f 683e
000000b0: 992e 9d3e 79d3 08be a980 233e 4ddf 233e
000000c0: 0d60 a1ba dea5 fb3c decf 1dbe 58f9 48be
000000d0: 9d19 a4be 33c3 07bd cb6c 483e 927e a0be
000000e0: 9cd2 bbbc 1304 49be 5687 813e 46c4 bdbc
000000f0: 3900 b9be 9f04 8ebd 8fdf 81bc 3fb5 a13d
00000100: 302d 523e 3c4b 60be c230 1fbe 2d94 d43d
00000110: e720 6bbd 2b8b 0f3d f80e 30be da9b 8e3d
00000120: 23a8 b2bd f30e 123e 0b55 5d3e 2570 bbbd
00000130: 4b83 9cbd bde0 88be edd7 89be 6994 1e3d
00000140: 3b1c 3ebe 47b9 2abe c8d5 e83c 7ba6 0d3e
00000150: 9680 213e 0f32 cc3b b0e3 453e c61f da3d
00000160: f63b c33d 6506 00bd 1cdc 823e 8c05 983e
00000170: b70a 3e3e a8f4 0bbe cd61 e23d 7562 8b3c
00000180: 67cb 8bbe 8085 53be 93c6 ed3d 7661 053c
00000190: e04d 83bc 0cbb ae3d 8416 453e 020f 843e
000001a0: 506b 943d c4c6 1f3e 7cf9 363e 1aab a73e
000001b0: 41e6 e13c 7d7f c9bd 7c7d 11bd d4b5 b13d
000001c0: 0d97 ee3c 9add 893d 751b c5be c105 a5be
000001d0: 124e d5be 1fa5 7bbe 9afc f6be 5428 a4be
000001e0: c2a7 9dbe a017 cdbe 1a94 d2be fd77 debd
000001f0: 1b8d 8a3d cc63 10bd d47f b93d ee30 b2be
00000200: 667f 02be 7e81 dabd 7bf7 0d3e 7c9d 88be
00000210: df44 b6be ca4e ad3d 55ae 1b3e 00ae ca3d
00000220: c6b8 8cbe 8d1a 443e 380a 8c3e 72e8 c33d
00000230: 3134 153c a255 813e 69b3 3d3e c34f ca3d
00000240: 3af2 12bd db75 ae3c ee35 2c3e ffa9 09bd
00000250: eb65 75bd cc18 91be 3eef 2d3d 5a43 5c3d
00000260: 1789 4cbd cbf9 c1be 46b8 afbe 679e 953d
00000270: 61a6 733e 6d10 f5bc 2a86 56be b061 cabc
00000280: 6cee 29bd 7c87 983e aa3d 323e 881d 88bd
00000290: 033c 613d d3da 12be af74 9c3d 6982 a23d
000002a0: 3c82 db3d 9b05 71bd f2e9 ae3d 120e e93d
000002b0: 6c19 d3bd 1499 39bc 1a59 593e a07e e73d
000002c0: 4313 063e 95ff 56be 8cea 18be f4eb 8b3e
000002d0: a221 5a3d db10 19be be94 1cbf 776f 2a3e
000002e0: 7b5e 323c 5bc5 b53e 4650 a0be d706 c5be
000002f0: 8d63 573c 5323 273e 96f7 05be c597 f7be
00000300: 6076 d5bd 14d7 3f3d f78c 353e 5e30 cebe
00000310: e166 33be 3d7f 50be 32e3 a7bd 0f49 2b3e
00000320: f985 453e 45cc 213e 3017 94bb 7376 9ebd
00000330: f1cf 13be a5de ebbd e0d0 983c a729 12be
00000340: 9596 1d3e 3f65 223e 8d70 38bc 188e b03c
00000350: 67cc c83d d611 c23d ed9a 033e efdd 303e
00000360: 276d 443e 638a 91bd d5c3 423d e114 46bd
00000370: d4b7 063d ded0 70bd e2c3 acbd 61be 5e3d
00000380: ea3d 9ebe fb0e c9bc 0b30 63be 3147 44bd
00000390: f2aa f63d b4b2 babd dcd4 483e 099d 4c3e
000003a0: 96d1 2ebe c5ad 9b3d 54dd 1f3d d9f1 483e
000003b0: 4c83 84ba a1f2 573e ecaa 613e 522e a43e
000003c0: 905d 003e 4cde a0bd d8f9 8cbe 8015 43be
000003d0: 4ec9 60be 7762 883d 5216 d2be c217 f1bd
000003e0: ef0b 4dbe c76e 583d 3d14 f5bd d8d0 7c3e
000003f0: 7e8a 613e 2278 c53b 70da 5fbe 8487 7fbe
-0.039828826 -0.080285385 -0.12494582 -0.26880634 -0.3266878 0.08428134 0.08232579 0.06831187
0.0027232582 -0.07203907 0.06452378 0.3061652 0.23802112 0.30462587 0.26569682 -0.2792588
-0.12961401 0.03048897 -0.03669944 0.23603243 -0.13983607 -0.24314578 -0.37648192 -0.2789973
-0.2646235 0.0155380815 -0.083210066 0.08741052 -0.12573327 -0.42047328 -0.26570016 -0.14404893
-0.534897 -0.40370348 -0.28172523 -0.46907446 -0.40927362 -0.2037646 0.09223439 0.19637643
-0.16609235 -0.10056166 0.35237026 0.22674444 0.30699614 -0.1336192 0.15967049 0.16003151
-0.001231195 0.03071874 -0.15411326 -0.19626367 -0.3205079 -0.03314514 0.19572751 -0.31346565
-0.022927575 -0.1963046 0.25298566 -0.02316488 -0.36132982 -0.06934475 -0.015853671 0.07895898
0.2052505 -0.219037 -0.15545943 0.10379825 -0.057404425 0.03504483 -0.1719321 0.0696332
-0.08723476 0.14263515 0.21614473 -0.09152249 -0.0764223 -0.26733962 -0.2692255 0.038715754
-0.18565457 -0.1667224 0.028422251 0.13833039 0.15771708 0.0062315534 0.19325137 0.106505916
0.09532921 -0.0312561 0.25558555 0.29691732 0.18558775 -0.13667548 0.1105381 0.017014721
-0.2730362 -0.20656395 0.11610141 0.008140912 -0.016028345 0.0853177 0.1924687 0.257927
0.07247031 0.15603167 0.17868608 0.32747728 0.027575614 -0.098387696 -0.03552006 0.08677259
0.029124761 0.0673172 -0.3849751 -0.32230952 -0.41661125 -0.24574707 -0.48239595 -0.32062018
-0.30792052 -0.40057087 -0.41128618 -0.1086273 0.06765195 -0.035251424 0.090575844 -0.34802955
-0.12743911 -0.1066923 0.13863938 -0.2668265 -0.3559942 0.084622934 0.15203221 0.09896469
-0.2748472 0.19150753 0.27351546 0.0956582 0.009106682 0.25260645 0.18525471 0.098784946
-0.035875537 0.021296432 0.16817448 -0.033609387 -0.05991165 -0.2833923 0.042464487 0.05377517
-0.049935427 -0.3788589 -0.34320277 0.073056035 0.23793937 -0.029915059 -0.20949617 -0.024704784
-0.041487142 0.29790866 0.17406335 -0.06646258 0.054988872 -0.14341287 0.07639443 0.0793503
0.107181996 -0.058843236 0.08540715 0.11379637 -0.10307583 -0.011328001 0.21225396 0.11303449
0.13093285 -0.20995934 -0.14933223 0.27328455 0.05325473 -0.14947836 -0.6116446 0.16644083
0.010886784 0.35502133 -0.31311244 -0.3848178 0.013146293 0.16322069 -0.13082728 -0.48357978
-0.10422969 0.046835974 0.17729555 -0.40271276 -0.17519714 -0.20361038 -0.08197631 0.16727088
0.19289388 0.15800579 -0.0045193657 -0.07737436 -0.14434792 -0.115170754 0.018654287 -0.14273702
0.15389474 0.15858935 -0.011257303 0.02155213 0.09804612 0.09476058 0.12852068 0.17272161
0.19182263 -0.07106473 0.04755004 -0.048359755 0.032890156 -0.05879294 -0.08435799 0.05438078
-0.30906612 -0.024543276 -0.22186296 -0.047919456 0.12044324 -0.09116116 0.1961245 0.19981779
-0.17072138 0.07601503 0.039029434 0.19623508 -0.001010993 0.2108865 0.22037858 0.3206659
0.12535691 -0.078549 -0.27534366 -0.1905117 -0.21951792 0.06659406 -0.41032654 -0.117721096
-0.20024084 0.05284002 -0.11966751 0.24689043 0.22025487 0.006026284 -0.21860671 -0.24954039

0.bias f4 [64]
00000000: f87c cdbc 7d18 60bc e724 5ebd cddc f5bd
00000010: 945d 92bc a226 3dbe 5d7e 87be de71 d2bc
00000020: c309 9ebe 20fd fdbd d46e 52be d9bc cf3d
00000030: 096b 803d d156 1bbe 4fa5 6cbe f36f a3bd
00000040: 5f7d 97be ab76 8bbe 27c4 2cbe 174a 8dbe
00000050: f24d 2ebe 0715 66be 240b febd d8ed 5bbe
00000060: acc6 eabd 4272 55be bc9f 2abd fe3a 30be
00000070: c99f bfbc 2705 d0bc 68b3 8abe 5ed5 28be
00000080: df22 143e 4a11 42be ff0c aabe 99c3 e6bd
00000090: cfeb 30be f099 aabe 3d98 f6bd ad4c a5bd
000000a0: 6504 a2be e66f b0bc 1cda 29be 586b 00be
000000b0: 3ce3 a5bc 058f f7bb 53e9 6fbd 89b4 e5bd
000000c0: 15da 29be 7de1 62be de34 9dbd 0774 543d
000000d0: eb41 7bbe a0a5 e63d db36 5dbe da23 93be
000000e0: efca 0abe 2061 fa3c cea8 5dbe ce12 b2bc
000000f0: d725 8ebe 6bf5 45be 5e04 b4bd 7e1d 80be
-0.025084004 -0.013677713 -0.05423441 -0.12005005 -0.017866887 -0.18471768 -0.26463595 -0.025689062
-0.30866823 -0.124017954 -0.2055009 0.10143442 0.06270415 -0.15169837 -0.23109935 -0.07980337
-0.29587838 -0.27238974 -0.16871701 -0.2759559 -0.17021921 -0.22468959 -0.12404469 -0.21477449
-0.11463675 -0.20844367 -0.04165624 -0.17210004 -0.023391621 -0.025393082 -0.2709 -0.16487643
0.14466427 -0.18951908 -0.3321304 -0.11267776 -0.17277454 -0.3332057 -0.12040756 -0.08071265
-0.31643978 -0.021537732 -0.16587108 -0.12540948 -0.020249955 -0.007554891 -0.058572125 -0.11216075
-0.16587098 -0.2215633 -0.07676099 0.051868465 -0.24536864 0.11262059 -0.21602957 -0.2873829
-0.13553976 0.030563891 -0.21646425 -0.021737482 -0.27763245 -0.19331901 -0.087898955 -0.250225

4.weight f4 [128, 64, 5, 5]
00000000: c67f 573c e677 853d c976 833d 25f8 e93d
00000010: 6f11 3c3d bb9d 86bd 63eb 4d3d f5e9 0a3d
00000020: da3d 0a3c e0eb ceba 3c8c abbd 8280 d7bc
00000030: ec60 e4bc 8afd 6a3c cf71 2b3d 950c 8cbb
00000040: e0d1 383d a5bd 923d 14a1 d8bc 6136 af3d
00000050: 0610 ba3a c5aa 293c d2c6 aa3c 8bba 2dbd
00000060: 0103 cc3c d9fd fa3d abde b43d 79ad 6c3d
00000070: db42 813d 80bf fc3c c61e 193d c729 7e3d
00000080: 52c9 ccbc ef98 d5bc 7993 413d 2cb8 87bd
00000090: bb80 d9bd 6ebb 84bd 366b 27bd ab01 debc
000000a0: be17 63be 0172 fbbd 8c12 4abc 978b 15bd
000000b0: cbce 953c 2410 91bd 07c3 0fbe 2b38 3cbd
000000c0: d279 573c caa6 643d 825e e0bb f6b3 003b
000000d0: 118b 89bd 4be8 51bd f50a efbc 06ff 0f3d
000000e0: ad4d 5fbb 6b23 3ab9 ef58 4cbd f599 7abd
000000f0: c02c ca3d e54b de3b 5dcc 14be 229c 24bd
00000100: ccc8 e43c 02ef 5abc 9222 57bd 513c 25be
00000110: e335 19bd 6245 2f3c 9821 92bc c48c fd3c
00000120: 6a38 17be bd37 cebb e3de b4bc 107d 4d3d
00000130: ed6d 2c3c 216a 913d bf57 b23d 990c 99bc
00000140: 24c3 413d 37d9 bc3d 4cb2 1fbd 47fe 323c
00000150: 0c9d f0bc b3e4 1e3c 1cab 65bd 4427 cd3a
00000160: 17ab d43c 137a 1fbd 3d31 c73b 709f f0bc
00000170: 401c 8c3c a463 a5bc a0d8 553c a79b d03c
00000180: d055 48bc 04d1 0cbd b0b3 a1bd 8075 1b3b
00000190: 312e 04bd c888 86bd 1cc6 c6bd 434b 1dbd
000001a0: 8198 34bd f5d0 46be d7cf 68bc 6aa4 d93d
000001b0: 71b2 2d3d cb12 a7bd b4e1 16be d66a 8ebc
000001c0: 326b 913d c174 5b3c 1bc4 95bd 51e6 6ebd
000001d0: 1d28 fdbd ec0e 9cbd f493 b93c 715e b33d
000001e0: 3793 9e3b b6ba f7bc e0e0 bc3c 360d 37bd
000001f0: 7f43 0c3e 56ed bc3c be67 253c c858 6f3c
00000200: 3f94 6f3c 3e83 cfbc 512d 0fbb 20f3 893d
00000210: d090 243d 7a22 15bc 0d7f b03c ff92 943d
00000220: 7990 a03c f0a4 1cbc af38 ce3c 14c1 b9bc
00000230: e513 8bbd b7ba 93bc 1362 0a3c 33d4 09bc
00000240: 9470 f0bc 372d 00ba 03e5 ecbc 35b1 9ebd
00000250: 23ed 6fbd fbac f73c 805d 553c 1de7 fc3b
00000260: 1ba8 563d 46ca 7c3b b8a9 61bd 7cae 3fbd
00000270: 4b31 b73b 6ca7 833c b4a4 0ebd cf4d d0bc
00000280: 3e51 3ebc 1132 92bb 3b2d 80bd 3d7e 3cba
00000290: c2a4 363d 15bf a4bb 1ec8 ab3d 1e3b e23c
000002a0: 3659 24bc f058 c5bd 59cf 91bc 704c 1e3d
000002b0: 97ba 493d fbb5 c5bd bb50 babd 83c5 50bd
000002c0: 4184 4ebc ea2a 25be 4882 0dbe 8538 d9bd
000002d0: 0e57 0d3d c984 10bd 8289 c3bd 3557 f5ba
000002e0: 6e3b ce3b 6627 4e3d 3ba0 afbd 8317 eebd
000002f0: 3fd5 033d 4e3e 38bd e9ff 63bd 0067 9b3c
00000300: 2114 85be 6df5 323d 2b6a 98bb d1a8 a93b
00000310: eda8 c53c ff2f 9fbd ce8c 18bd b372 88bd
00000320: ed09 c4bc 0c27 c7bc b1b5 443c e004 a4bb
00000330: f0a7 8bbd 9c0d 6cbd e46e 923d 8251 8c3c
00000340: 2d1b 13bd c767 933c 5cdf 113d 019a 283d
00000350: 42a8 a03c 20a5 8fbd 1cb5 033c 7fde c3bc
00000360: 008a 4dbc 508e 083c dc28 93bd 3016 26bc
00000370: 6ea7 7a3c dcab 9d3c 8549 ba3c db50 a6bd
00000380: 3af4 53bd 2941 aabc 30ef 0dbd f971 85ba
00000390: 0b27 65bc bdc7 7ebd a52a f83c 4a52 d23c
000003a0: b12f 403d e7dd 583d d6e7 40bd 0ddf 91bd
000003b0: 8ea3 023d 26ea e53b 10bc 11bd 7883 413c
000003c0: 9cd0 0d3d 6622 86bd 49b0 5a3d 51ae 6abd
000003d0: b49b 063d 8473 15bd ef0c 00bd 1b5a 8f3b
000003e0: a6e7 6dbd 00ea 1cbe 9507 3abd e16d 9b3c
000003f0: f9e6 75bd f7e1 a3bd 11cd b5bd e752 8c3a
0.013153022 0.065170094 0.06419141 0.11424283 0.045915063 -0.065730534 0.05027331 0.033914525
0.008437598 -0.0015786849 -0.08376357 -0.026306394 -0.027878247 0.014342675 0.041856583 -0.004273961
0.045122027 0.07165078 -0.026443996 0.08555294 0.0014195449 0.010355656 0.020846758 -0.04241423
0.024903776 0.12255449 0.08831533 0.057782624 0.0631158 0.030853033 0.037382863 0.06205156
-0.02499834 -0.026073901 0.04725978 -0.06626925 -0.106202565 -0.06481062 -0.04087373 -0.027100405
-0.22177026 -0.12277604 -0.0123335235 -0.036510076 0.018287083 -0.07083157 -0.14039241 -0.045952003
0.013151603 0.055823125 -0.0068472037 0.0019638515 -0.06715978 -0.051246922 -0.02918003 0.03515532
-0.0034073398 -0.00017751537 -0.0498895 -0.06118198 0.09871817 0.0067839497 -0.14531083 -0.040187962
0.027927779 -0.013362648 -0.052523203 -0.1613629 -0.037404906 0.0106976945 -0.017838284 0.030950911
-0.14767614 -0.0062932656 -0.022078937 0.050168097 0.010524255 0.071003206 0.087081425 -0.018682765
0.04730524 0.09221118 -0.038988397 0.010924882 -0.02937176 0.009698081 -0.056071386 0.0015651961
0.025960488 -0.03893478 0.0060788677 -0.0293729 0.017103314 -0.020189114 0.013052136 0.025464846
-0.012227491 -0.03437902 -0.07895601 0.0023721159 -0.032270614 -0.06569058 -0.09705755 -0.038401853
-0.04409075 -0.19415648 -0.014209709 0.106270626 0.042406503 -0.08157881 -0.14734536 -0.017384928
0.07100524 0.0133945355 -0.07312795 -0.058325116 -0.123611666 -0.076200336 0.022653557 0.08758248
0.0048393267 -0.030240398 0.023056448 -0.044690333 0.13697623 0.02306239 0.010095535 0.014608569
0.014622747 -0.025331136 -0.002184708 0.067358255 0.040177166 -0.009102458 0.021544958 0.072546
0.01960014 -0.009560809 0.025173513 -0.022675075 -0.06790904 -0.018033369 0.008446234 -0.008412409
-0.029350556 -0.000488955 -0.028917795 -0.07748643 -0.05857576 0.03023385 0.01302278 0.0077179805
0.05240641 0.0038572713 -0.055093497 -0.04679726 0.005590593 0.016071044 -0.034825042 -0.025427727
-0.011616049 -0.004461535 -0.06258627 -0.0007190442 0.04459072 -0.0050276616 0.08387779 0.02761608
-0.010031035 -0.09636104 -0.017799066 0.038647115 0.04925021 -0.09653851 -0.09097429 -0.05096961
-0.012604774 -0.16129652 -0.1381923 -0.10606483 0.03450685 -0.035282884 -0.09547712 -0.0018718006
0.0062937057 0.050330542 -0.085754834 -0.11625578 0.03218579 -0.044981293 -0.055663977 0.018970013
-0.2599192 0.043691088 -0.004651328 0.005177595 0.024128402 -0.077728264 -0.037243657 -0.06662502
-0.023930514 -0.024310611 0.012006209 -0.005005464 -0.06819141 -0.057630166 0.07150057 0.01712871
-0.03591459 0.01799382 0.035613403 0.041162495 0.019611482 -0.07013917 0.008038785 -0.023909805
-0.012545109 0.008334711 -0.07185528 -0.010137126 0.015298707 0.019246988 0.022740135 -0.08120891
-0.051746584 -0.020783024 -0.034651935 -0.0010181061 -0.013986359 -0.062202204 0.030293772 0.025674004
0.046920482 0.052945998 -0.047096096 -0.07122622 0.03189426 0.007016438 -0.03557974 0.01181113
0.034622774 -0.0654953 0.053390775 -0.057295147 0.032863334 -0.036487117 -0.031262334 0.004374755
-0.058082245 -0.15323639 -0.045417387 0.018973293 -0.060034726 -0.08002084 -0.08877004 0.0010705859

4.bias f4 [128]
00000000: 6e6f fcbd d70b 8dbc b5f7 d9bd 35ed 9abd
00000010: 05c3 3dbd d926 d9bd 12b9 08be f56a a9bd
00000020: 07e1 5dbd 2bc5 57bd b070 8cbd 1f08 fdbd
00000030: ea10 babd 66f2 08be e7b8 b8bc f380 e3bd
00000040: 4a44 0fbd 0eba 9cbc 448f eebd 0cf0 56bd
00000050: 9960 98bd 3403 95bd 7af4 05be 95f6 a3bd
00000060: cbed f0bd 90aa f1bd 5a49 16be 0bb4 aebd
00000070: 64bb 68bd ba5d 39be c506 32bd d72b 0bbe
00000080: 0932 ddbd 64c2 7fbd 3f6c 2cbd 9f3b 96bd
00000090: 2c5d afbc 43b2 adbc f4eb 47bd 1381 8ebd
000000a0: 99d1 c8bc a3ec b8bd a1c6 bfbd 9b3d d2bd
000000b0: ed0e a2bd 067a 8cbd f4b8 00be f677 c3bd
000000c0: 294b edbd 4985 d7bd 26ed 8dbd a7b5 d9bd
000000d0: 278f 6bbd 64bc c7bd a022 9dbd a68f 9dbd
000000e0: 4c71 65bd 4040 6bbd 83f6 6fbd aa34 87bd
000000f0: 3e37 16be 0a50 b7bd ff4b f4bd 6cbf 0bbd
00000100: b8bb 44bd be05 acbd 7f3c 13be cf47 b8bd
00000110: c11e c7bc 5d38 09be 45ed acbd afcd b7bd
00000120: 98a0 babd 3c8a 26be 84eb 0dbe 586f 61bd
00000130: 4bbb d9bd 4586 5bbd 705b 04be a9ef 0bbe
00000140: ea24 f0bc aedf 05be 8c47 0dbe 6ef7 6bbd
00000150: 4d71 14bd d928 f6bd fe4f 88bd d5ed b2bd
00000160: c7e8 c1bd b30d b1bd 39e3 86bd 532e e4bd
00000170: bb0d 49bd ec59 80bd 0849 6ebd 8d3a babc
00000180: 25f6 81bd 4c8f 90bd 9ab5 e6bd 381a ebbd
00000190: baf2 db3b 456f d8bd 339b c5bd caaa 17be
000001a0: bc7a 82bd 7fd0 f9bd 2679 fcbd ca60 1fbe
000001b0: 39c4 70bd 083a 52bd eeb3 b6bd 93ae 8ebd
000001c0: feb2 ffbd edf8 e1bd deb0 edbc 1f9d dabd
000001d0: a193 b9bd 63d5 b0bd b59a a8bd 51a5 88bc
000001e0: a6ea d8bd 3d80 92bd 7e6c 42bd d8b4 80bd
000001f0: 229e 47bd baee adbd ab11 dbbd a0be 97bd
-0.12325941 -0.01721756 -0.106429495 -0.07564775 -0.046328563 -0.10603113 -0.13351849 -0.082723536
-0.05416968 -0.05267827 -0.06857431 -0.123550646 -0.09085257 -0.13373718 -0.022549106 -0.111085795
-0.034977235 -0.019131687 -0.116484195 -0.05247502 -0.074402995 -0.072760016 -0.13081542 -0.08006016
-0.117641054 -0.1180011 -0.14676419 -0.08530434 -0.056819335 -0.1810216 -0.043463487 -0.13590942
-0.10800559 -0.062441245 -0.04209542 -0.073355906 -0.021406732 -0.021203166 -0.048809007 -0.06958213
-0.024514006 -0.0902951 -0.09364057 -0.102656566 -0.07913003 -0.068592116 -0.12570554 -0.09544365
-0.11586601 -0.10523469 -0.06929998 -0.106303506 -0.057509568 -0.097527295 -0.0767262 -0.076934144
-0.05601625 -0.05743432 -0.0585847 -0.06601842 -0.1466951 -0.08950813 -0.119285576 -0.0341181
-0.048030585 -0.08399533 -0.14378546 -0.089980714 -0.024306657 -0.13400407 -0.08443693 -0.08974778
-0.09112662 -0.1626367 -0.13859373 -0.055037826 -0.106314264 -0.053594846 -0.12925506 -0.13665642
-0.029314477 -0.13073608 -0.13796824 -0.057609014 -0.036240865 -0.1201951 -0.06655882 -0.08736769
-0.09468227 -0.08645191 -0.06586308 -0.11141648 -0.04908536 -0.06267151 -0.058175117 -0.022732997
-0.063457765 -0.07058582 -0.112651065 -0.1147961 0.006712285 -0.10568098 -0.096487425 -0.14811245
-0.06371066 -0.121979706 -0.12327795 -0.15564266 -0.058780883 -0.051324874 -0.089210376 -0.06966891
-0.12485312 -0.11033807 -0.029015 -0.106745 -0.09061361 -0.0863445 -0.08232633 -0.016680392
-0.10591631 -0.07153366 -0.047466747 -0.06284493 -0.04873479 -0.08492799 -0.10696729 -0.07409406

9.weight f4 [10, 1152]
00000000: a3fc b7bd b207 ddbc 3263 463c 158e d7bc
00000010: 0bf7 393c 0720 86bd d015 f2bb 68f3 05be
00000020: 5d53 46bd 46a2 46bd 40ea dcbc 8073 91bd
00000030: df50 f53c 87e9 52bd 21ac 95bc 9f64 313c
00000040: 8343 5bbe 0826 b3bd a2c1 fdbb 889d d53c
00000050: b5e5 5f3d 852d 20bc d1c4 603d b47d 053d
00000060: fdc4 b2bc 14f1 c0bc a113 3cbd ef82 a23d
00000070: 315b d83d 8fb4 efbc 2f04 8ebd 82b6 e53d
00000080: c271 ffba 86de c23c 366d c03c 91e8 9cbd
00000090: 7ef4 23be 4e7b da3d cd8c b0bd 5be4 063e
000000a0: 7d6c 4c3d a07f 163d 89b2 033d 4ca2 1ebe
000000b0: 4cd6 63bd 37b9 68bd 7760 03bd 662a 23be
000000c0: cd38 a3bc 1549 023d f4f1 063d de62 cebd
000000d0: d2c6 8c3d e415 c8bd a33c b6bd 55d5 e63c
000000e0: cd51 903d d76a 6fbd 8091 5dbd b1b2 dcbd
000000f0: 6021 a3bd 1ca4 223d 8b62 2ebd fa15 aebd
00000100: d94d cc3d 6dce e2bc 745e a0bd 2e1a 483d
00000110: 6595 193e 1755 3e3c 499a b63c cdcd 41bd
00000120: f864 c93c 4f2b 61bd 5385 b53c d041 363d
00000130: 3142 b2bd f717 ecbb 631a 88bd 3653 623d
00000140: 9a98 2d3d 66ae 1ebd f8e4 aabc 80d0 163d
00000150: 690f 0cbc 06f2 953c d129 e13d b0db 07bb
00000160: c13d 03be 78d5 2239 0329 3abd ff56 1abc
00000170: 38b3 21bd b74a a53d b53b 23bc c3d5 ea3d
00000180: 3a9f 0bbd de8b 22bd 28fc fa3d 5c19 04bc
00000190: d84d 00bc 4550 4e3d fff0 aa3d 221b 92bc
000001a0: aab2 313d ff3c 2b3a c551 9fbc e4c4 b0bd
000001b0: d891 fe3c 18d4 083d 7a65 3abd 7300 9f3c
000001c0: 2f8b f4bd 7be9 d33d 6d86 84bd b0de 9fbd
000001d0: e94d 17bd 5263 93bd 22f2 2e3d 617d e8bd
000001e0: 06f0 aebc 502f 823d e899 8cbc 7396 973d
000001f0: cc3f 063d f5f1 08bd 1d05 283d 0914 603d
00000200: 956c b1bc 18df 623c 43d8 c9bd aafa 1f3d
00000210: 11d6 1e3d 1e5c 3d3d 242b 763c 6260 8fbd
00000220: abda 4ebb 5e72 643b 16b1 6dbd 03f1 e0bc
00000230: 8936 38bc 166b 8b3c a864 313d 98cc 933c
00000240: 859c eb3c f777 0c3c f273 3ebd cfe3 d53c
00000250: df61 f9bb 6b56 e03c 4b5f 6f3d 3413 6fbe
00000260: 82fe af3c fa93 b6bc 4b66 b93d 89d9 1abd
00000270: 53e6 92bc e0da 413d 3e70 b23c 7047 9fbd
00000280: aa72 c43b 3a7d c3bd e113 213a 0a40 8cbc
00000290: 1298 043d 0dcf c63d 1fef ce3c e9a7 4bbc
000002a0: 654b ce3c 2c2c b4bc d2ab e0bd d03c 01bd
000002b0: 4e4c 41bd 528f 36ba d5f8 263d c84b 8a3d
000002c0: de93 da3c cf25 463c d257 6cbd 663a 9bbe
000002d0: 763f 1a3d 4e99 62bd 5d05 88bc de30 34bc
000002e0: 281f 423d 46d7 923b 34a7 24bd 6e9a 653d
000002f0: 56ed 603c 697e 99bc 11ec febc 769d aa3c
00000300: daee 56bc 1c6a a83d 95bd 40bc 9abc 17bd
00000310: e199 fabb fbcb 99bd fc35 51bc 41e9 dab8
00000320: 91c0 f03d 9bd4 283d 5055 b8bd 62be 5cbb
00000330: d8b1 aabd 611f 8bbc 49aa 4d3d 8c5d 923d
00000340: dfd9 d0b9 46bd 22be 2326 88ba 0db4 bbbd
00000350: d0bf 8c3d 807b 663c 85b0 b739 fe42 fb3c
00000360: eac2 813c b437 59bc aba8 773d 9fde 863d
00000370: e03a 3d3d 17b0 0abe 2cce ebbc a73f 823c
00000380: f283 9abd 49bd 563d 6c01 80bd 7222 4cbb
00000390: 7232 70bd 0375 0c3d 43c9 f4bc 2e6f 68bd
000003a0: 853c 55bd ed85 5d3d e5bd 85bd 9b66 7d3d
000003b0: e923 8bbc 3486 c63d 1f09 0f3e 382b 2abe
000003c0: d3c8 1b3d efc5 963c f007 adbd 4cf9 bbbd
000003d0: 0233 9f3c 7962 0c3d 1acf 6b3d c6b8 a93c
000003e0: 6629 433d c2af 8a3d 42f7 cbbc 9199 abbc
000003f0: 8166 adbd 7175 9abd bb76 d53c f5cf 793d
-0.089837335 -0.026981208 0.012108611 -0.026312867 0.011350404 -0.065490775 -0.007387854 -0.13081133
-0.048419345 -0.0484946 -0.026967168 -0.07102108 0.029945789 -0.05149224 -0.018270554 0.010827213
-0.21412472 -0.08747488 -0.00774403 0.026076093 0.054662425 -0.009776478 0.0548752 0.032590583
-0.021822447 -0.023552455 -0.045917157 0.0793513 0.105642684 -0.029260902 -0.06934392 0.11216451
-0.0019488859 0.023787748 0.023489576 -0.07661546 -0.16011235 0.1066805 -0.086206056 0.13173048
0.04990815 0.036742806 0.032152686 -0.15491599 -0.05562429 -0.05681726 -0.032074418 -0.15934142
-0.019924546 0.031807978 0.03294559 -0.10077451 0.068738595 -0.097698 -0.08898284 0.028177897
0.07046852 -0.0584515 -0.054093838 -0.1077627 -0.0796535 0.03970729 -0.042574447 -0.085002854
0.09975786 -0.027686322 -0.078305155 0.048853092 0.14998396 0.011616967 0.022290366 -0.047315408
0.024584278 -0.054972943 0.0221583 0.044496357 -0.08704031 -0.0072050053 -0.06645658 0.055255137
0.04238186 -0.038740538 -0.020861134 0.036819935 -0.008548596 0.018303882 0.10994304 -0.002073031
-0.12816526 0.00015529047 -0.045449268 -0.009420156 -0.039477557 0.08070891 -0.009962966 0.11466553
-0.034087397 -0.03968417 0.12255126 -0.008062687 -0.007831059 0.05036952 0.083467476 -0.017835204
0.043383278 0.00065322215 -0.01944817 -0.08631304 0.031075403 0.033405393 -0.04550693 0.019409394
-0.1194061 0.10347267 -0.06470952 -0.07806146 -0.036939535 -0.07196678 0.042711385 -0.11352039
-0.021354686 0.063566804 -0.017163232 0.07401743 0.032775685 -0.033433873 0.0410205 0.054706607
-0.021658221 0.013847135 -0.09855702 0.03905741 0.03877837 0.046230428 0.015024934 -0.070008054
-0.0031563442 0.0034858207 -0.05803021 -0.027458673 -0.011243471 0.017018836 0.043308884 0.018041894
0.028761158 0.008573524 -0.046497293 0.026109604 -0.007610544 0.027384957 0.058440488 -0.23347169
0.021483663 -0.022287358 0.09052714 -0.037805114 -0.017932093 0.047327876 0.021782037 -0.077772975
0.0059951143 -0.095453694 0.0006144625 -0.01712038 0.032371588 0.097074606 0.025260506 -0.01243017
0.025182435 -0.021993719 -0.10970272 -0.031552136 -0.04719191 -0.00069641054 0.04076465 0.067527354
0.026681837 0.012093975 -0.05770094 -0.30317992 0.037658177 -0.055321984 -0.01660412 -0.010997979
0.047392994 0.004481229 -0.04019852 0.05605548 0.01372846 -0.018737035 -0.031118425 0.020827036
-0.01311847 0.08223364 -0.01176395 -0.0370451 -0.0076477383 -0.07509609 -0.0127692185 -0.00010438497
0.11755479 0.04121838 -0.09000647 -0.0033682813 -0.08334702 -0.016982736 0.050211225 0.07146749
-0.00039835178 -0.15892515 -0.0010387342 -0.09165201 0.06872523 0.014067531 0.00035035997 0.030671593
0.015840013 -0.01325791 0.06046359 0.0658543 0.046198726 -0.13543735 -0.028784834 0.015899492
-0.07544698 0.05242661 -0.06250271 -0.003114846 -0.05864186 0.03429128 -0.029881125 -0.056746654
-0.05205967 0.0540828 -0.0653036 0.06186543 -0.016984897 0.09693566 0.13968323 -0.16618049
0.038033318 0.018404929 -0.084487796 -0.09178409 0.019433502 0.0342736 0.057570554 0.02071799
0.047646903 0.067718044 -0.024898175 -0.02094725 -0.08466817 -0.075419314 0.026057592 0.06098934

9.bias f4 [10]
00000000: 8f8b 2b3d b516 de3c 82e2 0bbd b84e 473d
00000010: 2d19 e23b aa5a 673b 2e75 c4bb e93d ae3c
00000020: fd00 103d 52da eabc
0.04188114 0.027110437 -0.03415156 0.048659056 0.006899974 0.0035301843 -0.005995414 0.021269755
0.035157192 -0.028668556
