miniprojekty/model_mnist_cnn_20250621155746.pth (torch, 876009 bytes, 6 tensors)

0.weight f4 [64, 1, 5, 5]
-0.006185919 -0.1369972 0.12316866 -0.019559234 0.14667116 -0.032697916 0.119641975 -0.110626005
-0.10888946 0.020126656 -0.1846681 -0.17090324 0.10157357 0.16603924 0.0016789138 0.08877151
0.07829301 -0.12293489 0.123579964 0.13774078 0.09129526 0.18735363 0.08354078 -0.02470532
0.1662526 -0.1685648 -0.11800557 0.04825151 -0.16278513 0.13010727 0.07518403 -0.07098849
-0.06494653 -0.101222925 -0.12411358 0.03668347 -0.19361706 0.17152803 0.039099425 -0.0859561
0.015395686 0.11425604 0.1824546 0.08848862 -0.008703992 0.10704653 -0.15047237 0.06704922
-0.007694602 -0.15487957 -0.05503826 -0.084238075 0.087990776 0.009377688 -0.006742388 0.10430436
0.034640387 0.06140791 -0.046294957 0.00032751262 -0.087059855 0.022186711 -0.02487734 -0.18153293
-0.09952982 -0.049618095 -0.0774612 -0.12575114 0.14573081 0.038790673 -0.0031466186 -0.056374982
-0.1564271 -0.0028667897 0.045939133 -0.10174101 -0.049024746 0.1500702 0.072560176 0.031199023
-0.015120149 0.11634083 0.00043138862 -0.14931075 0.1517903 -0.15417616 0.023388386 0.17589934
0.12767236 -0.13670257 -0.0805645 0.083071366 0.0023570955 -0.154362 -0.14553185 -0.086010836
0.06872882 -0.086248755 0.08674015 -0.18189032 0.07451253 -0.014155954 -0.060175627 0.05326982
0.013462827 -0.19909313 0.027910471 0.12533186 -0.13827237 -0.09989996 0.07936527 -0.18866837
0.029080197 -0.16933535 -0.18294926 0.15904142 -0.07691739 0.09234001 -0.17695068 0.16907115
0.081045076 0.13340847 -0.016999125 -0.0988272 0.10777913 -0.09115229 -0.04322855 -0.0023029596
-0.14770894 0.051533923 -0.08279071 -0.015348151 0.09795453 -0.12683633 -0.12343869 0.13409428
-0.16696736 0.12793694 -0.13820843 -0.06924541 -0.07608356 -0.112808585 -0.15863743 -0.1343166
0.05388309 -0.14938295 0.012738988 -0.02762945 -0.12091332 0.15201177 -0.11196528 0.06385742
0.13766833 0.120258525 0.15529053 -0.13722558 0.08678229 0.08513804 0.010375738 -0.100763224
-0.002090171 0.07789235 0.11983125 0.058532044 -0.063453466 -0.030236572 -0.081117466 -0.03742981
0.07402398 0.1001841 -0.097215034 -0.12592551 0.106867 -0.011426449 0.03979142 0.12943392
-0.14429176 0.124989584 0.16918351 -0.1518583 0.0029446334 -0.18453507 -0.07803605 -0.03910859
-0.12670177 0.1155286 0.14799263 0.04813263 -0.12302222 0.15401186 -0.023448378 -0.14987664
-0.12514384 -0.010228708 0.027168125 0.07040016 0.06558196 -0.07846504 -0.05351767 0.037183598
0.056191012 -0.009641558 -0.07705746 0.05114256 0.18917932 -0.12329745 -0.043909907 0.031468585
-0.19473425 0.19396459 0.047592 0.021187425 0.1790816 0.19196112 -0.14251356 -0.15342514
0.059173033 -0.14254257 -0.10696115 0.110680655 0.021836445 0.008109689 0.15153484 -0.15721734
0.11350258 0.12753756 0.01413548 -0.11373653 0.030358315 -0.12109168 0.03878674 0.059473142
0.19919492 0.15151586 0.04369478 0.115042254 -0.100161195 0.17198958 0.045033485 -0.048364356
0.16721044 -0.012531072 0.18772797 -0.1273888 0.120490685 -0.10305085 0.19420044 0.119017825
0.12253831 0.064749435 0.04698129 0.1848071 -0.17771189 0.0108293295 -0.19022425 -0.03985484
00000000: 40b3 cabb fe48 0cbe da3f fc3d b03a a0bc
00000010: f730 163e 40ee 05bd da06 f53d e38f e2bd
00000020: 7001 dfbd a8e0 a43c a219 3dbe 4201 2fbe
00000030: ce05 d03d 3106 2a3e 000f dc3a d6cd b53d
00000040: 1658 a03d 4ac5 fbbd 7e17 fd3d eb0b 0d3e
00000050: 02f9 ba3d a1d9 3f3e 6e17 ab3d d062 cabc
00000060: 1f3e 2a3e 409c 2cbe e7ac f1bd 60a3 453d
00000070: 25b1 26be d73a 053e 16fa 993d 6a62 91bd
00000080: b002 85bd f74d cfbd 432f febd 6841 163d
00000090: 8d43 46be 0ba5 2f3e b826 203d c009 b0bd
000000a0: 303e 7c3c 12ff e93d 61d5 3a3e 8639 b53d
000000b0: 309b 0ebc 363b db3d 6e15 1abe 1a51 893d
000000c0: 0023 fcbb c098 1ebe cc6f 61bd 0385 acbd
000000d0: 8234 b43d e0a4 193c 40ef dcbb 869d d53d
000000e0: 14e3 0d3d dc86 7b3d c89f 3dbd 00b6 ab39
000000f0: 704c b2bd e8c0 b53c 90cb cbbc c5e3 39be
00000100: 4ad6 cbbd 583c 4bbd faa3 9ebd e8c4 00be
00000110: 753a 153e f8e2 1e3d 8037 4ebb 74e9 66bd
00000120: 6d2e 20be c0e0 3bbb ac2a 3c3d 975d d0bd
00000130: 2cce 48bd 01ac 193e 6e9a 943d 1895 ff3c
00000140: 80ba 77bc 1a44 ee3d 002c e239 ebe4 18be
00000150: eb6e 1b3e 5be0 1dbe 0099 bf3c f51e 343e
00000160: 8bbc 023e c2fb 0bbe 00ff a4bd 5221 aa3d
00000170: 8079 1a3b 1211 1ebe 4d06 15be 7326 b0bd
00000180: b2c1 8c3d 30a3 b0bd d2a4 b13d 7541 3abe
00000190: 069a 983d 60ee 67bc b87a 76bd 7431 5a3d
000001a0: 3093 5c3c 12df 4bbe 80a4 e43c ff56 003e
000001b0: 4697 0dbe 5a98 ccbd 428a a23d 4832 41be
000001c0: 9839 ee3c 3f66 2dbe 0d57 3bbe c1db 223e
000001d0: dd86 9dbd c21c bd3d 8f32 35be fd20 2d3e
000001e0: f6fa a53d 3b9c 083e c041 8bbc ea65 cabd
000001f0: 4ebb dc3d 0dae babd 6c10 31bd 40ed 16bb
00000200: 0341 17be 3c15 533d 2d8e a9bd d076 7bbc
00000210: 629c c83d 62e1 01be 6dcd fcbd 0350 093e
00000220: 7ef9 2abe e701 033e 8386 0dbe 8ad0 8dbd
00000230: b3d1 9bbd 3008 e7bd da71 22be 4a8a 09be
00000240: 84b4 5c3d d8f7 18be 30b7 503c 2857 e2bc
00000250: 67a1 f7bd f9a8 1b3e 0d4e e5bd aec7 823d
00000260: edf8 0c3e 1a4a f63d 7b04 1f3e dd84 0cbe
00000270: eaba b13d da5c ae3d 00ff 293c f35c cebd
00000280: 40fb 08bb 0686 9f3d 166a f53d 4cbf 6f3d
00000290: e4f3 81bd b0b2 f7bc ea20 a6bd 0050 19bd
000002a0: e299 973d 522d cd3d ad18 c7bd 9ef2 00be
000002b0: 16dd da3d 0036 3bbc 54fc 223d 538a 043e
000002c0: 38c1 13be 8afa ff3d 713e 2d3e be80 1bbe
000002d0: c0fa 403b c3f6 3cbe 5dd1 9fbd 5430 20bd
000002e0: 1cbe 01be 429a ec3d 618b 173e b826 453d
000002f0: 13f3 fbbd 49b5 1d3e d016 c0bc 4379 19be
00000300: b525 00be 5096 27bc b08f de3c f62d 903d
00000310: d64f 863d 47b2 a0bd 5835 5bbd d44d 183d
00000320: 8c28 663d a0f7 1dbc 4dd0 9dbd dc7a 513d
00000330: 39b8 413e 6083 fcbd e0da 33bd 34e5 003d
00000340: 6a68 47be a79e 463e d4ef 423d 4091 ad3c
00000350: 2b61 373e 7591 443e 13ef 11be 7b1b 1dbe
00000360: 6c5f 723d aef6 11be 730e dbbd 8aac e23d
00000370: 58e2 b23c 80de 043c f32b 1b3e 95fd 20be
00000380: 0a74 e83d 3599 023e 8098 673c b3ee e8bd
00000390: 00b2 f83c eafe f7bd d8de 1e3d 1c9a 733d
000003a0: c1f9 4b3e f926 1b3e 4cf9 323d 469b eb3d
000003b0: 5021 cdbd 091e 303e 0875 383d b419 46bd
000003c0: 3739 2b3e 204f 4dbc c33b 403e 3672 02be
000003d0: d2c3 f63d 530c d3bd 7bdc 463e 9ebf f33d
000003e0: 5ef5 fa3d 5a9b 843d 746f 403d 133e 3d3e
000003f0: 1bfa 35be 806d 313c 25ca 42be d43e 23bd

0.bias f4 [64]
0.19274391 0.023906067 0.107202545 0.0043710023 0.027940348 -0.039880008 -0.01187022 -0.175958
-0.071647674 0.1788959 0.15926279 -0.18376605 -0.13246831 -0.0789505 0.044198513 -0.18432577
-0.035491392 -0.14070733 0.14085506 -0.17936146 0.17731835 0.14114727 -0.06293082 0.09965487
0.19826202 0.13598852 -0.15741622 -0.09946229 0.12205131 0.057793513 0.0021744967 0.07459082
-0.042840168 -0.1868829 -0.12348175 -0.06573734 0.0010834485 0.18364836 0.18193294 0.09581293
-0.028265595 0.021497339 0.01704523 -0.15185428 -0.031996414 -0.14244881 0.11976017 -0.0033539534
0.1602873 -0.10574801 -0.1681582 0.053459898 -0.07519038 -0.17702313 0.06965466 0.12975366
0.11030547 -0.09819386 -0.034105867 -0.11370957 0.00027561188 -0.003933817 0.12400441 0.16966806
00000000: a95e 453e a8d6 c33c 028d db3d a03a 8f3b
00000010: 28e3 e43c 3859 23bd 507b 42bc 552e 34be
00000020: 04bc 92bd 7d30 373e c915 233e 2b2d 3cbe
00000030: c6a5 07be cdb0 a1bd 8009 353d e5bf 3cbe
00000040: 6c5f 11bd 9515 10be 4f3c 103e 88aa 37be
00000050: f192 353e e988 103e e0e1 80bd da17 cc3d
00000060: 3305 4b3e 9340 0b3e b831 21be e3b2 cbbd
00000070: 0af6 f93d e4b8 6c3d 0082 0e3b 12c3 983d
00000080: 2c79 2fbd 3b5e 3fbe 00e4 fcbd 4ca1 86bd
00000090: 8002 8e3a 510e 3c3e a14c 3a3e 9239 c43d
000000a0: 408d e7bc 301b b03c 70a2 8b3c b07f 1bbe
000000b0: ac0e 03bd 1ade 11be d244 f53d 00ce 5bbb
000000c0: 5b22 243e 6a92 d8bd aa31 2cbe c4f8 5a3d
000000d0: 6afd 99bd 8d45 35be 1aa7 8e3d 25de 043e
000000e0: d6e7 e13d dd19 c9bd 98b2 0bbd 90e0 e8bd
000000f0: 0080 9039 40e7 80bb 06f6 fd3d 77bd 2d3e

4.weight f4 [128, 64, 5, 5]
-0.00021741167 0.020859571 -0.024065843 0.0081206765 -0.022818318 0.0012597628 0.0054376516 -0.013062469
0.013621623 -0.007960955 0.005479267 0.008803459 0.01150232 -0.019335967 -0.0070457645 -0.011584095
-0.0153758675 0.011601055 0.012674229 -0.014355964 0.010178873 -0.023034832 -0.014140966 0.01232277
0.005734971 0.0027314164 0.019350318 -0.020066787 -0.005116731 0.021375908 0.019112172 -0.0239148
-0.02417897 -0.015186468 0.005971184 0.014790578 -0.019655427 0.020262899 -0.0174749 0.016333932
-0.014795286 0.017646192 -0.0059421565 0.0127689075 -0.0069278385 0.024838781 0.02061774 -0.013203508
0.018240748 0.0074868146 -0.02480036 0.016188117 -0.0072677433 -0.0017342176 0.008978007 -0.01944233
0.021642068 0.02299518 -0.00810815 0.023488345 -0.010577008 -0.004135674 0.0026840009 0.010582039
-0.012977651 0.0072327387 -0.013015884 -0.0031435546 0.01213962 -0.0031820182 -0.019524869 0.0025739875
-0.014009214 0.0019178092 0.0030682627 0.015446028 -0.0118176555 -0.0085244365 -0.0032460503 0.010668518
0.02150135 -0.017619446 0.008956799 0.024418416 0.0038622953 0.012893209 -0.023907414 0.015776249
-0.0077958163 0.016850451 0.012774507 0.01984161 0.01840542 0.0051079784 0.000627473 -0.004189318
-0.021209601 0.0037971549 0.010470146 0.017187959 -0.017297652 -0.0062844865 0.008303294 0.020803051
-0.015400618 0.0036033336 0.009218229 0.024093958 -0.020401577 0.006469691 0.023582203 -0.02153767
0.016721377 -0.012869442 0.011762848 0.01380259 0.0028334353 -0.0245523 -0.010276446 0.022921996
-0.01004451 0.015928874 -0.015106144 0.015974453 -0.02301985 -0.0143648265 0.018354142 -0.013508639
0.01313545 -0.0052071717 -0.010290071 0.005299881 0.01758081 0.019487405 0.011217983 0.0043135043
0.014798624 -0.006610859 0.023871304 -0.006359216 -0.011800209 -0.0073589087 -0.0108288145 0.0018274002
-0.002034897 -0.0067329947 0.011380019 0.024434688 -0.014519942 -0.019712362 -0.012986466 0.008981897
0.0018863231 -0.021122837 0.013458522 0.0074634124 -0.02070697 0.016468259 0.02459122 0.014883442
0.009216255 -0.019566145 -0.005405549 0.015969848 0.0068750847 0.007089028 -0.013823176 -0.0073976815
-0.0019503832 0.0013693273 0.0037527382 -0.016901933 0.019395707 -0.014021439 -0.00074760616 0.017041976
-0.016638417 -0.004484918 -0.00805204 -0.009367686 -0.012820604 0.007500736 0.0071617346 -0.0017984565
-0.017295659 -0.0005608294 0.019217348 0.017119626 -0.015923496 0.007419644 0.0075096693 -0.012973509
-0.009186426 0.009723494 -0.0075073726 -0.01214602 -0.021220867 0.021315387 -0.012328282 0.017844236
0.0032297224 0.0060334858 0.02444551 -0.01569688 -0.01488139 -0.014818323 -0.0008631833 0.010000365
-0.011651716 0.010523738 -0.0080899 -0.0070343576 0.0059098992 -0.010289997 0.0053117275 0.009316193
0.012516322 0.010114098 0.017312473 0.021286124 0.02004311 -0.0017129034 0.005463993 -0.004854884
-0.012038735 0.018590441 0.017658865 0.0138737615 0.018789405 -0.020178005 -0.018577185 -0.013919589
0.0033566747 0.0176612 0.012857808 -0.00950529 -0.013363806 -0.016153166 -0.020206746 0.00064468756
-0.008765835 -0.009176031 0.019829659 -0.008080188 -0.00032837316 -8.386932e-05 0.019390719 0.008011309
-0.00010822341 -0.01204246 0.003329957 0.014744626 0.018202828 -0.013938248 0.018402701 0.017954381
00000000: 00f9 63b9 b1e1 aa3c bb25 c5bc 960c 053c
00000010: 7bed babc a01e a53a 542e b23b f703 56bc
00000020: 3a2d 5f3c aa6e 02bc 6c8b b33b 623c 103c
00000030: 3a74 3c3c 7666 9ebc 28e0 e6bb 37cb 3dbc
00000040: 10eb 7bbc 5a12 3e3c 92a7 4f3c 4735 6bbc
00000050: 4ac5 263c 8bb3 bcbc 83af 67bc 72e5 493c
00000060: 6cec bb3b 9001 333b 8f84 9e3c 1a63 a4bc
00000070: 40aa a7bb 871c af3c 2191 9c3c f8e8 c3bc
00000080: fa12 c6bc aad0 78bc eca9 c33b 2e54 723c
00000090: 6b04 a1bc 61fe a53c 8627 8fbc bdce 853c
000000a0: ed67 72bc bf8e 903c 6cb6 c2bb ae34 513c
000000b0: ec02 e3bb b37a cb3c 89e6 a83c 8753 58bc
000000c0: 9f6d 953c f453 f53b 202a cbbc f19c 843c
000000d0: 4026 eebb b04e e3ba 7e18 133c 8545 9fbc
000000e0: b54a b13c 6360 bc3c 0cd8 04bc a16a c03c
000000f0: 304b 2dbc 8c84 87bb 10e6 2f3b 4a60 2d3c
00000100: 37a0 54bc 9c00 ed3b 9340 55bc 1804 4ebb
00000110: 42e5 463c 6889 50bb 9ef2 9fbc 58b0 283b
00000120: e786 65bc 005f fb3a e814 493b 5611 7d3c
00000130: d79e 41bc 14aa 0bbc b0bb 54bb 02cb 2e3c
00000140: 9923 b03c a856 90bc 8abf 123c 2109 c83c
00000150: 901e 7d3b 0a3e 533c 7bd9 c3bc 313d 813c
00000160: 0c74 ffbb f509 8a3c 2a4c 513c df8a a23c
00000170: f7c6 963c d460 a73b 007d 243a 8c46 89bb
00000180: c2bf adbc b0d9 783b fa8a 2b3c c3cd 8c3c
00000190: ceb3 8dbc 18ee cdbb 8a0a 083c 296b aa3c
000001a0: e052 7cbc e825 6c3b 0e08 173c b160 c53c
000001b0: 3521 a7bc b4ff d33b 772f c13c c56f b0bc
000001c0: 45fb 883c 5ada 52bc f6b8 403c 4224 623c
000001d0: 28b1 393b e821 c9bc 8a5e 28bc e9c6 bb3c
000001e0: ba91 24bc 457d 823c c37f 77bc dbdc 823c
000001f0: 2094 bcbc 735a 6bbc 6d5b 963c 5753 5dbc
00000200: 1236 573c eca0 aabb b097 28bc a0aa ad3b
00000210: a105 903c 0da4 9f3c a2cb 373c 4c58 8d3b
00000220: ee75 723c e89f d8bb c18d c33c f860 d0bb
00000230: aa55 41bc 0023 f1bb 576b 31bc 6085 ef3a
00000240: e85b 05bb 74a0 dcbb 4273 3a3c 412b c83c
00000250: 0de5 6dbc d27b a1bc 30c5 54bc ce28 133c
00000260: 803e f73a cd09 adbc 2281 5c3c a48f f43b
00000270: aaa1 a9bc 71e8 863c 8773 c93c aed9 733c
00000280: c6ff 163c 2e49 a0bc 0821 b1bb 33d3 823c
00000290: 6448 e13b 144b e83b 9a7a 62bc 4068 f2bb
000002a0: 00a4 ffba 007b b33a 80f0 753b ec75 8abc
000002b0: bfe3 9e3c 2dba 65bc 00fb 43ba 9d9b 8b3c
000002c0: 4a4d 88bc 38f6 92bb b4ec 03bc ec7a 19bc
000002d0: 830d 52bc bcc8 f53b fcac ea3b 30ba ebba
000002e0: a0af 8dbc a004 13ba b36d 9d3c 753e 8c3c
000002f0: fe71 82bc 7c20 f33b ac13 f63b d78e 54bc
00000300: aa82 16bc 4a4f 1f3c 6800 f6bb 1a00 47bc
00000310: 62d7 adbc 9b9d ae3c 90fc 49bc 132e 923c
00000320: c0a9 533b 8cb4 c53b f341 c83c be96 80bc
00000330: 13d1 73bc 8dc8 72bc 4047 62ba 92d8 233c
00000340: d7e6 3ebc c26b 2c3c 808b 04bc 7880 e6bb
00000350: d4a7 c13b 6097 28bc 000e ae3b f2a2 183c
00000360: 4211 4d3c 9ab5 253c e3d2 8d3c 3d60 ae3c
00000370: 7331 a43c 8083 e0ba 4c0b b33b b815 9fbb
00000380: 1d3e 45bc fb4a 983c 53a9 903c c64e 633c
00000390: 3dec 993c 584c a5bc 2e2f 98bc fd0e 64bc
000003a0: a8fb 5b3b 39ae 903c 8ea9 523c 13bc 1bbc
000003b0: ddf3 5abc a553 84bc 9e88 a5bc 4000 293a
000003c0: 949e 0fbc 1057 16bc cf71 a23c c462 04bc
000003d0: 8029 acb9 00e3 afb8 49d9 9e3c de41 033c
000003e0: 00f6 e2b8 bd4d 45bc 683b 5a3b 7293 713c
000003f0: 191e 953c 405d 64bc 43c1 963c 1115 933c

4.bias f4 [128]
-0.008618057 -0.022945434 -0.0005344637 -0.007882172 -0.009343961 0.012330169 -0.020158002 0.014337571
0.0191197 -0.0028404258 -0.024379188 -0.00803712 -0.019444203 0.023167135 -0.008929959 -0.014589694
-0.02006116 0.014643898 -0.0069040097 0.0056409836 -0.019682148 -0.01611095 0.01559292 -0.00056484714
-0.013013172 -0.009190595 0.023934199 -0.02199862 0.024569446 -0.008396769 0.0035759415 0.016420295
0.016261803 0.014132122 -0.0051697902 -0.02195548 -0.016175073 -0.004876405 0.009827105 -0.01817396
0.019522572 -0.01061168 0.004123697 0.005626131 -0.007310543 0.004286414 0.0017799176 0.0023644064
-0.0136912465 0.015604677 -0.014867268 -0.0082816295 0.008681925 -0.01914766 0.0118845645 0.021944383
0.009923192 0.021405617 -0.013612914 -0.0065691434 0.003263414 0.015414333 -0.016162593 -0.0070603937
-0.02485469 0.008097621 0.0063525233 0.021911146 -0.017782306 0.020441161 -0.02066435 0.019502262
-0.013125819 -0.015647627 -0.00456262 -0.019101989 0.021951834 0.022386411 0.019740047 0.006785454
0.010299807 0.014118215 0.012352357 -0.011550128 -0.0023228526 -0.0029818173 0.009557961 0.0009565409
-0.0069138054 0.012266787 0.021286508 0.008119253 0.013333527 0.02499081 0.011309741 -0.006372785
-0.0124461595 0.017298633 0.011200307 0.01829273 -0.008645412 0.013702782 -0.016026653 -0.0129493745
-0.0054149088 -0.019900057 -0.020000651 0.016642617 -0.021917745 0.019602427 0.013995571 0.0021514986
0.0102871265 -0.0006518513 0.01148043 0.020894678 -0.023511559 -0.0024180524 0.003737066 -0.024479477
0.0055835936 -0.011316839 0.024512833 0.0030859616 -0.007473666 0.013542043 0.0027293172 -0.014302495
00000000: c032 0dbc 10f8 bbbc 401b 0cba 3a24 01bc
00000010: 6a17 19bc 7a04 4a3c 6522 a5bc 22e8 6a3c
00000020: eba0 9c3c 7026 3abb ddb6 c7bc 20ae 03bc
00000030: 7349 9fbc 01c9 bd3c f64e 12bc 9d09 6fbc
00000040: 4d57 a4bc f6ec 6f3c 083b e2bb 00d8 b83b
00000050: 753c a1bc 1cfb 83bc 7279 7f3c 4012 14ba
00000060: 3335 55bc 2694 16bc a711 c43c 7336 b4bc
00000070: dd45 c93c 9a92 09bc 585a 6a3b db83 863c
00000080: 7937 853c 6a8a 673c 5867 a9bb fbdb b3bc
00000090: 9681 84bc 40ca 9fbb de01 213c 8ee1 94bc
000000a0: cded 9f3c 9ddc 2dbc 1420 873b 685b b83b
000000b0: 488d efbb 0c75 8c3b 204c e93a 28f4 1a3b
000000c0: 4051 60bc c2aa 7f3c d795 73bc acaf 07bc
000000d0: a23e 0e3c 8edb 9cbc 7ab7 423c b5c4 b33c
000000e0: e294 223c d55a af3c b308 5fbc f841 d7bb
000000f0: 00df 553b 668c 7c3c 6a67 84bc e05a e7bb
00000100: 109c cbbc e2ab 043c d428 d03b 017f b33c
00000110: 33ac 91bc 3974 a73c 4848 a9bc 35c3 9f3c
00000120: ad0d 57bc 742f 80bc 0882 95bb c67b 9cbc
00000130: 55d4 b33c b563 b73c e1b5 a13c 8458 de3b
00000140: 86c0 283c 1650 673c 8a61 4a3c c03c 3dbc
00000150: 003b 18bb 986a 43bb fe98 1c3c 60c0 7a3a
00000160: 348d e2bb a2fa 483c 0b61 ae3c 9e06 053c
00000170: de74 5a3c 87b9 cc3c 7e4c 393c ccd2 d0bb
00000180: faea 4bbc ddb5 8d3c 7e81 373c a3da 953c
00000190: 7ca5 0dbc a281 603c 544a 83bc 9d29 54bc
000001a0: 8c6f b1bb 7205 a3bc 68d8 a3bc 1956 883c
000001b0: d88c b3bc 4595 a03c ae4d 653c 2800 0d3b
000001c0: 568b 283c 00e1 2aba 6a18 3c3c 512b ab3c
000001d0: 509b c0bc 3078 1ebb 90e9 743b 2f89 c8bc
000001e0: 94f6 b63b 436a 39bc 23cf c83c d83d 4a3b
000001f0: a8e5 f4bb 72df 5d3c 58de 323b 0355 6abc

9.weight f4 [10, 1152]
0.015036443 0.027598972 0.026147088 -0.014467812 0.012585735 -0.020869128 -0.0016767774 0.027843451
-0.016827255 -0.015935838 0.011153216 0.024865085 -0.014182987 -0.024317611 -0.023445386 -0.0073570795
0.015016021 0.0027590264 -0.0032203887 0.022969345 0.013983836 0.0153888 0.019233638 -0.0022913236
0.005125178 -0.018990654 -0.009894019 -0.004322633 0.011764998 -0.012343653 -0.020467345 0.02390579
-0.029375106 -0.0055373926 0.01701122 0.018859332 0.008378388 0.015745016 -0.0058704335 -0.011257149
-0.023692545 -0.015060306 -0.02721572 -0.020858642 -0.010841852 0.029405272 0.014845351 0.027201043
-0.026997276 0.0003535673 -0.022847852 0.0006485302 0.017270645 -0.015628789 -0.02095776 0.012823818
0.00398306 -0.029190553 -0.01945844 0.025614915 0.024128592 0.021649206 0.0034131464 0.025337508
0.021303417 -0.017736202 0.012279427 0.028745135 -0.006927628 -0.021169884 0.009701816 -0.027695317
-0.005620422 -0.015306987 0.007973274 -0.0070333052 0.026976587 -0.017291337 0.0073154364 0.026245674
-0.020006891 -0.0046843905 0.013430009 -0.028832888 0.02774285 0.0041931625 0.008345673 0.011527838
-0.011105582 -0.009711266 0.028810808 -0.024704706 0.017958662 0.023348032 -0.0049154423 -0.013102844
-0.00092031807 0.0065221395 -0.0064725615 -0.026407758 -0.015097107 0.021224244 0.009384522 0.0035941843
0.029455366 -0.01673959 -0.023571743 0.027390221 -0.007260289 -0.026586948 -0.004719073 0.02353984
-0.027995963 0.022591801 0.004739659 -0.020635962 0.025464216 0.012438094 -0.008491704 -0.008871989
0.02848365 0.021021409 -0.015336086 -0.026766445 -0.023964569 -0.02704164 0.017177293 -0.01342945
0.021208698 -0.0010270793 0.028156618 0.0034798142 -0.02669481 -0.01483379 0.023262402 -0.021997195
0.029150678 0.022087852 -0.027610987 -0.010581106 0.023103407 0.013559604 0.010775605 -0.02879107
-0.02047322 -0.02912217 0.00022788532 0.027685741 0.01519989 -0.028144225 -0.020745378 -0.022711083
0.011071568 -0.021671347 -0.020405501 -0.0021244232 -0.005386753 0.005999254 0.023825148 -0.00547993
-0.010081509 0.02702623 0.0013360158 -0.017900396 -0.0032149088 0.0020741317 0.01077023 -0.0058074426
0.0025004577 0.02343349 0.012405267 -0.006188236 -0.008413611 0.026936552 0.006233217 0.019952396
0.0047508683 0.025271432 0.0067248624 0.022071293 -0.01740989 0.016591085 0.02433412 0.017383827
0.019367615 -0.02459135 -0.015625227 -0.020999558 0.0036986638 -0.028851945 -0.022446752 0.001039179
-0.00266275 -0.0015993398 0.018028857 -0.0027440935 -0.010852607 0.011013256 0.0056275595 0.006139254
0.021133779 0.011111693 -0.0057233386 0.0007621348 -0.016143393 -0.00107334 -0.0022296868 0.000111080706
-0.02143306 0.023524513 0.0037621837 0.021675514 -0.022727625 -0.022765143 -0.028915962 -0.007365212
0.010197887 -0.025904827 0.0024799798 0.015219545 -0.0066225063 0.0033527669 0.027202332 0.017995479
-0.0035524499 -0.0106815845 -0.015852481 -0.02324862 0.021003546 -0.028828686 -0.014496342 -0.007440692
0.0014409907 0.017392205 -0.028124329 0.012949059 -0.01420371 -0.0023112204 -0.011338906 -0.008152146
0.01579625 -0.023326654 -0.005954629 0.0050504487 0.013957007 0.016330024 -0.023550384 -0.027738737
-0.020718865 0.004675502 0.004948361 0.0115554575 -0.026038405 0.0023368653 0.0014759153 -0.00069623813
00000000: 6a5b 763c 3d17 e23c 6b32 d63c 670a 6dbc
00000010: 6634 4e3c bcf5 aabc 50c7 dbba f317 e43c
00000020: 50d9 89bc e08b 82bc fabb 363c ddb1 cb3c
00000030: c25f 68bc ba35 c7bc 8a10 c0bc a813 f1bb
00000040: c205 763c c8d0 343b 280d 53bb 352a bc3c
00000050: 761c 653c 4e21 7c3c dd8f 9d3c 082a 16bb
00000060: 1cf1 a73b 4a92 9bbc 861a 22bc e0a4 8dbb
00000070: fac1 403c 083d 4abc 22ab a7bc 13d6 c33c
00000080: 10a4 f0bc 0473 b5bb 1d5b 8b3c e37e 9a3c
00000090: 8245 093c b1fb 803c c45c c0bb e86f 38bc
000000a0: de16 c2bc 80bf 76bc 80f3 debc bedf aabc
000000b0: 06a2 31bc 53e3 f03c ea39 733c b9d4 de3c
000000c0: 6429 ddbc 005f b939 6b2b bbbc 2002 2a3a
000000d0: 2b7b 8d3c f207 80bc 9caf abbc fe1a 523c
000000e0: 5484 823b 0721 efbc 4e67 9fbc 5fd6 d13c
000000f0: 53a9 c53c ad59 b13c 18af 5f3b 9b90 cf3c
00000100: 8184 ae3c 834b 91bc a62f 493c eb7a eb3c
00000110: 2801 e3bb 776c adbc 5ef4 1e3c 4ae1 e2bc
00000120: 842b b8bb 28ca 7abc 56a2 023c a477 e6bb
00000130: 01fe dc3c 90a6 8dbc 54b6 ef3b 2b01 d73c
00000140: 7ee5 a3bc 847f 99bb 8a09 5c3c f332 ecbc
00000150: f944 e33c cc66 893b 4abc 083c 42df 3c3c
00000160: 30f4 35bc 001c 1fbc a504 ec3c 8661 cabc
00000170: 0b1e 933c 5f44 bf3c b811 a1bb 50ad 56bc
00000180: 8041 71ba acb7 d53b c817 d4bb 1555 d8bc
00000190: db59 77bc 77de ad3c 8ac1 193c 688c 6b3b
000001a0: 614c f13c 7721 89bc 8719 c1bc 7561 e03c
000001b0: b8e7 edbb dfcc d9bc 74a2 9abb 9fd6 c03c
000001c0: ca57 e5bc 7112 b93c 244f 9b3b c00c a9bc
000001d0: 559a d03c 26c9 4b3c ca20 0bbc d25b 11bc
000001e0: 8b56 e93c 1735 ac3c 3544 7bbc 4e45 dbbc
000001f0: 5851 c4bc 6e86 ddbc 65b7 8c3c 3207 5cbc
00000200: ddbd ad3c 109f 86ba b5a8 e63c 980d 643b
00000210: 13af dabc 6d09 73bc cb90 be3c 7633 b4bc
00000220: 67cd ee3c 95f1 b43c 7030 e2bc 605c 2dbc
00000230: 5b43 bd3c 1a29 5e3c 2a8c 303c 40db ebbc
00000240: 74b7 a7bc 9e91 eebc 80f4 6e39 35cd e23c
00000250: f608 793c b88e e6bc 36f2 a9bc 980c babc
00000260: 8665 353c 1c88 b1bc 7029 a7bc e839 0bbb
00000270: 5c83 b0bb 6495 c43b f52c c33c fc90 b3bb
00000280: ea2c 25bc 1d66 dd3c 401d af3a daa3 92bc
00000290: 38b1 52bb 28ee 073b 9e75 303c 5c4c bebb
000002a0: b8de 233b 97f7 bf3c 763f 4b3c b0c6 cabb
000002b0: 3ed9 09bc 0baa dc3c 0440 cc3b 3573 a33c
000002c0: 2cad 9b3b 0906 cf3c 3c5c dc3b dbce b43c
000002d0: 309f 8ebc 07ea 873c 5958 c73c 8768 8e3c
000002e0: d5a8 9e3c cd73 c9bc 7a00 80bc 4407 acbc
000002f0: 4865 723b ea5a ecbc 40e2 b7bc 1035 883a
00000300: 8881 2ebb f0a0 d1ba 41b1 933c 40d6 33bb
00000310: 22cf 31bc f270 343c 6467 b83b cc2b c93b
00000320: bf20 ad3c d20d 363c d88a bbbb 00ca 473a
00000330: 263f 84bc 50af 8cba f01f 12bb 00f4 e838
00000340: 6294 afbc 7bb6 c03c f88e 763b d990 b13c
00000350: 492f babc f77d babc 2be1 ecbc e057 f1bb
00000360: 0a15 273c 5c36 d4bc 2887 223b 665b 793c
00000370: 9c01 d9bb 18ba 5b3b 6dd7 de3c 416b 933c
00000380: 38d0 68bb d001 2fbc 10dd 81bc e473 bebc
00000390: a10f ac3c 232a ecbc 1182 6dbc 0cd1 f3bb
000003a0: a0df bc3a 197a 8e3c fe64 e6bc 4a28 543c
000003b0: adb6 68bc d877 17bb d2c6 39bc 9490 05bc
000003c0: 2367 813c 8a17 bfbc 0c1f c3bb 3c7e a53b
000003d0: eeab 643c 8bc6 853c bcec c0bc 593c e3bc
000003e0: 9cba a9bc f434 993b dc25 a23b 1a53 3d3c
000003f0: 7e4e d5bc 1826 193b 8073 c13a c083 36ba

9.bias f4 [10]
0.02142567 -0.0238921 -0.017302627 0.012931621 0.020923695 0.025845679 0.0011139419 -0.021034244
-0.008798815 0.0012339335
00000000: e384 af3c 5eb9 c3bc 3dbe 8dbc 26df 533c
00000010: 2b68 ab3c 51ba d33c b001 923a 0250 acbc
00000020: e828 10bc f0bb a13a
