miniprojekty/model_mnist_cnn_20250621205605.pth (torch, 876009 bytes, 6 tensors)

0.weight f4 [64, 1, 5, 5]
000000 5c cc 04 bd 0b c2 80 3e 1d f8 3b 3e 5b 47 f7 bd
       -0.032421455 0.25148043 0.18356366 -0.12074157
000010 1a 7f 66 bd ba a6 5e be 8c 6e 2e bd d7 a4 ef 3d
       -0.056273557 -0.21743289 -0.042585894 0.117013626
000020 9a 07 53 3e bc 3b 23 3d 89 21 28 be 63 58 35 bd
       0.20608369 0.03985189 -0.16419043 -0.044273745
000030 07 5f aa 3e ff 38 05 3e 4c ba 9c 3e c4 17 86 be
       0.33275625 0.13010024 0.30610883 -0.26190007
000040 f5 e9 a3 be ad d0 9d be 45 55 41 3e ad e1 1c 3e
       -0.32014433 -0.3082327 0.18880184 0.15320463
000050 a6 ac aa bd d0 13 14 be c1 95 b4 be 6c 20 ef be
       -0.08333711 -0.14460683 -0.35270503 -0.46704423
000060 56 00 93 be 61 b8 15 be 8d 47 aa be d6 66 f1 be
       -0.28711194 -0.14621116 -0.33257714 -0.4714877
000070 60 60 69 be b9 27 f7 be 4d 30 84 be fc b4 44 be
       -0.2279067 -0.48272493 -0.258181 -0.19209665
000080 90 75 58 bd 0e 0d a7 be 02 4f b3 be fb d0 98 bd
       -0.05284649 -0.32627147 -0.35021216 -0.07461735
000090 5f 0a 5b 3e b3 53 0b 3e 17 a2 04 3e b9 92 a3 3d
       0.21390675 0.13606147 0.12952457 0.079869695
0000a0 a9 4f 69 3e 53 2b e2 3c 69 4a 20 3b d9 58 85 3e
       0.22784294 0.02760855 0.0024458414 0.26044348
0000b0 1a a5 d7 3d de fb 29 3e 0a ff 22 be 8f 91 3f 3e
       0.105295375 0.16599986 -0.15917602 0.1870787
0000c0 94 25 77 bd eb 61 30 3e 69 ce 9a be 83 3d 08 be
       -0.06033857 0.17224853 -0.30235603 -0.13304715
0000d0 5a 35 15 3e 9d d4 3e 3e bc 57 3f 3e a1 d2 8d 3e
       0.14571133 0.18635793 0.18685812 0.2769976
0000e0 4f d8 95 3d 6b 1a 0c 3e e8 75 85 bd 65 cd de 3d
       0.07316648 0.13681953 -0.065166295 0.1087902
0000f0 85 be a7 bd 93 aa 2f 3e 9b 0c 9f bd 19 4c 08 3b
       -0.081906356 0.17154913 -0.07766076 0.002079731
000100 88 b9 14 be 87 39 fd 3d 46 74 2e bd 9f a3 f0 bd
       -0.145239 0.12364488 -0.042591356 -0.11749958
000110 d6 05 01 bd 69 e5 69 be fc e5 33 be 35 a1 f4 bd
       -0.031499706 -0.2284142 -0.17568201 -0.1194481
000120 c2 c7 26 be 73 2f 54 be 96 52 36 bd 5c 54 6a be
       -0.16287139 -0.20721225 -0.044512354 -0.22883743
000130 66 8c 99 bd fa 4a 16 3e 31 fe 84 bd a7 1e 9a 3d
       -0.07497482 0.14677039 -0.06493796 0.07525378
000140 4e 82 68 3e d9 f3 80 3e 8e f9 6a 3d ab 5a 7d 3d
       0.22705957 0.2518604 0.0573669 0.061854046
000150 a3 d1 15 3d 5f c0 12 3e 4b 60 8c be 31 19 3a be
       0.03657688 0.14331196 -0.27417216 -0.18173672
000160 64 81 cf bd d8 05 fc b9 58 39 62 3d 7a f8 cf be
       -0.10132101 -0.0004806954 0.05523047 -0.4061926
000170 97 78 4b 3e b5 15 78 3e c0 51 ac 3d 36 11 76 be
       0.1987022 0.2422703 0.0841403 -0.24030003
000180 64 4a 1b be 66 03 ac 3e 35 e2 f5 bd 7f e8 27 be
       -0.15165097 0.33596343 -0.12006036 -0.16397284
000190 e5 89 a4 be af 27 ba be 39 08 a9 bd d9 f6 a6 3c
       -0.32136455 -0.363584 -0.082535215 0.020381378
0001a0 db 68 4d 3e 8d 6f 15 3c c8 e2 2a bd 26 67 94 3e
       0.2005953 0.009120834 -0.04172018 0.28984946
0001b0 6d 03 32 3e 9f f2 1f be 46 d0 28 ba 01 96 a4 3e
       0.1738412 -0.15619896 -0.00064397266 0.32145694
0001c0 ef 0a 9b 3e 4b 04 1a be 3b 4d 53 be bf 47 26 3d
       0.3028178 -0.150407 -0.2063493 0.040595766
0001d0 8b 95 e7 3d d4 b1 18 be 93 95 b2 be 4d d1 02 3e
       0.1130782 -0.14911586 -0.3487974 0.12775154
0001e0 76 15 5b bb 74 be 83 be b5 e1 4d be d6 e6 a9 3c
       -0.003342954 -0.25731242 -0.20105632 0.020739954
0001f0 78 cd c5 3d ce 8e 03 3e 0d 43 65 3e 19 27 9a 3d
       0.09658331 0.12847444 0.22388859 0.075269885
000200 da fb 19 3e 12 b0 f4 bd 60 2f 9b 3d 15 d7 7f 3e
       0.1503748 -0.11947645 0.075773954 0.24984391
000210 99 f8 0b 3e cc a1 4e bd 90 93 e0 bd ac 49 d8 be
       0.13669051 -0.05044727 -0.10965645 -0.42243707
000220 3c bf 99 be 36 77 84 3d 42 2c 41 3d af af 99 bd
       -0.30028713 0.0646805 0.04716135 -0.07504212
000230 fb 4f a7 bb 64 73 bf be cd 7d db 3d 98 4f 21 3e
       -0.00510597 -0.37392724 0.10717354 0.15753019
000240 44 96 07 3e b1 69 4b 3d b9 4b 64 3d 50 08 36 be
       0.13240916 0.049661342 0.055736277 -0.17776608
000250 cd 17 d8 bc 40 80 b1 3c 29 76 b7 3c f5 99 e2 3d
       -0.026378537 0.0216676 0.02239521 0.11064521
000260 03 15 9b 3e d6 0f ed 3c d7 59 3f be 3c 72 6a be
       0.30289468 0.028938215 -0.18686615 -0.2289514
000270 e0 c9 fd bc 64 81 35 3b ce a8 85 3e 9e 0c 8a 3d
       -0.03098005 0.002769553 0.2610535 0.06740688
000280 7d 9b ad bd 91 31 60 be 12 7e 9e bb 05 a7 22 3e
       -0.08476923 -0.21893908 -0.004836806 0.15884025
000290 6a 3e 58 3e 32 1d c1 be e2 de db bd 53 08 91 bc
       0.21117559 -0.37717587 -0.10735871 -0.017704165
0002a0 e8 a7 0b be 4c 8a 5f 3e 35 eb 3e be 8d f6 a4 be
       -0.1363827 0.218301 -0.18644412 -0.32219353
0002b0 ce b4 43 be db ce c6 39 86 44 5a 3e ba 71 63 3e
       -0.1911194 0.00037919622 0.21315202 0.22211352
0002c0 98 89 10 3e 5a 94 ea bd 59 39 90 bd 2c 16 a7 be
       0.14114988 -0.11454077 -0.07042188 -0.32634103
0002d0 22 5f 02 3e b2 67 8b bb d5 62 4a 3b 7f d1 87 be
       0.12731603 -0.004254305 0.0030881662 -0.2652702
0002e0 49 a7 9e bd cf 6d cd 3d 9b 09 77 3e f2 2b 88 be
       -0.07746751 0.1003071 0.24124758 -0.26596028
0002f0 93 ab 38 3e 4f d3 4c 3e af fc 83 3e 76 da 3d be
       0.180342 0.20002483 0.2577872 -0.18540367
000300 95 4d 89 be fb 11 8a be 4f 5f f3 3d 01 a2 83 3d
       -0.26817003 -0.26966843 0.11883413 0.06427384
000310 f1 e7 fa 3d 37 2d 49 3c dd 0d 62 be 51 cd a8 be
       0.122512706 0.012278846 -0.22075601 -0.32969144
000320 d4 16 a1 bc 36 46 68 3e 81 11 0f be b3 cc 0b 3d
       -0.019664206 0.22683033 -0.13971521 0.034130763
000330 dc 97 92 3c eb 62 40 bd b6 bd 4d 3e 57 7e e4 3c
       0.017894678 -0.046969336 0.200919 0.027892275
000340 67 b7 3e 3d 28 62 5a 3c bb c4 32 be 18 e6 f1 3d
       0.046561625 0.013329066 -0.17457859 0.11811465
000350 61 be 15 3e 03 7a 80 3e 22 f2 6c 3e fe 22 73 be
       0.14623405 0.25093088 0.23139241 -0.23743817
000360 26 07 0b bd b1 91 80 3b 5c 39 2b 3e 19 dd 11 3c
       -0.033942364 0.003923618 0.167211 0.008902811
000370 c6 04 47 be 09 11 9b be 09 e7 d3 be 76 3c ed be
       -0.19435415 -0.30286434 -0.41387203 -0.4633519
000380 a8 75 e5 be 30 03 5c be 74 9f 1b bd 25 1f 1a 3d
       -0.44816327 -0.21485591 -0.037993863 0.037627358
000390 e8 f1 ec bb e2 3f 20 3e 9c e1 0d be d8 69 14 3e
       -0.007230986 0.1564937 -0.13855594 0.14493501
0003a0 65 41 29 3c 62 fe 23 3e ec 04 d4 3c 38 b5 13 3e
       0.010330533 0.16015008 0.025881253 0.14424598
0003b0 ab 22 a2 3a 83 c9 d8 3d 82 9f 3f bd b9 55 63 bd
       0.0012369951 0.1058531 -0.046782978 -0.055501673
0003c0 e5 15 9f 3d 81 4f eb 3d 3d 0e 16 3d 7d 64 11 3e
       0.07767848 0.114897735 0.036634672 0.1419849
0003d0 38 91 1f bd e4 b4 a9 bd d1 a0 80 bc 58 48 95 3d
       -0.03895685 -0.08286455 -0.015701683 0.07289189
0003e0 92 aa 1e be 62 d2 b7 be 21 d5 22 3e 47 44 7b be
       -0.15494755 -0.35902697 0.15901615 -0.24537764
0003f0 27 27 b7 be ea 3f 8a bd de 0e 27 3e ab 38 61 be
       -0.35772058 -0.06750472 0.16314265 -0.21994273

0.bias f4 [64]
000000 61 7d 52 bc 0e da 87 bc 80 df 80 bd 95 72 ac bd
       -0.0128472755 -0.016583469 -0.06292629 -0.08420292
000010 d6 90 6b bd db 11 36 be f1 57 56 be 5e 90 e3 bd
       -0.057511173 -0.17780249 -0.20931984 -0.1111152
000020 41 90 71 bb e8 e2 61 be f2 75 1d be d2 07 7b be
       -0.0036859664 -0.22059214 -0.15377024 -0.24514702
000030 9a c2 29 bd a1 9e 20 be 36 08 8c be 64 54 35 be
       -0.041445352 -0.15685512 -0.27350014 -0.17707974
000040 39 40 03 be 6c 34 94 3d 2b 47 ee bd de e9 81 be
       -0.12817468 0.07236561 -0.11634668 -0.2537374
000050 9c 1a 9f bd 11 60 d7 bd 99 b0 ba be 71 c3 0c bd
       -0.07768747 -0.1051637 -0.36462858 -0.034366075
000060 63 96 31 be b5 a1 0b be 88 57 f2 bd df 4c 2e be
       -0.17342524 -0.13635905 -0.118331015 -0.17021511
000070 ab a7 e7 bd e2 26 9f 3c bf 91 1c 3e 5a 73 7d bd
       -0.11311277 0.01942772 0.15289973 -0.061877586
000080 c4 d4 c9 bd 68 e3 04 be b1 28 2a 3e 17 7d 00 3e
       -0.09855035 -0.12977374 0.16617085 0.12547718
000090 2f a3 60 be e2 78 16 be 05 b5 62 bd 21 50 43 be
       -0.2193725 -0.1469455 -0.055348415 -0.19073536
0000a0 01 56 ed 3d fc 99 7a be 13 11 8d bd 6a 51 a7 bd
       0.115886696 -0.24472803 -0.06888022 -0.081698254
0000b0 90 4d 86 be a3 6b 04 bd 1b 5b 9b bd 6c 77 12 3e
       -0.2623105 -0.032329213 -0.07585736 0.14303368
0000c0 34 17 ab be e8 67 f4 bd a3 71 54 be 23 b3 a0 bd
       -0.3341614 -0.11933881 -0.20746474 -0.078466676
0000d0 0a 7d ae be e5 09 76 bd d0 c5 25 be 9f 9f 39 bd
       -0.34079772 -0.06006803 -0.1618874 -0.045318242
0000e0 83 4f 28 be 4f 18 c1 be 19 f0 21 bb 66 be 45 be
       -0.16436581 -0.37713858 -0.002470976 -0.19310912
0000f0 2d fe 49 be f8 1f d7 3b 62 50 c8 bd ab 7f af bd
       -0.19725867 0.0065650903 -0.09780957 -0.085692726

4.weight f4 [128, 64, 5, 5]
000000 3d 1c b8 3c 31 37 06 3d 88 a7 89 bc 50 f4 8a be
       0.022474403 0.03276748 -0.016803518 -0.2713952
000010 63 76 64 be 93 1b 85 bd d5 12 e7 bd 32 ac c6 bc
       -0.22310786 -0.064994 -0.11282889 -0.024252031
000020 aa 55 33 be 5f 87 6e 3b a5 e5 55 be ea fd ee bd
       -0.17513147 0.0036396605 -0.20888384 -0.11669524
000030 1e 01 ba bb 28 41 95 3b 76 ad f9 bc bf 60 a8 ba
       -0.0056764027 0.0045548864 -0.03047822 -0.0012846215
000040 07 d0 a1 3d de 80 7e bc 0e 86 2b 3d 29 f1 5f 3d
       0.07901006 -0.015533654 0.04187589 0.054673348
000050 9f bb db 3c cd 84 f3 3d 68 75 cf bc 0b 08 1d bc
       0.026822863 0.11890564 -0.025324538 -0.009584437
000060 f6 bc ae 3c cf 78 8d 39 3c 5d a0 bd 6c 58 96 3c
       0.021330338 0.00026983625 -0.07830283 0.01835271
000070 5e 1d f5 bc 1f 5e dd 3c 3e 8c 03 bd 63 8f 9a bd
       -0.02992123 0.02702242 -0.032116167 -0.0754688
000080 f5 e1 82 bd a1 59 10 3d 03 94 5b 3d 0b 5a bc bc
       -0.06390754 0.035241727 0.05360795 -0.022992155
000090 be 11 f5 ba 04 6b de bd b3 32 3f bd d2 cb 38 3b
       -0.0018697304 -0.10860255 -0.04667921 0.0028197658
0000a0 53 ba 9e bc 3e 88 28 bd cc 5d 9b bd e1 81 c5 bd
       -0.019375956 -0.041145556 -0.0758625 -0.09643913
0000b0 82 f8 bd bc a1 a1 ad bc 8b 24 39 be 65 f2 50 3d
       -0.023189787 -0.021195235 -0.18080346 0.051012415
0000c0 43 74 a3 bc c6 dd a5 bd 15 e5 a7 3d e1 7f ec bc
       -0.019952899 -0.080989406 0.08197991 -0.028869571
0000d0 26 0a 34 bd bf 51 5e bd b1 72 e3 bc bf cc 3e bd
       -0.04395499 -0.054277178 -0.02776465 -0.04658198
0000e0 f9 15 e4 bd aa d9 f8 bc 5b 9e 15 bd 9a 49 81 bb
       -0.111370035 -0.030377228 -0.036527973 -0.0039455416
0000f0 00 4a e2 bd ea f0 86 bd 04 e9 0c 3d be df 01 3d
       -0.11049271 -0.065889195 0.03440191 0.031707518
000100 17 75 d5 3d f3 b5 92 bd 8d 44 90 bc 33 72 43 bc
       0.10422724 -0.0716361 -0.017610813 -0.011929083
000110 e9 94 80 bc 94 16 40 3d be 19 2b 3c 58 d3 82 3d
       -0.015696006 0.046896532 0.010443149 0.06387967
000120 8f 05 89 bc 16 67 a0 bd 47 bf f0 3b c1 78 73 3d
       -0.016726283 -0.07832162 0.007347021 0.05944133
000130 99 cb 2b bd 1f 61 38 3d 19 7f 4d 3c 47 2e 5e 3d
       -0.041942213 0.045014497 0.0125425095 0.054243352
000140 e5 8f 8c bd 62 96 9f 3c 1e 58 10 3d 3a ec 35 3c
       -0.06863383 0.019480888 0.035240285 0.011103684
000150 e7 0f 25 3c e9 32 9f bc d5 a8 85 3d 1d 43 63 3d
       0.010074592 -0.019433456 0.06526343 0.055483926
000160 0e b6 12 bd 28 11 cf bc 47 43 4c bd 5c f3 93 3b
       -0.035818152 -0.025276735 -0.04986885 0.0045150947
000170 ad a6 1b 3c ee 34 8e 3d 28 d9 e6 bb 9e ce 77 3c
       0.009500188 0.06943689 -0.00704493 0.015124945
000180 ee a9 fe 3c 31 14 02 bc e1 0d c5 bd 04 44 14 bd
       0.031086888 -0.007939384 -0.09621788 -0.036197677
000190 5e 05 a8 bd cb c5 dd bd 7b 85 3d bc 4a 27 60 bd
       -0.08204149 -0.10828742 -0.011567469 -0.05472497
0001a0 3a ac 0c 3d 33 b1 cc bd 0e 01 d6 bd 3a 7c b6 3d
       0.034343936 -0.099947356 -0.1044942 0.08910413
0001b0 09 d8 6e bd 19 5d 75 3d e6 85 c9 3a ae 53 95 3c
       -0.058311496 0.059903238 0.0015374988 0.018228378
0001c0 20 32 5a 3d d7 dd 1a 3c 9f 03 20 3d 72 6e b6 bd
       0.05327046 0.009452305 0.039065953 -0.089077845
0001d0 c2 18 9d 3d 90 5d 8f 3c 3a bc e8 3c 57 80 08 bd
       0.07670738 0.017500669 0.028410066 -0.03332552
0001e0 52 f7 8a bd 60 87 e0 bd 8d 23 29 bd 1c f9 f9 3a
       -0.06785454 -0.10963321 -0.04129367 0.0019071433
0001f0 33 c4 94 bd 3b 45 39 3d 8e c1 67 3d fc f6 f1 bc
       -0.072639845 0.04523204 0.056581073 -0.029536717
000200 5b c0 18 bd 57 7b 8c bd d8 07 3c bd 33 c5 a7 bc
       -0.03729282 -0.06859463 -0.045905918 -0.020479774
000210 47 10 9e 3c e1 70 41 bd 91 d1 07 bd a9 e5 f0 bc
       0.019294871 -0.04722679 -0.033158842 -0.029406385
000220 58 9e 3a be 60 e7 0a be 8a 0e 07 3e c5 7b a2 bc
       -0.18224466 -0.13564825 0.1318914 -0.019834409
000230 82 45 19 be b3 a5 94 bd 98 2d 90 3c c6 96 68 3a
       -0.14967921 -0.07258167 0.017599866 0.00088725646
000240 73 d4 57 3d 2e 9b 21 bd a3 cc c4 3d 96 2f b9 3d
       0.05269284 -0.03945463 0.09609344 0.090422794
000250 93 6b 70 bd 3a 44 c3 bd cf a4 3e 3d 98 13 28 3d
       -0.05869634 -0.095344976 0.046543892 0.04103431
000260 1d a4 3b 3d 75 30 f5 bb 65 d0 b0 bd 42 60 26 bd
       0.045810807 -0.007482583 -0.08633498 -0.040619142
000270 9c 61 81 3d 7b 71 60 bc 5c c7 66 bd 03 30 66 bc
       0.06317446 -0.013698931 -0.056342468 -0.014049533
000280 37 8c 22 3d 20 9b 94 bb 62 64 9e bd a3 60 80 bb
       0.0396845 -0.004535094 -0.0773399 -0.00391777
000290 1a 02 3d bd e3 81 54 3d 2d 86 90 3d f0 2f ed bd
       -0.046144582 0.051881682 0.07056842 -0.11581409
0002a0 3f 17 67 3d 0d d4 8b bc 53 2f 24 3d 29 1d c9 3b
       0.056418654 -0.017068887 0.040084194 0.0061375094
0002b0 60 7a ff bc e8 77 68 bc 0a c0 ba 3c 19 88 71 3d
       -0.031186283 -0.014188744 0.02279665 0.058967683
0002c0 87 1d d1 3c b4 7f cf bb 27 6f 52 bb 61 b2 fb 3c
       0.025526775 -0.006332362 -0.003210971 0.030724706
0002d0 36 e5 1e 3d 4c 8b 97 bd 27 4f 9a bb 7e 04 fd bc
       0.03879281 -0.07399616 -0.0047091427 -0.030885931
0002e0 dc 28 7e 3d 49 14 70 bd aa 94 fb bc af e8 39 bd
       0.062050685 -0.058613095 -0.030710537 -0.04538792
0002f0 53 ca 8c bd e9 0c 35 3d 45 4b e3 3c 5a 8a 80 3c
       -0.06874528 0.044201765 0.027745852 0.015690971
000300 57 3c 8d 3c 0e 03 a3 bd ce 5a 46 bd 44 b5 2b bd
       0.017240686 -0.07959567 -0.04842644 -0.041920915
000310 0e 9d 6a bc 37 cc 1a bd 8c 91 f4 b9 da e4 c4 bd
       -0.014319671 -0.03779241 -0.00046647748 -0.096139625
000320 5c 5e 72 3d 2c 49 6e bd eb e2 cd bd 41 46 24 be
       0.05917202 -0.05817525 -0.10053047 -0.16042425
000330 ac 0e cf bd 3a 2d 6e bd a0 61 aa bd 26 47 22 bd
       -0.1011022 -0.0581486 -0.08319402 -0.039618634
000340 d0 95 36 be f3 c4 da 3b 5e ba 57 be ce 54 d2 bd
       -0.17830586 0.00667631 -0.21067187 -0.102700815
000350 2b f0 81 b9 cf 73 a9 3c 55 ea 89 bc 6a 6b f1 39
       -0.00024783736 0.020685105 -0.016835371 0.00046047132
000360 72 60 19 3b 46 5e 8c 3d 27 4a 96 3c 2c 41 01 3d
       0.0023403433 0.06853919 0.018345905 0.031556293
000370 56 e4 25 bd e7 42 b6 3d 7b f0 77 3d 2f 36 ad 3c
       -0.04050096 0.08899479 0.060532074 0.021144
000380 be 31 84 ba 27 b4 b3 3c 69 05 30 bd 93 95 2a bd
       -0.0010085625 0.02193649 -0.04297391 -0.04164655
000390 d9 e9 7e 3c 45 a2 8b ba 1e 52 44 bc 18 8f 7b bb
       0.015558683 -0.0010653218 -0.011982469 -0.003838485
0003a0 92 e2 25 bd e6 ab 57 3d 98 c0 d7 3c bf a5 c8 bd
       -0.040499277 0.05265417 0.026336953 -0.097972386
0003b0 9e e9 44 3d d1 a2 fc 3c db 66 1d 3d 74 64 cd ba
       0.048074357 0.030839356 0.03842817 -0.0015670196
0003c0 0d 16 36 3d 71 24 2b 3d 32 ac e4 3b a8 30 25 bd
       0.044454623 0.0417828 0.006978535 -0.040329605
0003d0 74 f7 82 bd 91 4b c2 3c 89 c5 64 3b f8 27 a4 bd
       -0.06394854 0.023717673 0.003490778 -0.08015436
0003e0 64 a6 9a bd ad b8 3c bd f2 24 a1 bd 7c eb cc bc
       -0.07551268 -0.046074558 -0.07868375 -0.025014631
0003f0 ee da f8 3c 6e c4 7e bd 8f 5f ff 3b f1 7e 76 bc
       0.030377831 -0.06219905 0.007793374 -0.015044914

4.bias f4 [128]
000000 e5 4a 85 bd 6d a4 95 bd 86 13 88 bd 55 35 95 bd
       -0.065084256 -0.07306752 -0.06644349 -0.07285563
000010 ad df b7 bd 4f c1 66 bd c1 a3 da bd 4f 7c 47 bd
       -0.0897821 -0.056336697 -0.10675765 -0.048702534
000020 e9 18 cf bd 64 6d e0 bd 2e 45 8f bd 67 cd 93 bd
       -0.10112173 -0.109583646 -0.06995617 -0.07216912
000030 04 19 e4 bd 5f a7 cf bd e1 92 85 bd a0 6f a7 bd
       -0.11137584 -0.101393454 -0.065221556 -0.08175588
000040 ae 3b 42 3d d6 48 89 bc f8 ec ae bc 29 26 c8 bd
       0.047420196 -0.016758364 -0.02135323 -0.097729035
000050 90 33 d6 bd 14 8e 34 bd 5d d1 bf bd a3 91 63 bd
       -0.104590535 -0.04408081 -0.09366105 -0.055558812
000060 11 04 94 bd 41 6f 89 bd ea a7 f2 bd e2 06 50 bd
       -0.07227338 -0.06710673 -0.11848433 -0.050787814
000070 d1 fe ab bd d8 3e 61 3c 24 b5 87 bd 8f 92 6d bd
       -0.08398212 0.013747893 -0.06626347 -0.058001097
000080 f8 89 d0 bd 88 45 cb 3c 25 e7 96 bd c6 08 28 bd
       -0.101825655 0.024813429 -0.07368306 -0.041023992
000090 27 45 4b bd a1 80 b1 bd 1a 8a 9d bd 45 8e 1b bd
       -0.049626496 -0.08667112 -0.076923564 -0.037977476
0000a0 93 10 ae bd 51 0f c0 bd c5 56 e2 bd a0 91 9d bd
       -0.08499255 -0.093779214 -0.11051706 -0.076937914
0000b0 27 03 83 bd 17 ec c8 bd 52 a9 04 be 53 c2 53 be
       -0.06397086 -0.098106556 -0.12955216 -0.20679598
0000c0 d2 2c 93 bd b7 de 02 bc a3 fb c4 bd 61 59 a4 bd
       -0.07186283 -0.00798767 -0.096183084 -0.0802486
0000d0 4f da d5 bd 80 3b 7a bd 6a 19 e7 bd 5b e9 89 bd
       -0.1044203 -0.0610919 -0.11284144 -0.06733962
0000e0 c9 31 3f bd fe d5 13 be 7c d3 98 bd cf e4 a2 bd
       -0.04667834 -0.144371 -0.074622124 -0.07953798
0000f0 08 28 ba bd e5 96 ee bc 60 fb c8 bd 67 6f e5 bd
       -0.090896666 -0.029124686 -0.09813571 -0.11202889
000100 15 8e a8 bd 02 d4 01 be 2e f8 e4 bd 26 52 bc bd
       -0.08230225 -0.12678531 -0.11180149 -0.09195356
000110 2b 33 0e be 4a 22 2a bc 98 ba 0e be ea 5b f4 bd
       -0.13886707 -0.010384152 -0.13938367 -0.11931594
000120 7f 2f 10 bd 95 ff ef bc 07 90 a7 bd 07 d7 90 bd
       -0.035201546 -0.029296676 -0.08181768 -0.07072263
000130 70 87 53 bd 7e 18 ad bd 63 47 f2 bd 6d 2e 61 bd
       -0.051642835 -0.08451937 -0.11830022 -0.054975916
000140 ba b3 5e bd 11 7f 85 bd a0 8d c4 bd 02 77 16 bd
       -0.05437062 -0.065183766 -0.09597325 -0.03673459
000150 7c 7d 98 bd 74 39 46 bc b9 8b 38 bd b5 35 f6 bd
       -0.07445809 -0.012098659 -0.045055125 -0.120219626
000160 6e e3 b1 bc bb 1e 86 bd ca 32 a6 bd 2d 5c 92 bd
       -0.021714892 -0.0654883 -0.08115156 -0.071464874
000170 f0 1f ca bd 65 35 b8 bd 59 07 88 bd 26 1b a3 bd
       -0.09869373 -0.08994559 -0.066420265 -0.079641625
000180 e0 21 46 bd 56 f6 37 bd ad db d3 bd 1a e8 98 bd
       -0.04837215 -0.04491266 -0.10344634 -0.07466145
000190 16 ac 28 bd da 59 e4 bd 22 82 ad bd 03 5d 98 bd
       -0.04117974 -0.1114995 -0.084720865 -0.074396156
0001a0 59 5a 80 bd 39 ea ba bd 1a 37 a9 bd fa cb f7 bd
       -0.062672324 -0.09126706 -0.08262463 -0.12099452
0001b0 4e af fe bd 7d 91 c3 bd 39 f4 78 bd 61 58 55 bd
       -0.124357805 -0.09549234 -0.060779784 -0.052086238
0001c0 9a 77 11 bd c5 d4 c2 bd 60 d3 88 bd fb 4e 2b be
       -0.03551445 -0.09513239 -0.066809416 -0.16729347
0001d0 7e 3d f0 bd f2 e9 55 bd c5 cf 26 bd 8a 3a a3 bd
       -0.11730479 -0.05222506 -0.04072549 -0.0797015
0001e0 fc f6 d1 bd 88 ec 08 be a7 44 c2 bd a8 11 3b bd
       -0.10252187 -0.1337148 -0.09485751 -0.045671135
0001f0 98 c8 a9 bb bf aa 86 bd 1e 08 cc bd 52 59 06 be
       -0.0051813833 -0.06575536 -0.09962486 -0.1312001

9.weight f4 [10, 1152]
000000 15 dc 02 be 3a 2c 5c 3d 99 79 89 bd d1 71 c2 3c
       -0.12779267 0.053753115 -0.06712646 0.023735913
000010 f6 3d de 3b 2f 59 53 3d 5c cf d0 3c 66 b2 59 3d
       0.0067822887 0.051598724 0.025489502 0.05314865
000020 7f d3 f2 3c 69 19 94 3d f5 e6 c7 bb bc b3 83 3d
       0.029641865 0.07231409 -0.0061005303 0.06430766
000030 ef be fd 3d 55 1e d0 bc 18 63 2c bb a4 8e 40 3c
       0.12389933 -0.025405088 -0.0026304182 0.011752758
000040 c9 7b 1b be 23 62 03 be 87 b7 fe bc 77 37 2c 3d
       -0.15183939 -0.12830405 -0.031093372 0.042045083
000050 0d 80 c2 bd 88 3a 69 3d d7 3e bd bd b2 bd 31 3c
       -0.0949708 0.056940585 -0.092405014 0.01084845
000060 44 b7 2f 3c 1b e2 4b bc 31 84 e1 bd 06 ef 94 3b
       0.010724846 -0.012444044 -0.11011542 0.0045450954
000070 91 00 af bd f6 51 8f 3d c5 17 44 3d 0d c8 1f bd
       -0.0854503 0.06998055 0.04787423 -0.039009143
000080 c9 fc a6 3d 49 d7 91 3c 05 18 6b bd 7b e7 e6 3c
       0.08153684 0.017802851 -0.057395954 0.02818655
000090 ec af 0c bd da 86 5a bd 67 28 91 3d 5c 9e 84 3c
       -0.03434746 -0.05335126 0.07087784 0.016188793
0000a0 2f 0c 04 3d 7e 5f 4e bc 0e 9b b8 3c 86 63 98 3c
       0.03223818 -0.012596009 0.022534873 0.018602144
0000b0 3f 69 e8 bd 3d a6 b7 bb 97 63 3e 3d 24 a3 ab bc
       -0.11348199 -0.005604534 0.046481695 -0.020951815
0000c0 d0 1a 0f bd 69 56 1c bd 7c df 0f bb d1 e4 b7 3c
       -0.03493768 -0.038168345 -0.0021953275 0.022447975
0000d0 04 54 2d 3d eb 31 8f bd 97 f6 1e bd 24 74 8a 3c
       0.04231645 -0.06991943 -0.038809385 0.016901083
0000e0 b6 69 48 bd 29 4b 79 3d 19 11 a5 bd 2b dc 03 bc
       -0.04892894 0.060862694 -0.08059902 -0.008048098
0000f0 2f 66 b8 bd b6 a6 29 be 4e 38 7e 3c a3 92 ad bd
       -0.09003865 -0.16567501 0.015516354 -0.08475234
000100 ca 79 89 bd de df 00 bc d7 a9 3c 3d ef 9d bd bc
       -0.067126825 -0.007865874 0.04606041 -0.023146598
000110 ec 7f 8a 3c fe 61 9a 3d af 36 ed bd db fc 6c bd
       0.016906701 0.07538222 -0.11582696 -0.05785833
000120 9b ff 46 bc 26 bf c7 3c b0 16 51 3d d2 9d cd 3d
       -0.012145902 0.024383139 0.051047027 0.100398675
000130 d1 28 22 3c 4a 87 01 3b 3c 8a 95 3b b4 e3 96 bc
       0.009897427 0.0019764476 0.004563598 -0.018419124
000140 a2 84 7b 3c 24 f7 89 3d 2b 02 8e bd 05 a4 85 3d
       0.015351446 0.067365915 -0.06934007 0.06525425
000150 ef 11 e0 bc 91 ae ba ba 42 c5 98 bc 66 3b 25 bc
       -0.027352301 -0.0014242699 -0.018648747 -0.0100849625
000160 b5 16 4d bd db 56 48 3d 8a 2b ab 3b f0 2a 33 3d
       -0.050070483 0.048910957 0.005223696 0.04374212
000170 a8 a8 1d 3d e7 57 fa 3c fc ce 37 3c ed e8 0c 3d
       0.03849092 0.030559493 0.0112187825 0.034401823
000180 fb 49 10 bd ca c6 cd bc 77 05 ed 3c 4e 0c 35 bd
       -0.035226803 -0.025119204 0.02893327 -0.044201188
000190 68 4e 34 3d eb 6a d5 3c 10 0c 91 bd de ae 42 bc
       0.044020087 0.026051959 -0.07082379 -0.011882512
0001a0 f3 55 53 bd ef 16 56 bc cc 98 e1 3c 5e c7 0a bd
       -0.05159564 -0.013066991 0.02753868 -0.033881538
0001b0 b3 13 17 bc 7a 0a 25 3c 56 ae 0b 3d 63 7b d8 bd
       -0.009221005 0.010073299 0.034101807 -0.10570409
0001c0 85 4f 3a 3d a1 f9 56 be 94 57 28 3d c5 2e 4c 3d
       0.045485992 -0.20993663 0.041099146 0.04984929
0001d0 7a 45 0b 3d c2 76 d6 bd be f8 03 3c 17 82 5d 3d
       0.034001805 -0.1047187 0.00805491 0.05407914
0001e0 d2 14 15 bd ee 92 f5 3c 4d 70 b0 bc e7 ab 16 3d
       -0.03639681 0.029977288 -0.021537924 0.036785033
0001f0 e2 d7 c5 bd 56 b4 fe bd 23 02 a8 3b d7 c6 ca 3c
       -0.09660317 -0.1243674 0.005127208 0.024753017
000200 f0 94 0d be 6c fe 68 3c 66 3b c1 3b 96 f9 cc bc
       -0.13826346 0.014220815 0.0058969734 -0.025021356
000210 9d 86 b8 3c 56 ce 14 be 29 f9 33 3c d8 39 6b ba
       0.022525126 -0.14531836 0.010984697 -0.0008973158
000220 6f b2 ea 3c 7c 0c 5c 3d df ca ea bd 9d 99 6f bd
       0.028649537 0.053722844 -0.11464476 -0.058496106
000230 e8 f3 63 bc ee d8 34 bd c5 f2 0c 3d ea 25 f0 3d
       -0.013913132 -0.044152193 0.03441121 0.117259815
000240 fd fb 25 3c 39 97 35 3e f9 ef 28 bd 02 4b 2d 3d
       0.0101308795 0.17733468 -0.04124448 0.04230786
000250 c1 33 03 3b 97 0a a6 bd ef 19 95 3d 1d 27 07 3c
       0.0020019861 -0.081074886 0.07280337 0.008249071
000260 33 5e dd 3d 76 25 f6 3c 98 8d ff 3d 6b 85 d8 bd
       0.10808983 0.03004716 0.12478179 -0.105723225
000270 13 97 64 be 38 f7 0a bc 73 55 f9 3c 3a 43 3a bc
       -0.22323255 -0.008481793 0.030436253 -0.011368567
000280 18 65 09 3d 0c d6 e5 bc b3 dd 80 bd a0 ac 5f 3c
       0.033543676 -0.028056167 -0.06292286 0.013651997
000290 64 bc 16 bd ac 5c 62 3d b2 59 d1 bd 1e 71 8e 3d
       -0.036800757 0.05526416 -0.10222186 0.06955169
0002a0 45 77 2b bc 96 10 48 be 40 bd d4 bd 3b 40 44 bc
       -0.010465448 -0.19537577 -0.10387659 -0.011978204
0002b0 fe d4 f5 bb 46 0b 90 3d 2c 55 63 3d 02 1e c5 3c
       -0.0075021973 0.070334 0.055501148 0.02406216
0002c0 ed cb 9d 3c 22 f9 4f 3c 86 c0 16 be 06 d2 a8 bd
       0.019262278 0.012693675 -0.1472188 -0.08243184
0002d0 bc 1a a9 bd 15 ed 6b 3c b4 f0 d4 bc 70 5b 1e bd
       -0.08257052 0.0143997865 -0.025993682 -0.03866142
0002e0 81 4b 47 3d b2 ab 8f 3c b8 03 44 bc e9 24 17 3d
       0.04865599 0.017537925 -0.011963777 0.036900435
0002f0 6d 3e c0 3d 1c 7d ec 3c bd e5 33 3d 22 6d c8 bc
       0.09386907 0.02886825 0.043920267 -0.024466101
000300 cf 50 4e 3b 81 e1 4f bc 96 fb ad bd 22 94 32 3d
       0.003148127 -0.012688042 -0.08495252 0.0435983
000310 c0 7d a5 bd a1 9a df bc c5 9d 0b 3d 13 59 86 bc
       -0.080806255 -0.027295412 0.034086008 -0.016399896
000320 87 d5 0c 3d 72 c6 0e 3d c2 86 6c bb 44 ef 88 3c
       0.034383323 0.03485722 -0.0036091064 0.016715653
000330 0b 85 a1 3b 95 df 11 3d 44 73 06 be b1 46 c2 bc
       0.00492919 0.035613615 -0.13129908 -0.023715349
000340 fb c3 7d bd 56 0c ee bc 01 b3 4f 3d 55 1d 0a be
       -0.06195448 -0.029058617 0.05070782 -0.13487752
000350 ce 46 bf 3b 1a 77 28 3d 08 6c 64 3d f9 5c 2e bc
       0.005837298 0.04112921 0.05576709 -0.010642284
000360 32 7d 19 3d 1f ee f3 bb 22 64 f6 bc f1 5c af 3d
       0.03747291 -0.0074441577 -0.030077044 0.08562649
000370 6a 64 0a bd 64 bb 55 3c f0 78 17 3d fb 9a 5b be
       -0.03378717 0.013045166 0.03698057 -0.21445839
000380 9c 64 79 bd 73 01 34 3c 5f e8 c5 3d 7d 3b 66 bc
       -0.060886964 0.010986674 0.09663462 -0.014052269
000390 b9 37 97 bd 71 cf b9 3d a5 21 1b be a5 23 0f 3b
       -0.07383675 0.090727694 -0.15149553 0.0021841314
0003a0 f6 69 7c 3d b2 a8 70 3d e3 73 5a bd 57 60 e3 bd
       0.06162449 0.05875463 -0.053333174 -0.1110236
0003b0 8d ef 13 3d 0c 3b d7 3c 01 93 da bd 18 d9 b2 bc
       0.036117125 0.026273273 -0.1067257 -0.021832034
0003c0 bd 86 3e 3d 1b f2 15 3d 15 b9 53 3c c4 34 53 bd
       0.046515215 0.036607843 0.012922545 -0.051563993
0003d0 3f a6 1e 3d fc cc 94 3c bf 0e 19 3d 4f 3d 94 bc
       0.038732763 0.01816415 0.03736758 -0.01809564
0003e0 85 f8 ac 3d 6b 6f 1e 3d cc bf b2 bd 75 a1 97 bd
       0.08445839 0.038680475 -0.087279886 -0.07403842
0003f0 ee fe fb bc 01 80 10 3d 43 e0 46 3d e5 12 90 bb
       -0.030761208 0.035278324 0.048553716 -0.0043967837

9.bias f4 [10]
000000 11 da 95 3c 4b 4c c3 3c 5e 09 d7 bc cb a6 a9 3c
       0.018292459 0.02384009 -0.026249584 0.020709416
000010 f7 30 31 3b 1d 47 20 bd 38 25 06 3b da fb 85 3c
       0.0027037242 -0.03913032 0.0020468961 0.016355444
000020 3f 39 54 3b a3 be 84 3c
       0.0032382754 0.016204184
