miniprojekty/model_mnist_cnn_20250621195203.pth (torch, 876009 bytes, 6 tensors)

0.weight f4 [64, 1, 5, 5]
00000000: 4b6e 743e d1ca 39bc b984 333e 040a 9dbe
00000010: 63c1 47be 4f64 de3d 98f9 923d b9cf 553c
00000020: ba46 3bbe 9cf1 40be d394 6abb e8e3 983e
00000030: 8a89 9abd 6cdd cabe f245 1f3c c35b f33d
00000040: 837e 3e3d 3767 a33b 6f5c acbe 494a a93d
00000050: 224c fb3d 85b3 0c3e e91f 48be ef0e 88be
00000060: fad9 673c 92dd 3abe c05d a5bd d2f1 803e
00000070: 122e 01be 072d a8bd b2f1 513e ff31 74bd
00000080: fec5 933e 9bd1 963d 4d2f 193d 65f8 d4bd
00000090: 5d4c 01be 9945 123e c663 793e 3309 a13e
000000a0: b1dd 853d a8db 56be 302e 83bd 73c3 a0bd
000000b0: 405b 893d f7ae 2fbe 0aee 90be c573 4dbe
000000c0: 8e10 c7be 4978 57be b75d 073e ef7a 6b3c
000000d0: 8777 e73d 6529 fc3c d69b 68be 9a85 ba3d
000000e0: fce6 c63d 8946 ff3d 2a55 2fbe c86a 96bc
000000f0: 4fbd 093e adef 043d c56f 93bc fdea 213e
00000100: b52d 97bd d3a2 bdbc 95bb 103e 4759 993d
00000110: 5306 1abe 1938 dfbd 285d f23d 800d 4f3e
00000120: e832 16bd e3b9 cb3c a52f 9d3b cc8e 683d
00000130: ebb6 48bc 9cad f4bb 5cc9 033e a39c 44be
00000140: 98de 49be 2f60 903d 0989 893e ee62 6ebc
00000150: 73df 99be 0f2e 823b 3fce a8bd 6469 b03e
00000160: dbe0 56be 0315 9cbe dd79 94bd c620 2f3e
00000170: b159 783e e3d3 94bd 3821 a53c 7eb3 93bd
00000180: 0c5d cf3b bcd1 373e e143 2bbd 36be 263e
00000190: d830 d53d e78e c7bd 53d7 8fbe beca 51be
000001a0: 9d84 edbc 1390 05bd e884 92bc 976a d3be
000001b0: c13c 6abd 20f0 13be 7343 403e 67e9 503e
000001c0: 7f3a a33d 5cad 91bd f5ca e23c 2aaa cdbd
000001d0: 01e4 873e 4f34 373e 4e42 833e 9f28 413c
000001e0: ebd6 c8bd f718 9b3d f896 0e3e 899c 07be
000001f0: dec2 2b3e d83d c73b f43f 103d 4c96 1f3e
00000200: 7b1b 6ebd a885 8dbd 6274 a5be 42db 49be
00000210: f952 fc3c 4197 313d b954 5b3e 248f a5be
00000220: 1a80 7c3c e27b 8a3e 9fa9 d23d f63a ac3d
00000230: 9a50 4dbe 640b 9a3e 1c30 5b3e 50f9 acbe
00000240: 904f bdbe aaeb 283a 557b 803e 63e8 61bd
00000250: 65ae d2be c658 3abe b5a2 c23d b838 09bd
00000260: a3fe 62be 8362 a5be 32a8 68be 5acb cc3d
00000270: 06f6 c33d 41fa 053e fb95 59bb 54dd 9e3e
00000280: 352e 03be 0a8f c8bd 4c7b a13e febb 9a3e
00000290: 5c43 a6bd 405b 003e bd8b 4a3e 054b 3fbe
000002a0: 1381 4dbd 21b4 b1bd b34b 833b 7ede ddbd
000002b0: b528 76be 7453 cebc 57fe 093e 1fd3 00be
000002c0: 5c31 e5bd 2f62 cd3b 03a4 e73d b751 0ebc
000002d0: ff2c 643d e456 06be 4375 39bd d782 4a3e
000002e0: 0dca ee3c 43fd 86be 148e 4cbd 2378 20bd
000002f0: ec3c 9c3e 5aa6 14bd d7b4 83be da25 bb3d
00000300: 1510 8e3e 9da2 843d a507 89be 9b2c 343d
00000310: 235c 043e 9320 1c3c 7bd3 fd3d 5197 97be
00000320: 137e 133d 4b30 e53d c345 7abe ac3f a5bd
00000330: a763 53be 7476 a43d 00f8 413c 1575 38bc
00000340: dab1 03be 6dc6 ff3d e402 443d 9f4f 993e
00000350: b1b9 9d3e 79b7 4d3e d2d3 2a3e 778d 4cbd
00000360: a6e6 91bc cf85 5f3e 8842 853d 3008 523e
00000370: b2f1 57be 5089 cbbe 1fca 2bbe 7584 8fbe
00000380: c653 37be 2acf 00bf bc20 8fbe ad93 07be
00000390: 0344 7c3e 6089 3e3d 28ba fbbd b66e b2be
000003a0: c722 0fbf 31bd 01bf 2184 19be cadf cf3c
000003b0: ca5a 263d cc4a cfbd 9688 a8be 2732 3fbe
000003c0: 4a6c 88bd f5d0 20bd 8906 623e 4784 023e
000003d0: 911b c5bd 7411 1dbe 604b 6d3e 5e24 853e
000003e0: a330 803e 242c 593e 3f15 da3c 6c8e a2be
000003f0: 4fe8 013e 6e3b be3c 6ec4 973e 360b 51be
0.23870198 -0.011339859 0.17531098 -0.30671704 -0.19507365 0.10858976 0.071765125 0.013050013
-0.18288699 -0.18842167 -0.0035794273 0.2986138 -0.07545765 -0.39622056 0.009721266 0.118827365
0.04650737 0.0049866694 -0.3366427 0.08266122 0.122703806 0.13740356 -0.19543423 -0.26573893
0.014151091 -0.18248585 -0.08074522 0.25184494 -0.1261523 -0.08211713 0.20502356 -0.059617992
0.28861994 0.07364198 0.037398625 -0.1039894 -0.12626787 0.14284362 0.24354467 0.3145233
0.06536425 -0.2098223 -0.06405294 -0.07849779 0.06706858 -0.17156588 -0.2830661 -0.20063694
-0.38879818 -0.21041979 0.13219343 0.014372571 0.11302095 0.030781457 -0.22715697 0.09107514
0.097120255 0.124646254 -0.17122331 -0.018361464 0.13451122 0.032455135 -0.017997632 0.15812297
-0.07381765 -0.02314893 0.14134057 0.074877314 -0.15041475 -0.10899372 0.118341744 0.20219994
-0.03666964 0.024868911 0.0047969394 0.056776807 -0.012250642 -0.007466985 0.12869781 -0.19200377
-0.19713819 0.070495956 0.26862362 -0.014549954 -0.3005329 0.003972776 -0.08242463 0.34455407
-0.20984213 -0.3048478 -0.07249806 0.17102346 0.24252965 -0.07266977 0.020157441 -0.0721197
0.0063282307 0.17951101 -0.04181278 0.16283497 0.10409707 -0.09744053 -0.28093967 -0.20487496
-0.028993899 -0.032608103 -0.01788564 -0.4129226 -0.057186846 -0.14447069 0.1877573 0.20401536
0.079701416 -0.07113144 0.027684668 -0.10042222 0.2654114 0.17891048 0.25636524 0.01178947
-0.09806617 0.07573121 0.13924778 -0.13243307 0.16773555 0.0060803704 0.03521724 0.15584677
-0.058131676 -0.069102585 -0.32315356 -0.19712546 0.030801283 0.043357138 0.21419038 -0.3233577
0.015411401 0.2704764 0.10286259 0.084096834 -0.20050278 0.30086815 0.21405071 -0.3378396
-0.36974764 0.0006443808 0.25094095 -0.055153262 -0.41148677 -0.18197927 0.0950369 -0.033501357
-0.22167449 -0.3230172 -0.22720411 0.09999724 0.095684096 0.13083746 -0.0033200968 0.31028235
-0.12810595 -0.097929075 0.3153938 0.30221552 -0.081183165 0.12534809 0.19779868 -0.18680961
-0.050171923 -0.08676935 0.004006827 -0.10833453 -0.24038966 -0.025186278 0.13475929 -0.12580536
-0.11191055 0.006267808 0.1131058 -0.0086864745 0.055706974 -0.13119084 -0.045277845 0.19776474
0.02914908 -0.26365098 -0.049940184 -0.03917707 0.3051523 -0.036291458 -0.25723907 0.09138079
0.27746645 0.064763285 -0.26763645 0.04398785 0.12925772 0.009529251 0.12393852 -0.29607633
0.036008906 0.11190852 -0.24440674 -0.08068785 -0.20643483 0.08030406 0.011838913 -0.011258383
-0.12860814 0.124890186 0.04785432 0.2994356 0.30805734 0.2008952 0.16682366 -0.0499396
-0.017810177 0.21828388 0.065068305 0.20510936 -0.21088293 -0.397532 -0.16776322 -0.28030744
-0.17903051 -0.5031611 -0.27954662 -0.13239928 0.2463532 0.04651773 -0.12291366 -0.3485009
-0.5591244 -0.5067931 -0.1499181 0.025375266 0.040613927 -0.10121688 -0.32916707 -0.18671475
-0.066612795 -0.039261777 0.22072805 0.12745772 -0.096243985 -0.15338689 0.23173285 0.26004308
0.25037107 0.21208245 0.026621459 -0.31749284 0.12686275 0.023221698 0.2964205 -0.20414433

0.bias f4 [64]
00000000: 804d ddbd 4080 08bc d891 b4be f00c 37be
00000010: c4ba 12be 2282 37be f057 00be c543 70be
00000020: ec72 59be bc1f 633a 906e 67be a716 233e
00000030: a97e 1b3c 1139 3fbc 0984 33be b702 f1ba
00000040: d28d 7cbd 1199 d6bd f671 3fbe d56b 84bb
00000050: e914 24be 4443 57bd 16f4 7abd 0e62 edbc
00000060: e622 31be 13ac 8cbe 3464 a7bd a988 26bd
00000070: 0555 fb3d 6f86 69be 2de4 b3bc 4bd1 80bd
00000080: 732b 13be dec4 36be cc25 fcbd 87b8 0cbe
00000090: a4a0 58be 4c27 d3bd 2b95 3dbd 5660 4cbe
000000a0: 6b59 36be d086 9ebb c902 bbbd b9bf 66bd
000000b0: 2799 3bbe c120 16be 6b1a 49be 765c b8bd
000000c0: a066 7cbd 77c6 8dbd 5ff3 48be 1ee8 dbbd
000000d0: ccb4 a1be c78f e7bd 3096 6c3c c795 cb3d
000000e0: 68b1 183e 4dc3 25be 9747 71be 9154 55be
000000f0: 0f4b f4bd e851 043d 0b40 bbbd d9a9 9e3c
-0.108057976 -0.008331358 -0.3526752 -0.17876029 -0.14329058 -0.17920735 -0.12533545 -0.23463352
-0.21235245 0.00086640916 -0.2260077 0.1592661 0.009490647 -0.011671321 -0.17530836 -0.001838765
-0.061658688 -0.10478414 -0.18695816 -0.004041175 -0.16023602 -0.052554384 -0.061267935 -0.02897742
-0.17298469 -0.27475032 -0.08173409 -0.040657673 0.122720756 -0.22805189 -0.021959389 -0.062899195
-0.14372043 -0.17848536 -0.12311897 -0.13742267 -0.2115503 -0.1031023 -0.046284836 -0.19958624
-0.17807548 -0.0048378482 -0.091313906 -0.056335185 -0.18320142 -0.14660932 -0.19638984 -0.090020105
-0.06162131 -0.0692262 -0.19624089 -0.10737632 -0.3158325 -0.1130672 0.014440104 0.09940677
0.14911425 -0.16187783 -0.23562466 -0.20833041 -0.11928379 0.032304674 -0.091430746 0.019368099

4.weight f4 [128, 64, 5, 5]
00000000: 3db8 4fbd 236d e4bc ed3b 7a3d 7b50 713d
00000010: ea4d d4bd b780 febc db73 1ebc 6363 cb3b
00000020: 44c9 67bc 69bf 1cbe 0a03 143d 13ab fa3b
00000030: d2d3 233c e4dc 0fbe 939c 20be fa5c 063c
00000040: 3e13 99bc 2ec6 bfbc b740 27bd 6848 7a3c
00000050: e1c7 7bbc 3a59 2f3d a99e 55bd 8276 453c
00000060: f8de fcbc b8b3 be3d 662b 80bc 2253 1fbd
00000070: 3521 c4bd 217d d8bd e68c 59bd 8054 d1bb
00000080: 6962 8d3d efad d8bc d80a 503d fb3d 3ebe
00000090: c4c3 66bd 51f2 42bd 84c4 5abd 4d00 533d
000000a0: a5e5 1e3d 6835 603d a987 9e3c a71a 1b3d
000000b0: f58f 81bc b8b1 053e 1b69 093e dfd4 5f3d
000000c0: e2df 9e3c 3bc6 6ebc fc08 703c 7c1f 693d
000000d0: 75aa 1c3d 1369 bb3b 3599 85bd 828c 2bbd
000000e0: d05c 2fbd b608 873b 4803 ddba 008c 98bd
000000f0: 9ce3 9d3c 1d95 62bd 154f 26bd 3a72 a2bd
00000100: b7e4 f5bd fbf4 f03c ae45 62bc 5d84 af3b
00000110: ce84 d5bc 774c adbd a5be a8bc 7ef2 95bc
00000120: 2ef5 17bd 7933 84bd 8ed5 57bd 24d7 ba3c
00000130: 57df 1a3c 03d7 c23d ef88 86bd 4e97 82bd
00000140: 391a cbbc 20d2 b4bd dfbf c33c defd b8bd
00000150: 32d4 c3bd 6407 8fbc 7da3 61bd 795d 5cbd
00000160: d0dd 09bd a8bf fbbd 67ab a63d 156c bc3c
00000170: de38 43ba eada b0bd cff0 f3bb 0d8d 9cbd
00000180: 0d61 fabc 82f3 38bd 5f5d 4cbd 9fd2 98bd
00000190: 1e45 64bd 3229 213c 5177 303d 9582 a1bd
000001a0: ad42 f3bd be19 a7bd 5f3b 81bd a33e cebd
000001b0: e385 01be 0d97 35be f930 9abd 6fa6 6cbd
000001c0: 6491 96bd b292 01be 5689 183d 09eb d53d
000001d0: a56a d73c eac2 cabc 62e5 903c 83d3 ba3d
000001e0: 5c1f 91bd f783 06ba c62e a33d 0ddd 74bc
000001f0: 83cc 21bd 6949 933d ee25 293c d9f8 0a3d
00000200: 3a12 063d d215 81bd a683 9c3d e990 babc
00000210: 3c84 603d defe 03be 9d2f d3bd 154f 8f3d
00000220: d7d2 85bd f3ca 15bd 4b8d 8ebc 8c1c cabb
00000230: a73a 98bb 9d38 3cbd bcc1 4dbd fad3 323d
00000240: 1aa2 f4bc 8985 913d 5119 cf3c d99c 1fbd
00000250: 080b b5bd 42e3 babd 75d3 a53c e611 b7bd
00000260: 36de 04bd ea84 a3bd a5d0 acbd 225d c4bd
00000270: 7b81 02bd 20a1 debd b227 23bc 6874 c6bd
00000280: 48c7 e3bd 680f d3bd b12f dfbd 5261 beba
00000290: c054 96bc 60bb 103e a3db c23d 6f94 88bc
000002a0: 3c4f 383e 4513 7fbd f792 1d3d 12d3 5b3d
000002b0: e8b0 8d3d 75ce 493d 2eec 56bc 3f66 94b9
000002c0: 31f2 4a3c 34ef 233d 66f1 98bd 1ddf 9dbd
000002d0: d9d9 44ba 821a cf3d fd82 c13d 5146 3ebe
000002e0: 015e eebd be1b e53d a5d0 5bbd b25a 6ebc
000002f0: 67ec 35bd fb68 63bd 039c d9bd fe93 15bd
00000300: 5eab 86bc 7787 29bd 78e4 d4bd 84d5 e6bc
00000310: 9f12 07bd ed58 b2bd b089 143b 1324 c8bd
00000320: 58c9 293d 73c9 12be de2f 1bbe 3ebe 15be
00000330: a1d7 dcbd edb1 0fbe 0ec6 04be 4220 87bd
00000340: f2e9 ffba a5fd 85bc 3e17 d0bd add7 10be
00000350: bdeb fabd d69f 11bd 2a75 f1bd 923e 553e
00000360: 091d fb3d ae85 29bc 68d7 823d 0cf3 92bd
00000370: dabc 1c3e 9aef d93d c8d9 ba3d f3bd 933d
00000380: 0718 683d 93dc 41bd d4cd c0bd 330f 25be
00000390: 4eb4 44bd e282 39bd 2344 16be 6a1b 13bd
000003a0: 5329 17be 46d3 943b 05f3 273d 48b1 f5bd
000003b0: 6e29 edbc 1040 0d3d 8d57 6d3d 97da 663c
000003c0: b317 9cbd 23e3 093c 09a7 16bd 355c 623d
000003d0: a31d 8ebd 8aab 73bc 7235 3f3b c646 11bd
000003e0: f740 28be 43e9 cebd 170b d23d 51e8 28bc
000003f0: 895d 8cbd b9a4 92bd 41fc dbbd 7d50 1f3d
-0.050712813 -0.027884072 0.061092306 0.058914643 -0.103664234 -0.031067235 -0.009671177 0.006206916
-0.014147107 -0.15307392 0.03613571 0.007649788 0.009999232 -0.14049107 -0.15684728 0.008200878
-0.018685933 -0.02340993 -0.0408332 0.015276052 -0.015367479 0.042809702 -0.052153263 0.01205218
-0.030868039 0.093116224 -0.015645694 -0.03889764 -0.09576646 -0.105707414 -0.053112887 -0.006388247
0.06903536 -0.026450126 0.05079159 -0.18578331 -0.05633904 -0.047594372 -0.05341007 0.05151396
0.038793225 0.054738432 0.019351797 0.037867215 -0.015815714 0.13056076 0.13419001 0.05464637
0.019393865 -0.014573629 0.01465058 0.05691479 0.038248498 0.005719313 -0.065233625 -0.041882046
-0.042813122 0.0041209115 -0.001686194 -0.07448578 0.019273572 -0.055317987 -0.040602762 -0.07931943
-0.120065145 0.02941369 -0.013810558 0.005356355 -0.026064303 -0.0846185 -0.020598719 -0.018304106
-0.037099056 -0.0645513 -0.052693896 0.022807665 0.009452662 0.095136665 -0.06569087 -0.06376515
-0.024792777 -0.08829141 0.023895202 -0.09032796 -0.095619574 -0.017459579 -0.055087555 -0.05380008
-0.033658803 -0.12292415 0.08138161 0.023000756 -0.00074471335 -0.086355045 -0.007444478 -0.07644091
-0.030563856 -0.045154102 -0.049893733 -0.07462048 -0.055729978 0.009836482 0.04308254 -0.07886235
-0.11877952 -0.08159207 -0.06310152 -0.10070541 -0.1264873 -0.17733403 -0.07528872 -0.05777591
-0.0735195 -0.12653616 0.03724035 0.1044522 0.02629597 -0.024751145 0.017687503 0.09122374
-0.070860595 -0.00051313586 0.07967906 -0.014945281 -0.03950168 0.07191736 0.010323985 0.033928726
0.032732226 -0.0630299 0.076422974 -0.022774177 0.05481361 -0.12890193 -0.10311816 0.069975056
-0.06534355 -0.0365705 -0.017401358 -0.006167954 -0.004645664 -0.045952428 -0.050233588 0.043659188
-0.029862452 0.07105548 0.025280626 -0.03896794 -0.08839995 -0.09125377 0.020242432 -0.08938961
-0.03243848 -0.07984336 -0.08438233 -0.09588076 -0.031861763 -0.10870576 -0.009958195 -0.096901715
-0.11121994 -0.10305673 -0.10897768 -0.0014524853 -0.018350959 0.14133978 0.09514549 -0.016672341
0.17998976 -0.062274236 0.038470235 0.05366809 0.06918508 0.04926916 -0.013117833 -0.0002830494
0.0123868445 0.040023044 -0.07467918 -0.07708571 -0.00075092685 0.10112478 0.09448812 -0.18581511
-0.116390236 0.11186932 -0.053665776 -0.014547991 -0.044414904 -0.05552004 -0.1062546 -0.03651809
-0.016439136 -0.041388955 -0.103951395 -0.028177984 -0.032976743 -0.087083675 0.0022665076 -0.097725056
0.041451782 -0.1433466 -0.15154979 -0.14623353 -0.107833154 -0.14032717 -0.12966177 -0.065979496
-0.0019524677 -0.016356299 -0.10160683 -0.14144774 -0.12251995 -0.035552822 -0.117899254 0.2082465
0.122613974 -0.010346813 0.06388742 -0.07175264 0.15306416 0.106414035 0.0912357 0.07213964
0.05666354 -0.047329497 -0.094142586 -0.1611908 -0.048023514 -0.045290835 -0.1467443 -0.035914816
-0.14761858 0.0045417873 0.041003246 -0.11996704 -0.02895042 0.034484923 0.057944823 0.014090202
-0.07621708 0.00841597 -0.03678039 0.055263717 -0.069392465 -0.014872441 0.0029176143 -0.035467885
-0.16431032 -0.10103085 0.102560215 -0.010309295 -0.06853778 -0.071603246 -0.10741473 0.03889512

4.bias f4 [128]
00000000: 52e7 18bd f4c2 f8bd 3e42 dbbc ee81 69bd
00000010: ff13 a8bd e9cf bbbd ea7f 9dbd 8115 1bbd
00000020: f693 65bd bd1e 00bc 82f6 8bbd a3ac 04be
00000030: adbc 9ebd 1664 b2bd f0cf a7bd 41ee 84bd
00000040: 1aac 07be 580f cebd 3d91 e3bc 6c50 9cbd
00000050: a7d4 ffbd a95b 0fbe 3f65 24bd b468 d2bd
00000060: 00e5 cabd 1dd5 7dbd fabd ddbc a552 b5bd
00000070: e07a ecbd 47fd 99bd 297d 8abd cbe6 b6bd
00000080: ed7c 5dbd 7ddf e3bd 0807 b8bd 76cc 02bd
00000090: 2617 68bd 1b70 a5bd b9b7 95bd 5b6e 2dbd
000000a0: 1481 88bd 17bf e2bd 2bef 0bbe 6afc 07be
000000b0: 0979 debd aff5 18be c6c8 c8bd f4b9 d1bd
000000c0: d4ec 5abd 0335 b5bd 05d6 0fbe 4fa3 9bbc
000000d0: d7b4 6ebd 5b19 82bd 3b1d 90bd 546a 02be
000000e0: 1c6c cdbd fc3a e8bd 68ce 1fbd 1014 fbbd
000000f0: caa6 eebd 6d2d 8bbd 2ec0 85bd 30a1 e4bd
00000100: c27f d3bd a1f6 31bd 44e3 31bd ddac 0ebe
00000110: 469a 33bd 21aa 24be 1688 efbc 77be dbbd
00000120: e674 0abd c0d0 86bd c6c2 dabd 4c0a 20bd
00000130: 9b1c cc3c 7a80 43bd 4f88 c9bd 8f7d b3bd
00000140: 9634 8dbd abb8 92bc d258 e8bd 2b42 49bd
00000150: d9d2 03be ad1c a3bd 439e f6bd da6f 1bbe
00000160: c2af 0ebd 3ba9 a0bd f31e c7bd be25 92bd
00000170: 200a 61bc 4724 4bbd a84c 8fbd 4411 8bbd
00000180: b49c fcbc 8498 8ebd 433d 85bd 73eb 90bd
00000190: c7d5 80bc 3b72 fbbc 28b1 12be 19be 8dbd
000001a0: a09f 04be 82db 92bd 4511 e7bd e68b dcbc
000001b0: 7727 a7bb 029a acbc fc54 c2bd ce04 84bd
000001c0: a92f e5bd c943 08be a1e2 cabd 61e1 e6bd
000001d0: 248a 53bd 6536 80bd afd3 dfbd ed89 abbd
000001e0: 664b 2abe b9e5 95bd a0bf dfbc 37bc 6dbd
000001f0: 906d adbd 23f3 97bd 656a 5abd c9c2 2cbd
-0.03732998 -0.12146559 -0.026764985 -0.057008676 -0.08206939 -0.09170515 -0.07690413 -0.037862305
-0.05604931 -0.007819829 -0.06834127 -0.1295648 -0.07750831 -0.08710496 -0.08193958 -0.06490756
-0.13249245 -0.1006152 -0.027779216 -0.07632527 -0.12491732 -0.1399981 -0.04013562 -0.10273877
-0.099069595 -0.06197082 -0.027068127 -0.08853654 -0.11546874 -0.07519012 -0.06762154 -0.08930739
-0.054074217 -0.111266114 -0.08985716 -0.03193327 -0.0566627 -0.08078023 -0.07310433 -0.04234157
-0.06665245 -0.11071604 -0.13665454 -0.13279882 -0.108629294 -0.14937471 -0.098039195 -0.10240546
-0.053448513 -0.08848002 -0.14046486 -0.01899877 -0.05827793 -0.063524924 -0.07036825 -0.12735873
-0.10030386 -0.113393754 -0.039015204 -0.12259686 -0.11652906 -0.06795774 -0.06530796 -0.111635566
-0.10327102 -0.043448094 -0.043429628 -0.1393313 -0.0438483 -0.16080524 -0.029239696 -0.10729688
-0.03380289 -0.06582785 -0.10681681 -0.03907232 0.024915984 -0.047729947 -0.09840452 -0.08764183
-0.068947956 -0.017910322 -0.11345066 -0.04913537 -0.12873401 -0.07964454 -0.12041905 -0.15179387
-0.034835584 -0.07844778 -0.097227 -0.07136105 -0.013735324 -0.049595144 -0.06997043 -0.067904025
-0.03083644 -0.06962684 -0.06505825 -0.070761584 -0.015726937 -0.030694118 -0.14325392 -0.06921024
-0.12951517 -0.07170774 -0.11282591 -0.026922178 -0.00510114 -0.02106953 -0.09488866 -0.06446229
-0.11190731 -0.13307108 -0.09906507 -0.11273456 -0.051645413 -0.06260375 -0.10929047 -0.08375917
-0.16630325 -0.07319207 -0.027313054 -0.058040824 -0.08468163 -0.074194215 -0.053324122 -0.04217795

9.weight f4 [10, 1152]
00000000: 7fe5 4d3b 6f07 e9bc 43c7 c4b8 11d3 64bd
00000010: 44db 253d eba6 4fbe d3f2 a93d 6543 ac3c
00000020: 91df 703c 271d 51bc 0fc5 d9bd e392 6d3b
00000030: 75cb 423d 9ee2 e93c 1bd2 c9bb 30d9 263c
00000040: e6dd 00be 790a 0d3d e810 4ebd 6ef8 9fbc
00000050: b57e 023d 8dce 593d 52b5 223d d394 a43d
00000060: 6847 c8ba 130c 21be 4ef6 933d e1df 1bbe
00000070: 1975 c63d afa2 06bc 5b2a 883d 8226 a5bd
00000080: 9f44 24bc 0e23 babd 7cd2 9d3c 34e7 c73c
00000090: db79 3fbd 9995 3ebd 3c76 fabc aded 6dbd
000000a0: 7765 3ebd 319e 7f3d f289 083d f2ae b93b
000000b0: 9f80 b03c 8498 d23c f4ef c9bc c2ab d33c
000000c0: b6a1 9ebc 6208 84b9 995d f63c 802d 14be
000000d0: 8779 8c3d f22d 0cbe 60d6 b0bd 658f d8bc
000000e0: cd67 2ebd 4ec6 52bc 0374 c2bc 8794 29bd
000000f0: 228b c6bc 75c1 9abd c11d 903d 1411 6fbd
00000100: c8f9 94bd 915b 43bd 978b 6a3d cfc0 073c
00000110: cc65 713c 48dc 15bd 1fb9 a7bd 0218 303d
00000120: 371d 0abb 183b 3ebd af5c 80bd 1e7c 41be
00000130: caca 0bbd d0ea 16bd bbbe 6f3d adee 5d3d
00000140: 5dff 4abd 3621 b7bc 2fea fbba bad0 7fbc
00000150: a4bd 8c3b 715f 92bc 60f8 5abc 44ba a1bc
00000160: 8ed6 0bbb 31eb 923c b415 2b3d 9ab8 103e
00000170: ecfc 4ebc 0c25 803d e4e9 69bd de2e e23c
00000180: 8992 85bd 8496 053d 74df e6bd 8280 3dbd
00000190: c44f 3e3d a3d8 e7bc b4ba 14bd 9927 4abd
000001a0: dfa9 703c f65c c0bd 6e97 4fbd 9944 2bbd
000001b0: 9052 4bbd 95af 57bd 9e5c aebb 6b36 dbbd
000001c0: cfe3 b23d 3bf6 c4bd e724 173d 7bce ed3c
000001d0: 3e98 3c3d 197f b1bc 69d7 62bd c766 043e
000001e0: b90d b8bb 0412 813a b621 9a3b 8b1b d13d
000001f0: 8320 ae3d 0312 3cbe 935a c9bc ebd2 29bc
00000200: e665 96bd 3e52 f8bd 560e f1bb 1e21 0b3d
00000210: d0bd 083d ff8c 2dbe 9ce5 37bd ba64 04bc
00000220: a5cf a0bd dcac ae3d 2ab3 d83c 16a5 cdbd
00000230: ca22 ae3c 4037 d13d 8986 b7bc c89b 01be
00000240: 5bed fabd 9fb2 55bd c3a0 48be 9671 06be
00000250: 46df 2c3d 5cc3 ae3c f076 1b3d 7060 2d3d
00000260: 01bb 22bd eee4 c2bd 0691 573d f933 70bc
00000270: a680 bb3c 8a1c 8a3d f7c7 2bbd f063 5cb9
00000280: ffe2 623c 0735 10bc 3094 84bc 6446 5fbc
00000290: 0793 a0bd 0b9e 9c3d 16a3 28bc 3d57 2e3d
000002a0: b770 a93d 3868 0c3d 51d6 633c 39e3 82bc
000002b0: aa08 7bbc c1d3 5bbc e12b e3bc a054 653c
000002c0: b104 ffbc cf4d 253d c2ce 563c 4a8b a53d
000002d0: ee60 cc3c 9eb9 ee3b d309 e7bd 8cd6 ebbd
000002e0: 5e9e 65bd b29f 26be 8711 2e3a b4d6 fd3c
000002f0: 27d9 ce3d 07a1 48bc 0740 d8bd b0d4 37bd
00000300: 525d 833d 186f e53c bfbe 2d3d 765e ffbb
00000310: ad7c 093c abcb e53b f0c8 6c3d 442b 40bd
00000320: 4dc7 033c a815 dd3b 140a 3e3d 7368 903c
00000330: 60f7 f2b9 293f 9ebd ee74 73bc 42ae 5dbd
00000340: 9007 e1bc 2f1d 14bd 99e0 383d 34d6 663d
00000350: 99d4 2bbd b065 b53c 9e4e babc 3e90 0f3e
00000360: 5e78 47bd 7c23 da3b 6bf5 a03d 8386 443d
00000370: 20a5 45bd e1cb 92bd 3785 dabd 102d b0ba
00000380: 5189 443c 5507 3b3c 91ca cc3d 8a2e 013c
00000390: 75b2 14be 963a b93d 921e 30bd 55c3 a6bb
000003a0: 5923 ffbd ddf5 293d 8fb5 1d3a 523b 993c
000003b0: aef5 9ebc f7d4 b7bc a339 17bc 0a95 e03c
000003c0: 80d2 313c bc00 d9bc 553d acbc 9b8d 5f3c
000003d0: 778e ddbc b4fa 1ebd 22e8 0fbd f8ed 95b9
000003e0: 328c fd3d da8f d1bd e5a3 813b 6344 b33d
000003f0: b447 65bb c8ce 61bc f58a d6bd 8ca8 5b3d
0.0031417308 -0.028445927 -9.383124e-05 -0.05586535 0.04049231 -0.20278518 0.08298268 0.02102823
0.01470174 -0.012763298 -0.10633289 0.0036250881 0.047557313 0.028550442 -0.0061590797 0.0101836175
-0.12584648 0.034433816 -0.05030909 -0.01952764 0.03185912 0.053175498 0.0397237 0.080361985
-0.001528007 -0.15727262 0.07224713 -0.15222122 0.09690303 -0.008217498 0.06648704 -0.080639854
-0.010026126 -0.090887174 0.019265406 0.024402238 -0.04674707 -0.046529386 -0.030573957 -0.058087993
-0.046483483 0.062406722 0.03333468 0.005666607 0.021545706 0.02570749 -0.024650551 0.025838736
-0.01936422 -0.00025183248 0.030073928 -0.14470482 0.06859117 -0.13689402 -0.08634639 -0.026435563
-0.04257946 -0.012864662 -0.02373696 -0.041401412 -0.024236266 -0.0755643 0.07036925 -0.058365896
-0.072742045 -0.047694746 0.05726203 0.008285715 0.014733743 -0.03658703 -0.08189606 0.042991646
-0.0021074542 -0.046443075 -0.06267678 -0.18895003 -0.03412894 -0.03684503 0.058531504 0.054182697
-0.04955994 -0.022354703 -0.0019219572 -0.015613729 0.004295068 -0.017867776 -0.013364881 -0.019742139
-0.0021337601 0.017934414 0.041768745 0.1413292 -0.012633543 0.06257066 -0.05710782 0.027610239
-0.0652209 0.032614246 -0.11273089 -0.046265133 0.04646279 -0.028301543 -0.036310866 -0.04935417
0.014688938 -0.09392731 -0.050681524 -0.041813467 -0.049639285 -0.052657682 -0.0053210994 -0.10703739
0.08734857 -0.09617277 0.036900427 0.029029122 0.046043627 -0.02166705 -0.055381212 0.12929831
-0.0056168702 0.0009847288 0.0047037257 0.102103315 0.08502295 -0.18366246 -0.024579322 -0.010365228
-0.07343654 -0.121250615 -0.0073564453 0.03396713 0.033384144 -0.16948317 -0.044896707 -0.008080656
-0.07852105 0.08529064 0.02645262 -0.10041253 0.021256823 0.10215616 -0.022403019 -0.12657082
-0.12252303 -0.0521723 -0.19592576 -0.13129267 0.042205118 0.021333389 0.037955225 0.042328298
-0.039729122 -0.09516321 0.05262854 -0.014660829 0.022888493 0.06743725 -0.04193875 -0.00021018065
0.013848065 -0.008801705 -0.016183943 -0.013627622 -0.07840543 0.07647332 -0.010292789 0.042563666
0.08273452 0.03427908 0.0139060775 -0.015977489 -0.01532189 -0.013417185 -0.027730884 0.013997227
-0.031130167 0.040357407 0.013110818 0.08083208 0.024948563 0.007285311 -0.11281171 -0.11515531
-0.056059234 -0.16271856 0.0006640185 0.030986167 0.10100012 -0.012245423 -0.10559087 -0.04488057
0.06414284 0.028007075 0.042418238 -0.007793243 0.008391541 0.0070128045 0.057808816 -0.04691626
0.0080431225 0.0067469664 0.04639633 0.01762793 -0.00046342146 -0.077268906 -0.014859421 -0.054121263
-0.027469426 -0.036160644 0.045136068 0.056356624 -0.041950796 0.022143215 -0.022742566 0.14019868
-0.048698775 0.006657062 0.0785931 0.047979843 -0.04825318 -0.07167793 -0.1066994 -0.0013441164
0.011995629 0.011415322 0.09999574 0.007884631 -0.14521201 0.090443775 -0.042997904 -0.0050892034
-0.12457914 0.04149424 0.0006016129 0.018705044 -0.019404259 -0.022440417 -0.00923005 0.027414817
0.01085341 -0.026489608 -0.02102534 0.013644601 -0.027045472 -0.038813308 -0.03513349 -0.00028596795
0.12380256 -0.10232516 0.0039563053 0.08753278 -0.0034985365 -0.013782211 -0.10475723 0.053627536

9.bias f4 [10]
00000000: b67b 3d3c bd1d 123d 3a9d 1ebd 73c5 fd3c
00000010: 8cc1 8ebc c684 1a39 68e0 9cbb 4b8e b3bc
00000020: 92d9 493d 3b97 48bd
0.0115651395 0.035672892 -0.03872416 0.03097794 -0.017426275 0.00014736046 -0.0047874935 -0.021918437
0.049279757 -0.04897235
