miniprojekty/model_mnist_cnn_20250621201902.pth (torch, 875945 bytes, 6 tensors)

0.weight f4 [64, 1, 5, 5]
000000 1d dc 41 be 58 3e 56 bd 8a ad 4e be 4a dc fb 3d
       -0.18931623 -0.05230555 -0.20183387 0.12297876
000010 6b 27 c6 3d 0a 1f 3e be 8b 8b 1e 3d 20 b1 05 be
       0.09675487 -0.18566528 0.038707297 -0.13055849
000020 26 52 fc 3d e4 73 aa 3d 8c b9 26 be a0 ee bc bd
       0.12320356 0.08322886 -0.16281718 -0.092252016
000030 2f 19 2b 3e 80 3e 2f 3e cb f5 dd 3a df 27 15 bd
       0.16708826 0.17113686 0.0016934214 -0.036414977
000040 82 7c 6f 3e d8 8d 0b 3e 59 18 d5 3d f3 ef 9b be
       0.2338734 0.13628328 0.104050346 -0.30456504
000050 06 21 45 3e 73 3f 75 bd bc d4 52 3d f3 9e 8d be
       0.19250879 -0.059874963 0.05147241 -0.2766033
000060 ab b9 53 bc a8 0d 88 3c 0b 80 b5 be f9 96 9e be
       -0.012922685 0.016608074 -0.35449252 -0.30974558
000070 bb a6 bb be 11 d6 f4 3c 98 7e 07 be 9a fd 9e be
       -0.36650643 0.029887231 -0.13231885 -0.31052858
000080 73 37 8b 3d a2 e2 22 be 5d e4 73 3d ae de 0b be
       0.067976855 -0.15906766 0.059543956 -0.13659164
000090 eb 20 85 be a6 0e 35 be 6c 4f 61 3e dc 4e 75 3e
       -0.26001677 -0.17681369 0.22002953 0.23955864
0000a0 19 8c 44 be 32 f9 04 be cb 82 4b be 1b 77 dd 3c
       -0.19194068 -0.12985685 -0.19874112 0.027034333
0000b0 81 c7 0c 3e 27 e0 c2 3d f1 ec 0f 3d a4 2b f2 bd
       0.1374798 0.0951541 0.035138074 -0.1182473
0000c0 71 d3 f3 3d cd b0 06 3e b8 70 8b 3d 20 35 e3 bc
       0.119055636 0.13153382 0.06808609 -0.027735293
0000d0 be dc 88 be 63 0c 21 be 25 50 24 3e 95 ea 2a 3e
       -0.26730913 -0.15727381 0.16046198 0.16691048
0000e0 e0 7d 9e bd b2 9e 85 be 44 6d 7d be d7 21 26 3d
       -0.077388525 -0.26097637 -0.24748713 0.040559616
0000f0 ff 8e 7b 3e b4 5f 83 3e 17 b0 1f 3e c3 ed 48 be
       0.24566267 0.25658953 0.15594517 -0.19621949
000100 5b d8 9b be 7e b7 68 bc e3 c1 9b 3d 1e de b8 3d
       -0.30438504 -0.014203904 0.0760534 0.090267405
000110 34 46 13 3e c0 42 7d bd e8 41 06 3e d2 70 9c bd
       0.14382249 -0.061831236 0.13111079 -0.07638706
000120 34 3f db 3c 72 84 17 3e 99 a2 1d 3e 40 b4 9b 3d
       0.026763536 0.14796618 0.15394057 0.07602739
000130 71 20 4e 3d 60 85 cc bd ce 3f 72 bc f4 a9 6d be
       0.050323907 -0.09986377 -0.01478572 -0.23209363
000140 1a 0d ab bd 17 59 37 3e 64 04 47 3e 6e e9 43 3e
       -0.08352108 0.17905079 0.19435269 0.19132015
000150 a1 13 87 3e 4d b3 c6 3d 7c 2f 50 3e 8e 92 33 3e
       0.26382163 0.09702168 0.20330614 0.17536375
000160 12 25 f8 3c f1 d6 03 3e 86 24 78 be 4c b4 88 be
       0.030291114 0.12874962 -0.24232683 -0.26700056
000170 35 17 2f be 3b c4 47 3d d0 49 a6 3d 3a d5 6d be
       -0.17098697 0.048771124 0.08119547 -0.2322587
000180 07 14 35 be 4d c0 e3 bd f2 70 66 be 5e 52 86 be
       -0.17683421 -0.11120663 -0.22504023 -0.26234716
000190 98 02 fe bd 9a 3f 37 3e 7a 13 98 3e d9 a1 10 bc
       -0.124028385 0.17895356 0.2970236 -0.00882765
0001a0 fa e5 5d 3e 57 f7 71 be 52 59 bb 3c 1d 6c 32 3e
       0.2166976 -0.23629509 0.02286974 0.17424054
0001b0 16 c2 1f 3e a0 ed 7c 3e 73 08 0d bf 30 08 cf be
       0.15601382 0.24700022 -0.5509102 -0.40435934
0001c0 fc 6f 9b be 54 2f 17 bd 90 44 00 3e 39 33 97 bd
       -0.30358875 -0.03691037 0.12526155 -0.07382817
0001d0 63 e5 a2 be 19 6e 4d be 86 68 f6 be f7 14 da be
       -0.31815633 -0.2006153 -0.4812662 -0.4259412
0001e0 a4 f7 47 3e 4a b9 55 3d 88 a4 13 be de 0e f0 bd
       0.19528061 0.05217866 -0.14418232 -0.11721586
0001f0 12 f2 3f be 44 ac c2 be 04 08 76 be fa 93 90 3e
       -0.18744686 -0.38022053 -0.24026495 0.28237897
000200 fc 1b 72 3e 36 ce 09 bd c9 01 40 be 86 8b 1e bf
       0.23643488 -0.033643924 -0.18750681 -0.61931646
000210 72 95 5f be 9f 9b 98 bb 42 90 53 be 7b 6f cc be
       -0.21834353 -0.0046572234 -0.20660499 -0.39928803
000220 ea c7 f8 be 40 70 2b bf 00 20 d2 be a5 68 43 be
       -0.48590022 -0.66968155 -0.4104004 -0.19082887
000230 e2 b8 1c be d4 9d 27 3e 20 a8 f9 bb df 2b 2b be
       -0.15304902 0.163688 -0.007618919 -0.16715954
000240 47 28 55 be 2c 22 6c 3e 2d 24 11 3e 15 d3 1e 3e
       -0.20816146 0.2305991 0.14173956 0.15510209
000250 86 47 fc 3d fc 9c e0 3d 47 88 62 bc 27 69 ad bd
       0.123183295 0.109674424 -0.013826436 -0.08467322
000260 8f b2 12 3e 57 2b 8f be 03 26 b7 be 12 f8 4f be
       0.14325927 -0.27962753 -0.35771188 -0.20309475
000270 4f 42 99 3d 8a 71 ef 3d f0 fe c9 be 0d d2 66 3d
       0.074833505 0.11691578 -0.39452314 0.056352664
000280 c9 5a 2e be 2d fa ba bd 53 6f 47 be e9 91 1e be
       -0.1702682 -0.091297485 -0.1947606 -0.15485348
000290 c2 37 38 3e 8b 3e a9 bb 96 ef 99 3b 96 41 b2 bd
       0.1799002 -0.0051649264 0.0046977503 -0.08703916
0002a0 6c 20 5e bc dd 4d a7 3d a0 b5 70 3e 30 28 1b 3e
       -0.013557535 0.08169148 0.23506784 0.15152049
0002b0 13 9f 8a 3e e8 f9 0f 3e 35 6b 10 3e 49 3e 3c 3c
       0.2707449 0.14060175 0.14103396 0.011489459
0002c0 4a 4c 28 be af 4f a7 bc 15 42 17 be 8d bf e6 3b
       -0.16435352 -0.020423738 -0.14771302 0.0070418776
0002d0 44 45 ac 3c 47 c0 4b 3e 06 93 fd 3d 9c 09 65 3e
       0.021029122 0.19897567 0.12381558 0.22366947
0002e0 e1 ca 55 3e 61 6c 12 3e 8a a2 bb bd 79 ef 1e 3e
       0.20878173 0.14299156 -0.09161861 0.15521039
0002f0 2c d0 3b 3e 70 83 4c 3d 44 72 de 3d d8 66 b4 3c
       0.1834113 0.049930036 0.10861638 0.022021696
000300 d6 ca 29 be ae 94 44 be cb d0 db bd e9 a0 17 bc
       -0.16581282 -0.19197342 -0.107331835 -0.009254673
000310 b9 24 aa 3d 7c 0f f9 bd 7b 0e b2 be 4c f5 57 bd
       0.083077855 -0.121611565 -0.34776673 -0.052724168
000320 e4 05 f3 bd 88 df 61 3d 1f 2c f0 bc 6d 57 18 bd
       -0.11866358 0.055144817 -0.029317914 -0.03719275
000330 25 b6 f1 bd bb 02 43 3e 0f 44 f7 3d 53 c6 3a bc
       -0.118023194 0.1904401 0.12073528 -0.011399823
000340 d6 b0 6f be 96 a3 8e be 06 14 24 be 73 a5 17 3e
       -0.23407301 -0.2785918 -0.16023263 0.14809208
000350 91 a7 54 be f1 ab 84 be 0a de be 3d b2 dc 60 bd
       -0.20767047 -0.2591243 0.09319694 -0.05489797
000360 93 cb 88 3e 3c db 40 3e 05 e7 c5 bc 45 d2 cd bd
       0.26717815 0.18833631 -0.02415801 -0.10049871
000370 70 33 fa bd 32 43 26 3e bd 18 3d 3e ef 3b 3b 3e
       -0.12216842 0.1623657 0.18466468 0.18284582
000380 2c a0 28 3e b7 6b e3 3b 5b 3e 05 be 13 0b 37 be
       0.1646735 0.006940331 -0.13012068 -0.17875318
000390 06 35 56 bc a6 1a f8 3d dd 91 f3 bd 93 8a 01 be
       -0.013074165 0.12114458 -0.118930556 -0.12650518
0003a0 d9 96 ad bd 3e 8a 8f 3d 66 b9 21 3e 2d aa 88 be
       -0.084760375 0.070087895 0.1579338 -0.26692334
0003b0 d8 b2 d0 bd b4 55 6b bd 97 cf 00 3e 71 57 4a 3e
       -0.10190362 -0.05745478 0.12579189 0.19759919
0003c0 b9 d9 98 bd 9c 42 3c be de 09 7d bb 2a 19 49 3e
       -0.07463402 -0.18384784 -0.0038610618 0.19638506
0003d0 8e cc 56 bd 0f ee e6 bd fd 1a 0d 3e 01 89 0c 3c
       -0.052441172 -0.11275875 0.13779826 0.008577586
0003e0 a8 57 a3 3d 56 bb dd 3c ef 32 63 3e b1 50 e2 3d
       0.079757035 0.027066868 0.22187398 0.11050547
0003f0 83 50 f8 3d 7c 87 04 3e 84 66 29 3e a7 76 f4 bc
       0.121247314 0.12942308 0.16543013 -0.029841734

0.bias f4 [64]
000000 23 87 5b be 65 5e 8a bd fd eb 6d be 01 4b d0 bd
       -0.2143827 -0.067562856 -0.23234554 -0.10170556
000010 10 a8 8f 3d 0c 7e 35 3e 3c ba a5 bd 7f 91 56 be
       0.07014477 0.17723864 -0.08092162 -0.2095394
000020 e2 84 1b be 9a e3 52 be 1a e6 48 bc 70 c3 3f be
       -0.1518741 -0.20594636 -0.012261892 -0.18726897
000030 22 4a c8 bd 8f c1 e6 bd 2f d4 07 be 5a 1b 52 be
       -0.09779765 -0.11267387 -0.13264535 -0.20518246
000040 00 97 a2 bc 6d 0e db bd f4 9d 20 be 6a 31 ed bd
       -0.019847393 -0.10696111 -0.15685254 -0.115816906
000050 f7 be b0 be a5 78 aa bc d3 cc 86 bd d1 95 ef bd
       -0.34520695 -0.02080948 -0.06582036 -0.11698497
000060 b6 56 6c bd 46 c7 7a bd c1 6d 15 be 3d 7b 75 be
       -0.05769988 -0.0612252 -0.14592649 -0.23972793
000070 a3 da 1b be d7 14 6f be e1 71 7f be de af 8d bd
       -0.15220122 -0.23347794 -0.24945785 -0.0691831
000080 e4 58 ea 3d 81 7b 84 be c5 ae 9b bd 9c 6f d8 bd
       0.11442736 -0.25875476 -0.07601694 -0.10568163
000090 2b bd 0a 3e f1 d9 95 3d bb 74 84 3c 70 c2 27 bb
       0.13548724 0.0731696 0.016168943 -0.0025598072
0000a0 60 97 89 be 29 f7 e3 bd 09 ac 96 bd 4f e8 73 be
       -0.26873302 -0.111311264 -0.07357032 -0.23819087
0000b0 be a8 d0 bd 83 42 2a bd 10 30 06 be 48 c8 73 be
       -0.10188435 -0.041567337 -0.13104272 -0.2380687
0000c0 03 e6 02 bc 1c d6 62 be a7 33 d5 bc 71 9a 14 3d
       -0.007989409 -0.22151989 -0.026025606 0.0362801
0000d0 68 99 10 be e8 f7 75 bd b6 a5 a8 bd 46 f2 fc bc
       -0.1412102 -0.060050875 -0.08234732 -0.030877244
0000e0 84 dd 2b be 60 b0 bf 3d 88 cd 81 be e3 8b 4c bc
       -0.1678372 0.09359813 -0.2535212 -0.0124845235
0000f0 6b 4e e8 bc c4 57 2d be 72 a8 c5 bd fa b4 51 be
       -0.028357705 -0.16928011 -0.09651269 -0.20479193

4.weight f4 [128, 64, 5, 5]
000000 6f d7 1a bd b3 de 74 3c 58 13 31 bd 4b fb d6 3c
       -0.03780311 0.014945674 -0.04323134 0.026242873
000010 6c 1b 4e bd 83 7d f7 3c b0 ff 3f 3d 3e f8 1a ba
       -0.05031912 0.030211216 0.046874702 -0.0005911625
000020 4c e5 31 bc 87 e0 92 3c 47 21 d1 bc 65 1c c5 bb
       -0.010857891 0.017929329 -0.025528563 -0.006015348
000030 63 18 05 3d a0 ac a6 bc d9 d0 1f bd f3 b0 11 3c
       0.03249396 -0.020345986 -0.039017532 0.008892286
000040 43 e2 8c 3c 33 5c 87 3c 96 40 98 bd c7 e7 64 bd
       0.017197734 0.016523456 -0.07434194 -0.055885103
000050 7f 60 81 3c 24 08 af 3d 1c 50 bb 3c 53 51 cf bd
       0.015793083 0.085464746 0.022865348 -0.10122933
000060 df 1d 05 bd ca 6c 81 3d 4e f2 20 bc 67 96 7b bb
       -0.03249919 0.06319578 -0.009823395 -0.0038389207
000070 c5 bf 62 ba 42 a4 a8 bd 7e 55 6e 3d 8a e2 0f 3d
       -0.00086497917 -0.08234455 0.058187 0.035128154
000080 47 03 3c 3d e4 85 25 bc 6b 51 3f bd a1 6b a3 3c
       0.045901563 -0.010102723 -0.046708506 0.019948782
000090 1e 1f b6 3c c6 a6 b3 bb 1f 69 10 bd ae ae 56 bb
       0.022231635 -0.0054825274 -0.0352565 -0.0032757926
0000a0 f4 07 cb bd 1b 8c c2 bd 01 92 51 bd 4a 97 04 be
       -0.09913626 -0.09499379 -0.05116463 -0.12948337
0000b0 e5 47 c1 bd 55 dc bd 3a 2b a9 5b 3d 7b 1b 7e bd
       -0.09437541 0.001448522 0.053628128 -0.062037926
0000c0 c5 6c 77 bd 82 11 b0 3b d6 d2 91 3c 37 c4 ca 3c
       -0.060406465 0.005373181 0.01780073 0.024751766
0000d0 84 f6 03 3d 04 11 55 3c c2 ce a6 3d da 6f fa bc
       0.032217517 0.013004545 0.08144905 -0.030570913
0000e0 8b 11 97 bd fa a6 13 bd 15 84 78 3c ad e7 88 3c
       -0.07376393 -0.036047913 0.01516821 0.016712034
0000f0 1a 66 ea 3c 27 f2 84 3d 38 e6 1e 3d ee 6a 84 3d
       0.028613139 0.064914994 0.038793772 0.06465708
000100 c7 da 58 3c 06 2b 52 bd e2 56 6d bb ba 92 83 bd
       0.013235754 -0.05131056 -0.0036215116 -0.0642447
000110 8a 1c 50 3d 58 73 66 bd 2c 51 a0 bd 49 b7 2a bd
       0.050808467 -0.056262344 -0.07827982 -0.0416787
000120 3e 63 8c 3d a1 ae df 3d d5 db ee bc e9 01 52 bd
       0.068548664 0.1092198 -0.029157558 -0.051271353
000130 98 9c a8 bc da 01 a1 bd d2 04 59 3d 4c be ee 3d
       -0.020582482 -0.07861681 0.052983113 0.1165739
000140 0f 3a d9 bd 40 79 64 bd 9c f6 71 bd 01 17 d1 3c
       -0.10606777 -0.055779696 -0.059073076 0.025523664
000150 6b 8e 08 3c 2b 2a 14 bd 5b cc ad 3d 08 78 3e 3d
       0.008334736 -0.036173027 0.08486243 0.04650119
000160 6b 63 ef bb ef 32 c5 3c 42 b9 7c 3c d9 d7 22 3c
       -0.0073055527 0.024072139 0.015425028 0.009939157
000170 f4 6e 0b 3c c9 ac 3a 3c 4b 7c 93 3d d5 df bb 3b
       0.00851034 0.011393734 0.072014414 0.00573347
000180 17 e0 f3 bc 77 87 f1 3c 64 c3 bf bd fe a8 60 bd
       -0.02976994 0.02948354 -0.0936344 -0.054848664
000190 fc 76 c7 bc e1 7a 02 be 62 2f dd bd 43 ea 01 be
       -0.024348728 -0.12742187 -0.10800053 -0.1268702
0001a0 e2 b6 1a 3c f4 97 8e bd 6f ab 04 be 0e 1f c4 bd
       0.009443017 -0.069625765 -0.12956022 -0.09576236
0001b0 4e 7a 88 bd 63 a0 b9 3d 5a ec 1a 3e cc 7e ee 3b
       -0.06663953 0.090637945 0.15129223 0.007278299
0001c0 b0 03 e6 3d 91 29 9a 3c 23 2d ae bd a5 68 d5 bc
       0.11231172 0.018818649 -0.08504703 -0.026050875
0001d0 d0 69 78 bc a2 45 72 bd df b3 03 3d fc 83 b7 3d
       -0.015161946 -0.05914844 0.03215396 0.08960721
0001e0 d4 d5 e3 bd dc 9d 4e be 2f da 0e be 22 67 41 bd
       -0.11124769 -0.20177406 -0.13950418 -0.047217496
0001f0 a1 8e ac 3d 58 18 63 3d 77 ce 35 3d 9a f6 ae bd
       0.08425642 0.055443138 0.044386353 -0.08543129
000200 94 ec 66 bd bb 33 1f 3d 56 67 4e bd 05 0a e9 bd
       -0.056377962 0.038867693 -0.050391518 -0.11378864
000210 93 e2 f3 bd b9 fc aa bd 88 1c 8c bd 59 dc 75 bd
       -0.1190845 -0.08348984 -0.068413794 -0.060024593
000220 1a d6 fe bc b1 53 b8 bc 7c db d5 3a 93 8f 0b bd
       -0.031107951 -0.022500845 0.0016316022 -0.03407247
000230 96 57 05 3d 45 7e 13 3d be 40 98 bd ad a5 3d 3c
       0.03255423 0.036009092 -0.074342236 0.011575145
000240 f3 13 37 3d 0f d4 9b ba 9e ac 1b be 85 46 ed bd
       0.04469676 -0.001188876 -0.15202567 -0.11585716
000250 b0 19 a6 bb e9 7b e5 3d 3d 8c 10 3d 38 8c 1d 3b
       -0.00506898 0.112052746 0.03528999 0.0024039876
000260 2c 3e cc bc 98 d6 36 3c 3f 83 80 3d 73 77 8c 3c
       -0.02493199 0.011159562 0.06275033 0.017146802
000270 99 b7 ed bc b6 b9 7a 3b 77 3b 8a bd a7 cb 1e 3c
       -0.02901821 0.0038257665 -0.06749623 0.009692109
000280 bc cd 4c 3d c9 f5 15 3d af d6 02 3d 19 c5 6a bc
       0.05000089 0.036611352 0.03194302 -0.014329218
000290 d9 17 ef bd b9 08 90 bd 09 f6 39 bd e6 58 8a bd
       -0.116744705 -0.07032914 -0.045400653 -0.06755237
0002a0 16 8e 3b be 5b a3 0b be e8 60 09 3d d3 79 f1 3c
       -0.1831592 -0.13636534 0.033539683 0.029477036
0002b0 a0 a0 6c bd ae 30 d8 3c 01 eb 1c 3d 54 59 ce 3b
       -0.05777037 0.0263904 0.038310055 0.00629727
0002c0 d1 29 e5 3a 26 63 40 3c 95 5c 9f 3d 44 d5 81 3b
       0.0017483776 0.011742389 0.077813305 0.003962191
0002d0 f9 fd dd bb 12 6f 3e 3c 38 49 6d bd f7 83 11 3c
       -0.0067746607 0.011623161 -0.057931155 0.0088815605
0002e0 d6 7d f1 3c 8e 80 b6 bc 4a 03 cb 3a 45 d7 85 bc
       0.029478949 -0.022278097 0.0015488651 -0.016338
0002f0 be f9 b1 bb ba 01 d7 3c 8b cc fc 3c a8 ad 59 bc
       -0.005431383 0.02624594 0.030859252 -0.013286032
000300 a0 d6 67 3d 43 7d 35 3d 32 2e 0c 3d 24 94 0e bc
       0.056601167 0.044308912 0.034223743 -0.008702312
000310 b2 7b 3c 3d 95 47 73 3d 16 5c 39 bd 50 57 89 bd
       0.046016403 0.059394438 -0.045253836 -0.06706107
000320 87 56 e1 3b 49 d9 fb bc 4a 3c d7 bc f5 2d 28 3d
       0.00687677 -0.030743258 -0.026273865 0.041059453
000330 8e 2c b9 3d 64 d8 63 bd 32 e9 52 bd 7c 2f 0e bd
       0.09041701 -0.055626288 -0.051491924 -0.034713253
000340 d1 de df ba 21 fb b0 3c cc 77 3d 3d 3d 6c b7 3d
       -0.0017079954 0.021604123 0.046256825 0.08956192
000350 38 b0 bb 3c 45 32 9e 3c 6a 43 91 bb 19 da 6b bd
       0.022911176 0.01931108 -0.004433085 -0.05758104
000360 a2 0a d2 bc 0f 9b c4 bc 8f 78 2d bd 07 94 9d bc
       -0.025639836 -0.023999719 -0.0423513 -0.019235624
000370 11 72 4e 3c 6a a5 02 bd 7a 57 74 3d 77 5c 73 3d
       0.012600438 -0.031896032 0.059653737 0.059414353
000380 04 0c 77 3d 53 d8 13 3c 13 d3 8f 3c 26 09 9c 3c
       0.060314193 0.009023744 0.017556703 0.019047331
000390 8d 78 dd bc 20 8b b1 bd 10 38 ad 3d 58 19 a6 3d
       -0.027035022 -0.08669114 0.08457959 0.08110303
0003a0 e7 b8 d2 bc ba 99 34 3c 80 86 10 bd 09 59 15 3d
       -0.025722934 0.011022979 -0.03528452 0.036461864
0003b0 12 e5 aa bc 0c 29 34 bd 74 a4 c0 bd 36 73 c9 bd
       -0.020861182 -0.043984458 -0.09406367 -0.09836428
0003c0 54 55 ef bc eb 24 01 bc 3f d7 e3 bc 1f ba de bd
       -0.029215492 -0.007882337 -0.027812598 -0.108753435
0003d0 08 7b 78 bd 64 56 18 3d 54 a3 01 3b 8b 13 09 bc
       -0.060664207 0.037191764 0.001978119 -0.008366476
0003e0 ef 2f d3 bd 01 da b2 bd 85 9b b8 bd 96 e0 28 bc
       -0.10311877 -0.08732987 -0.09014038 -0.010307452
0003f0 95 bf 1a bd 2d ad 27 bd 82 24 03 3c 2a f5 07 be
       -0.037780363 -0.040936638 0.00800431 -0.13277116

4.bias f4 [128]
000000 ad dd ab bd 14 4a b6 bc ca 5b 89 bc 33 ff 4d bd
       -0.08391891 -0.02225212 -0.016767401 -0.050292205
000010 37 4b db bd 13 65 eb bd 42 90 70 bd b1 03 27 bd
       -0.107077055 -0.11493888 -0.058731325 -0.040775005
000020 87 16 93 bd d9 84 d5 bd 64 d2 ab bd 4b f1 bc bd
       -0.07182031 -0.10425729 -0.08389738 -0.092257105
000030 81 db cb bd a9 1c 3b bd b8 07 12 bd 83 d0 ad bd
       -0.099539764 -0.04568163 -0.035651892 -0.08487036
000040 c0 78 77 bd 50 9c 00 be ca c2 78 3a a0 3e 4a bd
       -0.06041789 -0.12559628 0.0009489475 -0.04937613
000050 14 ee 92 bd fc a6 ab bd 31 cc 65 bd 66 41 31 bd
       -0.07174316 -0.08381459 -0.056102935 -0.04327526
000060 0a a2 3c bd ed a5 88 bd 89 de bd bb 31 e0 b2 bd
       -0.04605297 -0.06672273 -0.0057943505 -0.08734167
000070 f1 25 db bd 0e a5 74 bd 50 b2 c9 bd 3f 49 9b bd
       -0.10700596 -0.05972772 -0.098484635 -0.0758233
000080 4a e8 d2 bd 22 14 6f bd e6 2b 05 be 80 fa 8b bd
       -0.10298212 -0.05836881 -0.13005027 -0.068348885
000090 c1 72 a2 bd 72 b9 45 bd 77 38 b5 bd 1c bd 15 bd
       -0.07932044 -0.048272558 -0.088486604 -0.036557302
0000a0 87 4f 95 bd 53 38 87 bd 58 1e d2 bd 92 a2 0c be
       -0.07290559 -0.0660254 -0.10259694 -0.1373389
0000b0 90 a6 88 bd 84 a3 2e bd de 48 8d bd 9c 7a 73 bd
       -0.06672394 -0.04263641 -0.06898664 -0.0594431
0000c0 30 05 83 bd df 6b 93 bd 5a 00 b4 bd 5e f7 67 bd
       -0.06397474 -0.07198309 -0.087891296 -0.056632392
0000d0 fd 29 db bd 2a d1 75 bd f4 e3 e6 bd 0f 9c 7e bd
       -0.10701368 -0.060013928 -0.11273947 -0.062160548
0000e0 a0 56 77 bd 01 10 93 bd 62 36 df bd c6 7c 97 bd
       -0.060385346 -0.07180787 -0.108990446 -0.073968455
0000f0 87 cf 11 be 99 70 b2 bd f8 9e 73 bd 4a 9d d7 bd
       -0.14239322 -0.087128825 -0.059477776 -0.105280474
000100 d8 11 81 bd df 5b 46 bd 50 e9 db bd 5a 21 e4 bd
       -0.063022316 -0.04842746 -0.1073786 -0.11139174
000110 82 df cf bd 6f 5f 02 bd 0c 1e f8 bd 7a cd af bd
       -0.101500526 -0.031829294 -0.12115106 -0.085841134
000120 c2 53 d0 bd 1b 4a 9a bd 04 47 7f bd ea 86 85 bc
       -0.101722255 -0.07533666 -0.062323585 -0.016299684
000130 5a 48 77 bd b0 d1 5f bd e2 bd 83 bc d0 8c e1 bd
       -0.060371734 -0.054643333 -0.016081754 -0.11013186
000140 51 c8 89 bd 2d 0d d0 bc eb 14 bd bd 7f fc 8a bd
       -0.067276604 -0.025396908 -0.092325054 -0.06786441
000150 ee b3 64 bd 42 87 ae bd bf 79 cf bd 82 68 be bd
       -0.055835657 -0.08521892 -0.10130643 -0.09297277
000160 58 25 2a bd f2 d9 7d bd 48 c8 01 be eb d8 93 bd
       -0.04153952 -0.061975427 -0.12674057 -0.07219108
000170 ba 38 b3 bd cb 07 fe bc d9 29 08 be d0 68 86 bd
       -0.08751054 -0.031009575 -0.13297214 -0.0656296
000180 93 28 aa bd f3 23 ab bd ab 90 e7 bd 2c 55 ce bd
       -0.0830852 -0.08356466 -0.1130689 -0.10074839
000190 fe 5c 1c be dc 89 eb bd b3 ab 82 bd dc d1 63 bd
       -0.15269849 -0.11500904 -0.06380405 -0.05562006
0001a0 d7 5c 41 bd b6 47 09 bd 2d 0c c5 bd d9 38 ad bd
       -0.04720768 -0.033515655 -0.09621463 -0.084581085
0001b0 ea 57 b8 bd 5b 9c 71 bb 03 85 2e bd 9b 36 aa bd
       -0.09001143 -0.0036866877 -0.04260732 -0.083111964
0001c0 a1 47 c9 bc 87 e2 04 bd cb 5d 13 be 72 41 8f bd
       -0.024570288 -0.032442596 -0.14391248 -0.069949046
0001d0 cd 9a 2a bd e8 65 48 bd 8d c0 ad bd af 56 a9 bd
       -0.041651536 -0.04892531 -0.08483992 -0.08268487
0001e0 12 97 ae bd 9e 9b e4 bd db 8c 29 bd 46 26 7d ba
       -0.08524908 -0.11162494 -0.041394096 -0.0009656887
0001f0 5c 00 75 bd 92 23 b7 bd f4 04 0f be 4a 41 03 be
       -0.059814796 -0.089423314 -0.13966733 -0.12817875

9.weight f4 [10, 1152]
000000 c8 c4 d0 3c d5 70 99 bc 60 69 2c bd a8 ed be 3d
       0.025484458 -0.01873056 -0.04209268 0.09322673
000010 74 fb 9d bc ad 43 a0 3c ef 8e b0 3c 9f 01 63 bd
       -0.019284941 0.01956352 0.021552531 -0.055421468
000020 d6 88 fe 3c 66 3c 6a bd 4b d0 80 3d aa 8f ab 3d
       0.031071108 -0.057186507 0.06289729 0.08377011
000030 13 bc aa 3c 17 6c 32 3d a1 e0 b2 3d 8d 02 57 bd
       0.020841634 0.043560114 0.08734251 -0.052492667
000040 cc f9 a9 bb 4c e4 48 be 14 24 fc ba 57 12 64 3c
       -0.005187249 -0.19618338 -0.0019236826 0.013920388
000050 35 9f 8b 3b 9a 9e ba bc 99 67 22 3c 0b 7f 46 3c
       0.0042609223 -0.022780705 0.009912395 0.01211525
000060 85 9a 36 bb 6a 5e 6b 3c a2 c3 51 3a 68 2a 77 3d
       -0.0027863097 0.014365772 0.0008001869 0.060343176
000070 ac 6f a5 bc 64 94 6d 3d aa 00 b5 3c ff 0a 1f bc
       -0.02019485 0.058002844 0.022095043 -0.0097072115
000080 8f 27 b6 bd e3 11 85 bc 8c 3a 7b 3c 43 8c 08 3d
       -0.08894264 -0.01624388 0.015333783 0.03333689
000090 8a 83 41 3d 54 5c a6 3c 55 b9 69 3d 40 24 f7 bd
       0.047244586 0.020307697 0.057061512 -0.12067461
0000a0 98 18 05 be b6 ab cf bd 7d 61 02 bd 39 bd 9f 3c
       -0.12997663 -0.10140173 -0.031831253 0.019499408
0000b0 0f 19 7d 3d 83 9d b2 bd 6b 07 5c bd 37 bb 7a bd
       0.061791476 -0.08721449 -0.05371801 -0.0612137
0000c0 c5 a8 56 bd 2c 9d d6 bd be 07 4b bb 2b ec 32 bd
       -0.052407045 -0.10479197 -0.0030979957 -0.04368226
0000d0 39 c3 5b 3d 1c e5 37 3d d5 4d 1f bd a4 ef 81 3b
       0.053652976 0.04489623 -0.038892586 0.003965335
0000e0 3d 89 3a 3d 7c d3 33 3d 56 65 e9 bc 4d 72 ee 3d
       0.045541037 0.04390286 -0.028490704 0.11642895
0000f0 c5 80 5f bd fd 05 a3 bd f6 59 aa bd 50 f7 c2 bc
       -0.054566164 -0.079601265 -0.0831794 -0.023799568
000100 bb b6 5e bc ce 23 45 bd 95 ce e6 3c dc d2 db bd
       -0.013593371 -0.04812985 0.028174678 -0.107335776
000110 76 2a c6 bd 83 dd 98 bd 02 42 5b bc a2 99 83 bd
       -0.096760675 -0.07464125 -0.013382437 -0.064257875
000120 24 7c e8 bb a5 f7 18 3d 68 1f 28 3c 9b 87 40 3d
       -0.007094877 0.037345547 0.010261394 0.047004323
000130 e5 62 b3 bc df e7 9e bd 3e d6 a1 3c df b5 11 3d
       -0.021897743 -0.0775907 0.019755479 0.035573836
000140 21 c3 14 be 5d 2b 34 bd 1c 5e d6 3d 73 23 de 3b
       -0.14527561 -0.043986667 0.10467169 0.006779128
000150 f9 3d c3 bd fb e4 b0 3c f0 94 58 bb a9 20 cd 3c
       -0.09533305 0.021593561 -0.0033047758 0.025039988
000160 25 4c 6e bb b7 d1 ff bb 38 e9 35 bd 4d 7d c3 bd
       -0.0036361304 -0.0078069824 -0.044411868 -0.095453836
000170 78 bf 50 3d 4f 17 96 bc 4c 38 7d 3d a8 3d 63 3d
       0.05096385 -0.018321661 0.061821267 0.05547872
000180 60 41 58 3d e8 3f 8c bd 58 13 68 3d 76 3b 88 bd
       0.05279672 -0.06848127 0.056659073 -0.06651966
000190 4c 0f 0c 3c 3d 50 2f 3d a9 18 77 be 68 1d 78 3d
       0.008548569 0.04280113 -0.24130501 0.06057492
0001a0 f7 d0 30 be 2f 85 18 bc 9a 0a 36 3d ab 41 a8 bd
       -0.17267214 -0.009309097 0.044443704 -0.0821565
0001b0 09 b5 eb 3a 7e 38 05 3c d3 19 fd 3b 5e ff 4a bd
       0.001798303 0.008131145 0.0077240258 -0.049559943
0001c0 e7 52 5a 3d 0c fb 7d bd d3 5c 57 bc 89 7c b3 bd
       0.053301718 -0.062006995 -0.01314469 -0.087639876
0001d0 84 b3 c8 bd eb c7 0b bd 01 65 37 3d 7d 1e c1 3d
       -0.09799865 -0.034126204 0.04477406 0.09429643
0001e0 88 17 7f 3d c5 1b d5 bd 86 6f 07 be 99 5e 51 3c
       0.0622783 -0.10405687 -0.13226137 0.0127789015
0001f0 c0 d0 ac 3d d9 a8 dd 3c 3a cf 73 bb 92 b5 5e bd
       0.084382534 0.027058052 -0.0037202374 -0.054372378
000200 6c 64 dd bc ef 66 d5 3d 03 37 47 3d cc ff a6 bd
       -0.027025424 0.10420024 0.048636448 -0.08154258
000210 7b df d7 3d c8 31 2e bd 8e 58 df bd 9f f9 5a 3b
       0.105406724 -0.042527944 -0.10905562 0.0033412946
000220 2e 87 2c 3c 19 c1 e9 3b 69 99 6d 3d cf ac f1 bd
       0.010530276 0.0071336147 0.05800763 -0.11800539
000230 1a 06 df bd 3d 43 06 3e 57 93 22 3e e1 a7 f0 3d
       -0.10889836 0.13111587 0.15876518 0.1175077
000240 c3 a5 71 bd 75 20 3d 3c 9a 27 57 ba 2a 04 f1 3b
       -0.058995973 0.011543383 -0.00082075 0.0073552327
000250 d3 2b 24 3d 2d 48 65 3d d1 ce 53 3c 24 90 ed 3d
       0.040080857 0.055977035 0.012927727 0.11599758
000260 da 90 64 be 78 9a 49 bb 7a 05 89 3b 23 50 20 3d
       -0.22320881 -0.0030762237 0.004181561 0.039138924
000270 01 be 96 39 1e dd 7f bd 78 4a 18 3d e5 38 4a 3c
       0.00028751793 -0.062466733 0.037180394 0.012342666
000280 9c 0e 5f bd 45 e1 51 bd 09 a6 3b 3d 0a b3 45 bd
       -0.054457292 -0.051240224 0.04581264 -0.048266448
000290 31 57 ef 3b 43 a0 bf 3d ea 5f 44 3d 38 e6 2e 3d
       0.007304095 0.09356739 0.047943033 0.042700022
0002a0 5c 8b 27 bc 76 2b 28 be c6 2b 0d bc 10 78 84 bd
       -0.010226097 -0.16422829 -0.008616393 -0.064682126
0002b0 9d 11 ae bc 4f 78 25 3d 34 e4 94 bc 63 d7 bf bd
       -0.021248633 0.04039794 -0.018175222 -0.09367254
0002c0 38 71 16 bd dd f4 e8 bc 74 0a 21 3c bb bf 04 be
       -0.036729068 -0.028437072 0.009829152 -0.12963764
0002d0 9b 92 31 bd 2b 33 e4 3a b0 0e ff bc 77 b5 8c 3c
       -0.043352704 0.0017410269 -0.031134933 0.017176373
0002e0 3d da 2b be 99 40 09 3d d2 cb 90 bc ab d1 40 be
       -0.1678247 0.03350887 -0.017675314 -0.18829982
0002f0 e5 63 f7 3c 47 4d 54 3d 95 6d 53 3b 94 db 20 3d
       0.030199 0.05183151 0.003226136 0.039271906
000300 6f 69 43 bd a6 96 37 3d 63 7a 42 bd 97 ce 82 bd
       -0.04770797 0.044821404 -0.04748 -0.0638706
000310 a8 52 5e 3d f6 4c b3 3d 06 22 0b be ed fb e9 3c
       0.054278046 0.087549135 -0.13587198 0.02856251
000320 11 be 23 bb f8 68 b1 bd 4c 8c fa bc e7 68 37 3d
       -0.0024985115 -0.08662599 -0.030584477 0.044777777
000330 6f 33 92 3d a6 66 92 3d 64 fe 1e 3d 7e 01 06 3d
       0.071387164 0.07148485 0.038816825 0.032716267
000340 22 4a 12 bd 24 63 74 bd e1 6b 25 3d 82 72 e3 3c
       -0.03571523 -0.05966486 0.040386084 0.027764563
000350 d2 0c eb 39 4b 0c d7 bc d9 fe d8 3b 16 64 90 3d
       0.00044832245 -0.026250979 0.006622177 0.0705034
000360 d3 82 ad 3c 91 90 63 bd 98 8a 12 3e cd 25 8e bd
       0.021180546 -0.05555779 0.14310682 -0.06940804
000370 39 17 f7 3c 11 52 90 bd c7 1b 33 bd 31 9c f9 bb
       0.03016244 -0.07046903 -0.043727662 -0.0076174964
000380 8a a8 9b 3c 26 0a 05 bc 69 37 01 3c 64 5d 18 bd
       0.019001264 -0.008120095 0.007886746 -0.03719844
000390 db 03 51 3d ae b3 00 bd 87 68 87 3c e8 94 7c 3c
       0.051029067 -0.031421356 0.016529335 0.015416361
0003a0 3c af 66 bd 64 78 a0 3d e4 b6 17 bd 39 4f 94 3d
       -0.05631946 0.07835463 -0.037039652 0.07241673
0003b0 b1 00 b4 bd 7b 8d cc 3c 8a 8e e7 3d 1e d1 28 3d
       -0.087891944 0.024969807 0.11306484 0.041215055
0003c0 ef 57 34 3d 35 65 ef ba 36 06 7c 3d 99 5d f3 bd
       0.044029173 -0.0018264415 0.06152936 -0.11883087
0003d0 0c 6f 74 3d ac 65 de 3d 3b 56 86 bc d2 ef 12 bd
       0.059676215 0.10859236 -0.01639854 -0.03587324
0003e0 13 cb 39 3a 85 93 8a bd 61 2e b2 bc 5a 8a ba bc
       0.00070874504 -0.06766418 -0.02175063 -0.02277105
0003f0 6d c9 a7 bd 99 7d d7 bd a4 87 8e bd 3e 71 8d bd
       -0.08192716 -0.10522003 -0.06959465 -0.06906365

9.bias f4 [10]
000000 02 f1 52 bc 85 14 4d 3c af 0d 8e bd f0 85 14 3d
       -0.012874844 0.012517099 -0.06936204 0.036260545
000010 cc c9 c4 bb b0 63 84 bc 7f 2c 49 bd a1 a2 5d 3b
       -0.0060055014 -0.016160816 -0.0491147 0.0033818858
000020 3e 7c f9 3c ba 4f 90 bc
       0.030454751 -0.017616142
