miniprojekty-vyplnene/results/model2_jmena_rnn_20250623235338.pth (torch, 175797 bytes, 6 tensors)

i2h.weight f4 [128, 103]
0	0x3de58dbe	0.11208676
1	0x3d4a5f98	0.04940757
2	0xbc9de7f6	-0.019275647
3	0xbdac066d	-0.08399663
4	0x3cee11a9	0.029061155
5	0x3d38ee41	0.04514909
6	0x3cf35c9b	0.029707244
7	0xbdca76a0	-0.09885907
8	0xbd0a8e54	-0.03382714
9	0xbcda288d	-0.026630664
10	0xbda34b27	-0.079733185
11	0xbd832b38	-0.06404728
12	0xbdc91fca	-0.098205164
13	0xbdc1795d	-0.09446976
14	0xbd7c315c	-0.06157051
15	0xbd8a933c	-0.06766364
16	0x3d6dcf81	0.05805922
17	0xbd82fe2a	-0.06396134
18	0xbd347cce	-0.044064336
19	0xbdcee489	-0.10102183
20	0x3d1584d3	0.036503624
21	0x3da1c5f1	0.078990825
22	0x3c84cfa7	0.016212298
23	0xbd83c5f8	-0.06434244
24	0xbcfabff2	-0.030609105
25	0xbd073a4d	-0.033014584
26	0x3d87db5a	0.06633635
27	0x3d95d06a	0.073151425
28	0xbd8eb94b	-0.069689356
29	0xbd45b21e	-0.04826557
30	0x3d125cdf	0.0357331
31	0xbd43648e	-0.04770332
32	0x3c752177	0.014961592
33	0x3d041375	0.03224512
34	0x3ddd27d4	0.10798612
35	0x3d0ed27b	0.0348687
36	0xbdd04b4a	-0.1017061
37	0xbb8ec085	-0.004356446
38	0xbddb7ed9	-0.10717554
39	0x3e122388	0.14271367
40	0x3d9b3abd	0.07579563
41	0xbd6e2115	-0.05813702
42	0xbd1d5934	-0.03841515
43	0xbd4f19b5	-0.050561626
44	0xbde93f75	-0.113890566
45	0x3d6b309e	0.05741941
46	0x3db93555	0.090433754
47	0xbd8a0c8b	-0.06740674
48	0xbd8ab5f2	-0.067729846
49	0x3d9dfcbb	0.0771422
50	0x3cad3792	0.021144662
51	0x3ccb5446	0.024820458
52	0x3d50f5d7	0.0510157
53	0xbc6023f9	-0.013680452
54	0x3d19bfcd	0.03753643
55	0x3cb29d1a	0.021803427
56	0x3c01f588	0.007932074
57	0xbcbb9aa3	-0.022900885
58	0xbdae62c6	-0.08514933
59	0x3de75fe5	0.11297587
60	0x3c80b629	0.01571186
61	0xbd36802f	-0.04455584
62	0x3dc67360	0.09689975
63	0xbdc559b1	-0.09636248
64	0x3d988747	0.07447677
65	0x3d973ec0	0.073850155
66	0xbd3b8d63	-0.045789134
67	0xbcb3d38d	-0.021951461
68	0x3c210250	0.0098272115
69	0x3dab7f50	0.08373892
70	0xba8136e9	-0.0009858283
71	0x3c980e71	0.018561574
72	0xbdbf10ee	-0.09329401
73	0xbdb22fe3	-0.0870054
74	0x3dd4e7ac	0.103957504
75	0x3d87fc22	0.066398874
76	0xbc888c50	-0.016668469
77	0xbc5426c2	-0.012948694
78	0xbcaed9e7	-0.021344138
79	0xbdbac464	-0.0911949
80	0x3d987662	0.07444455
81	0xbb3cc3cc	-0.0028803227
82	0xbc6c71e3	-0.01443145
83	0x3d4eb180	0.050462246
84	0xbc92b401	-0.017908098
85	0xbb57e632	-0.0032943604
86	0xbd7af4f9	-0.06126878
87	0xbd79e78b	-0.061011832
88	0x3da8e22a	0.08246262
89	0xbdc39694	-0.09550205
90	0x3b88bf6d	0.0041732104
91	0xbd076036	-0.03305074
92	0x3d2933c8	0.041309148
93	0x3d114968	0.035470396
94	0x3dc24bcc	0.09487113
95	0xbd04c9c0	-0.032418966
96	0x3b3be051	0.0028667639
97	0x3abf9224	0.0014615697
98	0xbd6d1275	-0.05787893
99	0x3d9e6226	0.07733564
100	0xbdb82ded	-0.08993135
101	0x3d257204	0.040391937
102	0xbd6546d3	-0.055975746
103	0xbd796bec	-0.060893938
104	0xbd97b1b5	-0.07406942
105	0x3db0153b	0.085977994
106	0xbd9a00b7	-0.075196676
107	0x3dc4a443	0.09601643
108	0xbd8cd9a3	-0.068774484
109	0xbd6d58a0	-0.057945848
110	0xbd8b4821	-0.06800867
111	0x3d1f12be	0.038836233
112	0x3c19aa70	0.009379014
113	0xbdba5629	-0.09098465
114	0x3dceaf0c	0.10091981
115	0xbdaa1f92	-0.08306803
116	0x3cd28899	0.0256999
117	0xbb1c24bf	-0.0023825613
118	0xbdd4ff8c	-0.10400304
119	0xbd81a1bf	-0.06329679
120	0xbd92e97b	-0.07173439
121	0xbdb7ff15	-0.089842
122	0x3d8988e6	0.067155644
123	0x3d131b20	0.03591454
124	0xbd036c8c	-0.03208594
125	0xbd0b6f04	-0.03404142
126	0xbd8e1663	-0.06937864
127	0xbcddb099	-0.027061747
128	0xbd91fe8a	-0.071286276
129	0xbd9970a0	-0.07492185
130	0x3b5ba987	0.0033517794
131	0x3d379123	0.044816148
132	0x3df4e15e	0.11957048
133	0x3dce0faf	0.10061585
134	0xbdb44625	-0.088024415
135	0x3d5a34d2	0.05327303
136	0xbb682330	-0.0035421364
137	0xbdc90c47	-0.09816795
138	0xbda39344	-0.07987073
139	0x3d8d900c	0.069122404
140	0x3df2da08	0.118579924
141	0x3d56182a	0.05226914
142	0xbe35dea0	-0.17760706
143	0x3ce53dc5	0.027983556
144	0xbd503b33	-0.050837707
145	0x3c8f4137	0.017487152
146	0x3dab8524	0.08375004
147	0xbd9c819d	-0.07641909
148	0x3c454cf0	0.012042269
149	0xbd3de31f	-0.046359178
150	0xbd48b6ce	-0.04900246
151	0xbda084d3	-0.07837834
152	0x3cbb2234	0.022843458
153	0x3c86044d	0.016359473
154	0x3d4eb8a6	0.050469063
155	0xbd09dcaf	-0.033657726
156	0xbd29c7be	-0.041450255
157	0xbd436317	-0.04770192
158	0x3d2de548	0.042454988
159	0x3db646ef	0.08900248
160	0x3bbe6abf	0.005811065
161	0xbda96448	-0.0827108
162	0x3d09c6e4	0.033636943
163	0xbcce7445	-0.025201926
164	0xbd4770fd	-0.04869174
165	0xbc7235f9	-0.014783376
166	0x3d6ca7d8	0.057777256
167	0xbd4c89f3	-0.049936246
168	0x3db58650	0.08863509
169	0xbd16509a	-0.03669796
170	0x3d1146ec	0.035468027
171	0xbd330742	-0.043708093
172	0x3d930201	0.071781166
173	0x3dbd3a06	0.09239583
174	0xbbb8b1e2	-0.0056364397
175	0xbc9b2150	-0.018936783
176	0x3d88f6c8	0.06687695
177	0xbc2286a8	-0.0099198
178	0x3dc90eb9	0.09817261
179	0xbc49e7d2	-0.012323337
180	0xbdaeff8b	-0.08544835
181	0xbc48ed47	-0.012263603
182	0x3c1620ef	0.009163125
183	0x3c7b60d0	0.015342906
184	0x3d061118	0.032731146
185	0x3a71c0a2	0.0009222125
186	0x3d9924d1	0.07477725
187	0xbd3d3720	-0.04619515
188	0x3bee21ca	0.0072672116
189	0x3dc37a81	0.0954485
190	0xbd556426	-0.052097462
191	0xbd2f80cc	-0.04284744
192	0x3d369c46	0.044582628
193	0x3db5444e	0.08850919
194	0x3c915414	0.017740287
195	0x3c4e4286	0.012589103
196	0x3d82c41d	0.06385062
197	0x3d1cc18e	0.038270526
198	0x3c232fc7	0.0099601215
199	0x3dbe87b2	0.093032256
200	0x3db796c9	0.08964307
201	0x3b2b3410	0.002612356
202	0xbd088f9c	-0.03334008
203	0x3da4ea1f	0.080524676
204	0xbd14b3ed	-0.036304403
205	0xbc921b38	-0.017835245
206	0xbe9147f4	-0.28375208
207	0x3d3c2ce3	0.045941245
208	0x3d4c754b	0.049916547
209	0xbc331ee9	-0.0109326625
210	0xbd6c23ff	-0.057651516
211	0xbd8592b4	-0.06522122
212	0xbd9e398d	-0.07725821
213	0x3dd97191	0.10617364
214	0xbd0df01a	-0.034652807
215	0x3cc45a60	0.023968875
216	0xbd3bf422	-0.04588712
217	0x3d282890	0.04105431
218	0x3df2deee	0.11858927
219	0x3c8b7001	0.017021181
220	0x3c99b5c1	0.018763425
221	0x3b840558	0.0040289573
222	0x3dab8768	0.08375436
223	0x3e3534e6	0.1769596
224	0xbbb61c2f	-0.005557559
225	0x3db6ea40	0.089313984
226	0xbdcfec67	-0.10152512
227	0x3dadd42d	0.08487735
228	0x3d02e145	0.031953115
229	0x3dcda2e0	0.100408316
230	0x3dc3ac77	0.095543794
231	0x3da85322	0.08218981
232	0xbe1c165b	-0.15242903
233	0x3dfea742	0.12434246
234	0x3dfb4f52	0.122709885
235	0x3d9d7eef	0.07690226
236	0xbe37d271	-0.17951371
237	0x3d190f3f	0.037368055
238	0x3dd8a8f4	0.105791
239	0x3e4fdcb3	0.20299034
240	0xbdeb6cf3	-0.1149539
241	0x3e07e95a	0.1327261
242	0x3e3ef74a	0.18649021
243	0x3e280529	0.16408218
244	0x3dfa49e9	0.122211285
245	0x3dbf46b7	0.0933966
246	0xbe6b1b27	-0.22959577
247	0xbdbbf566	-0.091776654
248	0x3da28ebd	0.079373814
249	0xbc340205	-0.01098681
250	0x3cc1f51c	0.023676448
251	0x3e0c9489	0.13728537
252	0xbe4e46d3	-0.20144205
253	0x3e4b4541	0.19850637
254	0xbce40241	-0.027833106
255	0xbd3a30d5	-0.045456726

i2h.bias f4 [128]
0	0x3e7ce531	0.24696805
1	0xbde11e72	-0.10992135
2	0x3edd6221	0.4323893
3	0xbd1d3682	-0.03838206
4	0x3d06ba58	0.032892555
5	0xbe00bc83	-0.12571912
6	0x3eae34dd	0.34024706
7	0x3c4bd35a	0.012440527
8	0x3dd0c5c6	0.10193972
9	0xbd515dc2	-0.051114805
10	0xbe2c06e1	-0.16799499
11	0x3d9752ca	0.07388838
12	0x3e8ae677	0.27128956
13	0xbe7dadff	-0.24773405
14	0xbe25b48e	-0.16182157
15	0xbd98c815	-0.074600376
16	0x3d26d62a	0.040731587
17	0xbdf19b5e	-0.11797212
18	0x3e81b2f7	0.25331852
19	0x3e38697e	0.18008992
20	0x3e124f72	0.14288118
21	0xbcafe15b	-0.021469763
22	0xbe2cd0e9	-0.16876568
23	0x3e28603b	0.16442959
24	0xbe98d4d1	-0.29849866
25	0xbb8084d7	-0.0039220857
26	0xbc84f5a4	-0.016230412
27	0x3e219227	0.15778409
28	0xbd376359	-0.04477248
29	0x3e2457e9	0.1604916
30	0xbea70b96	-0.32626027
31	0xbe06373c	-0.13107008
32	0x3a791305	0.00095014303
33	0xbdb6ff48	-0.0893541
34	0x3d857ecd	0.06518326
35	0x3e9362b4	0.28786242
36	0xbe1670d5	-0.1469148
37	0xbd502055	-0.050812084
38	0xbe2b22fd	-0.16712566
39	0xbc328b2e	-0.010897441
40	0x3d08e47e	0.033421032
41	0x3cf2df2f	0.029647438
42	0x3e0c9568	0.13728869
43	0x3e484186	0.19556245
44	0x3e6119c4	0.21982485
45	0xbe2284c5	-0.1587096
46	0xbe30a619	-0.17250861
47	0xbe7d1e7c	-0.2471866
48	0x3cd67f6b	0.026183804
49	0x3e0bd826	0.13656673
50	0x3e55d221	0.20880939
51	0xbc1590b8	-0.009128742
52	0xbe47b707	-0.19503413
53	0xbdde3b78	-0.108511865
54	0xbd1e58e0	-0.038658977
55	0xbe31e46e	-0.17372295
56	0x3e2df193	0.16986685
57	0xbea4f9bb	-0.3222178
58	0xbab35c92	-0.0013684204
59	0xbe992133	-0.29908141
60	0x3cfbf2d5	0.03075544
61	0x3ebb6487	0.36600134
62	0x3e310f03	0.17290883
63	0x3ea47b67	0.321254
64	0x3e3c46c4	0.1838637
65	0xbd928a35	-0.07155267
66	0x3e263ff1	0.16235329
67	0x3c089da3	0.008338365
68	0x3d20c2e7	0.039248373
69	0xbd1a87c1	-0.03772712
70	0x3d22e6f1	0.039771024
71	0xbd8fb199	-0.07016296
72	0xbd3783cb	-0.044803422
73	0x3ea401e5	0.32032695
74	0x3ddea26a	0.10870822
75	0x3e21fe18	0.15819585
76	0xbd212f8b	-0.03935198
77	0x3d73c657	0.059515323
78	0xbe17211b	-0.14758722
79	0xbe4cf6bf	-0.20016001
80	0x3e936051	0.2878442
81	0x3e68f251	0.22748686
82	0x3e9a71f8	0.30165076
83	0x3caad7aa	0.02085479
84	0xbee8e23a	-0.45485097
85	0xbe46724c	-0.19379538
86	0x3e46cd7e	0.19414327
87	0x3dcfa9a3	0.101397775
88	0x3eadf5dd	0.3397664
89	0xbdbf4eb0	-0.0934118
90	0xbda940ad	-0.08264289
91	0xbd1438d3	-0.036187004
92	0xbe4d404c	-0.20044059
93	0xbedb1239	-0.4278734
94	0x3b749896	0.0037322394
95	0xbd99c666	-0.075085446
96	0x3e8e6902	0.2781449
97	0x3d6de5c7	0.05808046
98	0x3e4a0804	0.1972962
99	0xbdbfb7d0	-0.09361231
100	0x3e3af536	0.18257603
101	0x3e064cc3	0.1311522
102	0x3ee8b3b3	0.454496
103	0xbc463f7b	-0.012100096
104	0xbe7c1032	-0.24615553
105	0x3dd0d74c	0.101973146
106	0x3e814a7d	0.25252143
107	0x3ddb075f	0.10694765
108	0x3d96b767	0.073592
109	0x3e5fc703	0.2185326
110	0x3ce9fd5f	0.0285632
111	0x3e43b345	0.19111355
112	0x3e849f2d	0.2590269
113	0xbcb60463	-0.022218889
114	0xbe33cee8	-0.17559397
115	0x3e5b79e5	0.21433218
116	0x3d2518f3	0.040306997
117	0x3c5bf580	0.013425231
118	0x3e9c7596	0.3055846
119	0x3e3552ab	0.17707317
120	0xbe729d4d	-0.23692818
121	0xbe81eed7	-0.25377533
122	0x3e114efd	0.14190288
123	0x3e88d47a	0.26724607
124	0x3d84be68	0.064816296
125	0x3d1274b1	0.035755817
126	0xbe42c085	-0.19018753
127	0x3e871533	0.2638336

h2h.weight f4 [128, 128]
0	0x3d95cd88	0.073145926
1	0x3d447fc7	0.04797342
2	0x3cc8a928	0.024494722
3	0x3d712185	0.058869857
4	0xbcfe6038	-0.03105174
5	0xbda5d9ec	-0.08098206
6	0xbcaf38ea	-0.021389443
7	0x3ccca2ea	0.024980027
8	0xbd1fcb92	-0.0390125
9	0xbd8331ca	-0.06405981
10	0xbdbb3cc6	-0.09142451
11	0xbca3ed01	-0.020010473
12	0xbd0a9fc8	-0.033843786
13	0x3d98ec60	0.0746696
14	0xbd53f370	-0.051745832
15	0x3d161b10	0.036646903
16	0xba87f792	-0.0010373464
17	0x3d9bd844	0.07609609
18	0xbcaf29cf	-0.02138224
19	0x3d8d0d70	0.068873286
20	0x3d9b37b4	0.07578984
21	0x3b576cab	0.0032871168
22	0xbd7038cf	-0.058647927
23	0xbc03c16b	-0.00804172
24	0xbdb212ff	-0.086950295
25	0x3d55a191	0.052156035
26	0xbd571e91	-0.052519385
27	0xbca7c01d	-0.020477349
28	0x3d9d5a14	0.07683197
29	0xbd8a53bb	-0.067542516
30	0xbdbc3774	-0.09190264
31	0xbd514d4c	-0.051099107
32	0x3d582278	0.052767247
33	0xbd5a7e58	-0.053343147
34	0xbd07fa1d	-0.03319751
35	0x3db83a13	0.08995452
36	0xbcb5cd87	-0.02219273
37	0x3d828ecc	0.063748926
38	0xba8dd735	-0.0010821583
39	0xbd8a452e	-0.06751476
40	0xbbe742aa	-0.0070575075
41	0xbd83a6a5	-0.06428269
42	0x3d7082c6	0.058718465
43	0x3d68e8e3	0.056862723
44	0x3c946d70	0.01811859
45	0xbca54b4a	-0.020177502
46	0x3db11e8b	0.08648404
47	0x3d609dbf	0.05483794
48	0xbd5c385d	-0.05376469
49	0xbd977dd5	-0.073970474
50	0xbd84c7b6	-0.06483404
51	0x3d6b962e	0.05751627
52	0x3d5655e9	0.052328024
53	0xbdaf3c68	-0.085564435
54	0xbd28c76c	-0.04120581
55	0xbcf77ed5	-0.030211845
56	0x3d12d9fc	0.035852417
57	0xbb0c612e	-0.0021420228
58	0xbdbd0960	-0.09230304
59	0x3af9bef5	0.0019054102
60	0x3ba0f586	0.004912081
61	0x3cd721c5	0.02626122
62	0xbd8b838a	-0.068121985
63	0xbd81dc3a	-0.06340833
64	0x3d528806	0.051399253
65	0xbc9c7c32	-0.01910219
66	0xbda4a999	-0.08040161
67	0x3d22f616	0.039785467
68	0xbd18568e	-0.03719192
69	0x3d0e6f62	0.03477419
70	0xbd55bd99	-0.052182768
71	0x3d590b0c	0.05298905
72	0xbdb5ba04	-0.0887337
73	0x3b820d0e	0.0039688414
74	0xbca0924a	-0.019601006
75	0x3da10803	0.07862856
76	0x3daace11	0.08340085
77	0x3d497667	0.049185183
78	0x3bdf121d	0.006807579
79	0xbd9f666d	-0.07783208
80	0x3d1c1bce	0.038112454
81	0xbb76e5bb	-0.003767355
82	0xbb7ee3ca	-0.0038893097
83	0xbcffccdc	-0.031225614
84	0x3d6cb75e	0.05779206
85	0x3d47d047	0.048782613
86	0xbdbe7f6d	-0.09301648
87	0xbccd6c42	-0.025076035
88	0xbda6cbc2	-0.081443325
89	0xbd9516b3	-0.0727972
90	0xbd198d47	-0.03748825
91	0x3da6fcae	0.081536636
92	0x3cf2fab8	0.029660568
93	0xbdad1814	-0.08451858
94	0xbd3ca5c3	-0.04605652
95	0xbceec0ae	-0.029144611
96	0xbd82e654	-0.06391588
97	0x3d3994a6	0.045307778
98	0x3d7d0cfd	0.061779965
99	0xbd53c073	-0.051697206
100	0xbd81165f	-0.06303095
101	0x3c0e50ea	0.008686284
102	0x3d5a9dab	0.05337302
103	0x3d4e62db	0.050387245
104	0xbd6bbac4	-0.05755116
105	0x3dbb2f70	0.09139907
106	0xbd7181f8	-0.05896184
107	0x3d30d943	0.043175947
108	0xbdaf0236	-0.085453436
109	0xbda370d8	-0.079805076
110	0x3cdfd737	0.027324302
111	0x3c6e3580	0.014539123
112	0x3d71381e	0.05889141
113	0x3d8b2226	0.06793623
114	0x3d92a73b	0.07160803
115	0xbcdb31e8	-0.026757196
116	0x3d84da35	0.06486932
117	0x3d5ae45b	0.053440433
118	0x3d77c2e3	0.060488593
119	0x3b01ce00	0.0019806623
120	0xbda62bde	-0.08113836
121	0xb9c47b0c	-0.0003747571
122	0xbc8af783	-0.016963726
123	0x3d90842f	0.07056462
124	0x3b2e1f9f	0.002656914
125	0x3d371c71	0.04470486
126	0x3d71e800	0.059059143
127	0x3dbdce65	0.09267882
128	0xbdb17f6f	-0.08666884
129	0x3bfd49f1	0.007729762
130	0x3bbea808	0.0058183707
131	0x3d9071d1	0.07052959
132	0xbc0c0a78	-0.008547418
133	0xbd55707e	-0.052109234
134	0x3d2bc6c2	0.041937597
135	0xbc540434	-0.012940455
136	0xbdc25288	-0.09488398
137	0xbd8f5f85	-0.07000641
138	0x3dcf0492	0.101082936
139	0x3d0cb3c3	0.03435112
140	0xbdd8c44d	-0.105843164
141	0x3da829d0	0.082111
142	0x3c896073	0.016769623
143	0x3d2bd5e6	0.041952036
144	0x3dc6e511	0.0971166
145	0xbdbe4e9e	-0.09292339
146	0x3d883286	0.066502616
147	0x3d873c01	0.06603242
148	0xbb88fa9f	-0.004180267
149	0x3cd7b836	0.026332956
150	0xbd1d655d	-0.038426746
151	0xbd21d883	-0.039513122
152	0x3d51ec8e	0.051250987
153	0xbd93473d	-0.07191322
154	0xbd01431d	-0.031558145
155	0x3cfa1d7c	0.030531637
156	0xbc7175d5	-0.014737566
157	0xbc5a780f	-0.013334288
158	0xbc5e5e27	-0.013572252
159	0x3c94fced	0.01818701
160	0x3d02d69b	0.031942945
161	0xbd46a5f5	-0.048498113
162	0x3d6d58b9	0.05794594
163	0xbcde095d	-0.027104074
164	0x3d776501	0.06039906
165	0x3d88c9a9	0.066790886
166	0xbb7a4394	-0.0038187252
167	0xbc6bf0a9	-0.01440064
168	0x3a436c4f	0.0007454799
169	0x3cdf5507	0.027262224
170	0x3d2e68e4	0.0425805
171	0xbda0cec6	-0.07851939
172	0xbd52ca65	-0.05146255
173	0x3d0b3c85	0.033993263
174	0xbd340ec3	-0.04395939
175	0x3d9f1703	0.07768061
176	0x3c23ddf5	0.010001649
177	0xbcfd2da9	-0.030905562
178	0x3d8faa4d	0.07014904
179	0x3c9808dd	0.018558914
180	0x3d68d21c	0.056841
181	0xbdb0fdf6	-0.08642189
182	0xbdb71ac1	-0.0894065
183	0x3d6522fe	0.055941574
184	0xbda4b98f	-0.08043205
185	0x3cf64376	0.030061465
186	0x3d4031df	0.04692256
187	0x3dc8005a	0.09765692
188	0x3d6054ad	0.054768253
189	0xbd7c3cd2	-0.06158144
190	0xbdb2c2cf	-0.08728563
191	0xbd688d97	-0.056775656
192	0x3d120b91	0.03565556
193	0xbdb26d7a	-0.08712287
194	0xbcbc0477	-0.022951348
195	0xbc9fc9b0	-0.019505352
196	0xbd66e88d	-0.05637412
197	0x3b930e56	0.004487793
198	0x3d850953	0.06495919
199	0x3d4019ca	0.046899594
200	0x3ce3a5d7	0.02778904
201	0xbd6a1b34	-0.05715485
202	0xbca951b6	-0.020668846
203	0x3c73d3d0	0.014882043
204	0xbd01b9e1	-0.03167141
205	0x3cb3c0c2	0.0219425
206	0xbd0cbed9	-0.034361694
207	0xbd988c04	-0.07448581
208	0xbd80e34a	-0.06293352
209	0x3d9bbeb9	0.07604737
210	0x3d069018	0.032852262
211	0xbd90f851	-0.070786126
212	0x3d9ea696	0.077466175
213	0xbb0c990f	-0.0021453535
214	0x3dc1217b	0.09430214
215	0xbd70bccb	-0.058773797
216	0xbc40c1be	-0.011764942
217	0xbda96509	-0.08271224
218	0xbd20478f	-0.039130744
219	0xbc9130bf	-0.01772344
220	0xbd1d29e3	-0.038370024
221	0x3d7c7f6c	0.061644956
222	0x3d81fd2a	0.06347115
223	0xbd8c922f	-0.0686382
224	0x3d22d836	0.039756976
225	0x3d248140	0.040162325
226	0xbd873c76	-0.06603329
227	0xbdadfe16	-0.08495729
228	0x3d82b352	0.06381859
229	0xbdcb5c9d	-0.09929774
230	0xbd4b3f13	-0.0496207
231	0xbcfbee93	-0.03075341
232	0xbc4712c4	-0.01215047
233	0xbd23be69	-0.03997651
234	0xbdb29bd8	-0.08721131
235	0xbd805c0c	-0.062675565
236	0xbcfdda39	-0.030987846
237	0x3d68cde9	0.056836996
238	0xbd8ac914	-0.06776634
239	0x3d7c1b11	0.06154925
240	0x3d72f8f0	0.059319437
241	0x3d0b5eac	0.034025833
242	0x3d09867a	0.033575512
243	0x3d11d93e	0.03560757
244	0xbda9e499	-0.08295555
245	0x3dba8604	0.09107593
246	0x3d4dcc44	0.05024363
247	0x3c67ac85	0.014140253
248	0x3a86a414	0.0010272288
249	0x3d930391	0.071784146
250	0x3d50bc58	0.05096087
251	0x3d19b210	0.03752333
252	0x3d472589	0.04861978
253	0xbd12827e	-0.03576898
254	0x3d5a1c8c	0.05324988
255	0xbc6abc14	-0.014327068

h2h.bias f4 [128]
0	0x3e228c7e	0.15873906
1	0xbd9b3536	-0.075785086
2	0x3f0e10c2	0.5549432
3	0xbbb0c41c	-0.005394472
4	0x3d102b85	0.035197753
5	0xbe55a4e5	-0.20863684
6	0x3e904355	0.2817637
7	0x3e0ba45e	0.1363692
8	0x3e7a29cf	0.24430011
9	0xbd592a7d	-0.053019036
10	0xbdc3ed6e	-0.095667705
11	0x3deb144f	0.11478483
12	0x3e9e306b	0.30896315
13	0xbeac22e9	-0.33620384
14	0xbe7d2596	-0.24721369
15	0xbe4554f5	-0.1927069
16	0x3dc1b6f0	0.09458721
17	0xbe9b6dcb	-0.30357203
18	0x3e7e1a39	0.2481469
19	0x3c42e44b	0.01189525
20	0x3eac4ec9	0.33653858
21	0x3e409301	0.18806078
22	0xbea1321c	-0.31483543
23	0x3e83a365	0.25710598
24	0xbed45739	-0.41472796
25	0xbca8ed96	-0.020621102
26	0x3d8a9933	0.06767502
27	0x3dff2b62	0.124594465
28	0xbda4ad35	-0.08040849
29	0x3de9159f	0.11381077
30	0xbe84fc4a	-0.2597373
31	0xbe756243	-0.23963265
32	0xbd8d347d	-0.06894777
33	0x3cbbf454	0.022943653
34	0xbd8ad5bf	-0.0677905
35	0x3ee9cbc1	0.45663264
36	0xbddd7ea8	-0.108151734
37	0xbda0bdda	-0.07848711
38	0x3d14e913	0.03635509
39	0x3c1f0b9e	0.00970736
40	0xbc145b20	-0.009054929
41	0x3e0c1b34	0.13682252
42	0x3e5b7d5b	0.21434538
43	0xba14a9ea	-0.0005671071
44	0x3e8d0f18	0.27550578
45	0xbe0ad168	-0.13556445
46	0xbe0fa5f2	-0.14028147
47	0xbec8f61d	-0.3925027
48	0xbd65d1dd	-0.056108344
49	0x39b32fcd	0.00034177155
50	0x3e13273c	0.14370435
51	0x3dfe79c1	0.124255665
52	0xbea9c356	-0.33156842
53	0xbe0f1bd5	-0.13975461
54	0xbd0f85fb	-0.035039883
55	0xbdf45610	-0.119304776
56	0x3e9dc9ba	0.30817968
57	0xbeb88966	-0.36042327
58	0xbe65fdbb	-0.22460072
59	0xbec29519	-0.38004377
60	0x3db20b41	0.08693553
61	0x3e839420	0.25698948
62	0x3eab9658	0.3351314
63	0x3edc4bc0	0.43026543
64	0x3eb75ef7	0.3581464
65	0xbdf4e70f	-0.119581334
66	0x3e0a9afc	0.13535684
67	0x3e2560db	0.16150229
68	0xbe175718	-0.14779317
69	0xbdd68911	-0.10475362
70	0x3deb8c91	0.1150142
71	0xbe6e4cf2	-0.2327154
72	0x3d0e6f4b	0.034774106
73	0x3ebfc6b1	0.37456277
74	0x3dc5126b	0.096226536
75	0x3ebc3b51	0.36764005
76	0xbe5b5ce0	-0.21422148
77	0x3d8a1300	0.06741905
78	0xbe48728e	-0.19574949
79	0xbe30d300	-0.1726799
80	0x3e3e8ba6	0.18607959
81	0x3de0ee74	0.10982981
82	0x3eb9a52e	0.36258835
83	0x3e0fa3e4	0.14027363
84	0xbf091a79	-0.5355602
85	0xbe9a827e	-0.30177683
86	0xbb875f82	-0.0041312585
87	0x3e532e97	0.20623241
88	0x3eafd4d0	0.3434205
89	0x3d1ebced	0.038754392
90	0xbe7cd5db	-0.24690954
91	0xbdf40b2e	-0.11916195
92	0xbe501516	-0.20320544
93	0xbeafe5a5	-0.34354892
94	0x3dfbffca	0.12304647
95	0xbc2ab20b	-0.010418425
96	0x3eacfcbe	0.33786577
97	0x3d1c0778	0.03809306
98	0x3e890521	0.26761726
99	0xbe19ddda	-0.15026036
100	0x3e2c4c04	0.16825873
101	0x3ea6013f	0.32422826
102	0x3ededca5	0.43527713
103	0xbc8fc986	-0.017552149
104	0xbe9eed95	-0.31040636
105	0x3e8893be	0.26675218
106	0x3e246f19	0.16058005
107	0x3e53ff7b	0.20702927
108	0x3da0879c	0.078383654
109	0x3e7df63a	0.24800959
110	0x3d37c185	0.04486229
111	0x3e39fdfe	0.18163297
112	0x3eaa2d23	0.33237562
113	0xbe647abb	-0.22312443
114	0xbeaec4db	-0.34134564
115	0x3ec56677	0.38554737
116	0x3dc13c1f	0.09435295
117	0x3e31dd15	0.17369492
118	0x3ee9f440	0.4569416
119	0x3e5a7f9d	0.21337743
120	0xbe93990f	-0.28827712
121	0xbe8ad46b	-0.27115187
122	0x3eab3d0a	0.33445007
123	0x3e863d18	0.26218486
124	0x3d9815bb	0.0742602
125	0x3c711ffc	0.014717098
126	0xbe800319	-0.25002363
127	0x3e937729	0.2880185

h2o.weight f4 [103, 128]
0	0xbb9a71c8	-0.004713271
1	0x3d7825e1	0.060583
2	0xbc82c562	-0.01596326
3	0xbcdfcdb7	-0.027319772
4	0x3debbc77	0.11510556
5	0x3dbba8bc	0.09163043
6	0x3c8358e4	0.016033597
7	0x3bee3a01	0.007270098
8	0x3d01d8e3	0.03170098
9	0x3dad2968	0.08455163
10	0x3e0b8401	0.13624574
11	0xbc82a79e	-0.015949067
12	0xbd97dc67	-0.07415085
13	0x3c4007bf	0.011720597
14	0x3e00dff9	0.12585439
15	0x3d4a5448	0.049396783
16	0x3cff41f6	0.031159382
17	0xbc83f86e	-0.016109671
18	0xbcc3a8bf	-0.023884175
19	0xbbb9dfa1	-0.0056724106
20	0x396b23d8	0.000224247
21	0x3d69e30a	0.057101287
22	0x3d4830f5	0.048874814
23	0xbdd92593	-0.1060287
24	0x3dd7f425	0.10544614
25	0xbd062388	-0.03274873
26	0xbd54cd46	-0.051953577
27	0x3da2ab61	0.07942844
28	0xbd3e9d1f	-0.04653656
29	0xbd7e72c3	-0.062121164
30	0xbd045a06	-0.032312416
31	0x3d3b30a7	0.045700695
32	0xbc1dd497	-0.009633205
33	0x3c949c05	0.018140802
34	0xbd441edb	-0.04788099
35	0xbdc955ae	-0.09830795
36	0x3bfbdaf5	0.007686014
37	0x3d945491	0.07242692
38	0x3d860d8d	0.06545553
39	0xbce1b25f	-0.027550874
40	0xbd90aebf	-0.0706458
41	0xbd19710a	-0.037461318
42	0xbdb99646	-0.090618655
43	0xbde3098c	-0.11085805
44	0xbd4a61eb	-0.049409788
45	0xbc1189f6	-0.00888299
46	0x3db9668c	0.090527624
47	0x3c9aeb97	0.018911166
48	0x3bee3a54	0.007270137
49	0xbdac1150	-0.084017396
50	0xbc825e2c	-0.015914045
51	0x3d56f2df	0.052477714
52	0x3dd140ad	0.10217414
53	0xbcee4dd9	-0.029089855
54	0x3d176614	0.036962584
55	0x3cb9d0f8	0.022682652
56	0xbd4ba479	-0.0497174
57	0x3df2c40c	0.11853799
58	0x3cfbd9fe	0.030743595
59	0x3d1802d2	0.037112065
60	0xbb3d183e	-0.002885356
61	0xbc85539e	-0.016275223
62	0xbcbcd68c	-0.023051523
63	0xbd2a100d	-0.041519213
64	0x3b41027d	0.0029450946
65	0xbd0a350b	-0.033741992
66	0x3d2aa918	0.041665167
67	0xbd9dd53d	-0.077066876
68	0xbb601924	-0.0034194672
69	0x3b3dc5f2	0.0028957096
70	0x3cbfcc7b	0.023412934
71	0x3d3b6b9b	0.045756917
72	0x3d80ebb4	0.06294957
73	0xbe0a6322	-0.13514379
74	0x3d8e5ffb	0.069519006
75	0x3ae2acd9	0.0017293944
76	0x3c989d2b	0.018629631
77	0xbdd9b158	-0.10629529
78	0x3e1351d5	0.14386685
79	0xbc21431f	-0.009842663
80	0xbd1b0be9	-0.037853155
81	0xbcb6d742	-0.02231944
82	0xbe054c28	-0.13017333
83	0xba959926	-0.001141344
84	0x3dcd936d	0.10037885
85	0x3d0de50a	0.034642257
86	0xbcfa427f	-0.030549286
87	0x3d033352	0.032031365
88	0xbdbc38fe	-0.09190558
89	0xbd49ba67	-0.049250033
90	0x3da41c91	0.08013261
91	0x3d01fbed	0.031734396
92	0x3ba40c2d	0.0050063343
93	0x3dc826a5	0.09772996
94	0xbda571ff	-0.08078384
95	0x3ba9a805	0.0051775
96	0xbd4c3f28	-0.049864918
97	0x3c63a430	0.013894126
98	0xbd4832c1	-0.048876528
99	0x3d23e258	0.04001078
100	0xbb913f4a	-0.0044325935
101	0xbc4dad7a	-0.012553567
102	0xbe08df2f	-0.13366388
103	0x3d13b629	0.036062393
104	0x3d4d915f	0.050187465
105	0xbdcf7d94	-0.10131374
106	0xbd6939d7	-0.056939926
107	0xbde0229e	-0.10944103
108	0x3d4da54d	0.05020647
109	0x3d0a4713	0.033759188
110	0xbd16f14f	-0.036851224
111	0xbb9338a5	-0.0044928365
112	0xbd819836	-0.0632786
113	0xbd71b312	-0.059008665
114	0x3dee2352	0.116278306
115	0xbdcfb9e8	-0.10142881
116	0xbd4cb2ff	-0.04997539
117	0x3d90f6e3	0.0707834
118	0xbe0cacdc	-0.13737816
119	0xbd79133e	-0.060809366
120	0xbc381590	-0.01123561
121	0x3c86fe17	0.016478581
122	0xbdf96fa0	-0.12179494
123	0x3c5f19a3	0.013616952
124	0x3d639ad3	0.055567574
125	0xbd7be41a	-0.06149683
126	0xbc868359	-0.016420053
127	0x3d63584c	0.05550413
128	0x3cdf47f7	0.027255995
129	0x3d6b38cd	0.057427216
130	0xbcc453e4	-0.023965783
131	0x3c68e843	0.014215532
132	0x3c2ca25e	0.010536758
133	0xbc864513	-0.016390359
134	0xbdf5b8e0	-0.11998153
135	0xbd497435	-0.04918309
136	0xbd31a45d	-0.04336964
137	0xbdae3d19	-0.08507747
138	0x3dc7376b	0.09727367
139	0x3cfc0a07	0.0307665
140	0xbe1255a4	-0.14290482
141	0x3d5f42fd	0.054507244
142	0x3cc5d684	0.02415014
143	0x3dcc43ec	0.099738926
144	0x3b1116f9	0.0022138937
145	0x3cf91b8f	0.030408649
146	0xbd9fd33d	-0.078039624
147	0x3b322919	0.002718514
148	0x3c126482	0.008935096
149	0xbd8ce87d	-0.06880281
150	0x3def6aa3	0.11690261
151	0xbd985940	-0.07438898
152	0x3c8845ce	0.016634848
153	0xbd8c3fd3	-0.06848111
154	0x3dcbff84	0.09960845
155	0x3cc06e73	0.023490166
156	0xbceb424f	-0.028718142
157	0xbd269dee	-0.040677957
158	0xbc884b33	-0.01663742
159	0x3d246642	0.040136583
160	0xbd985219	-0.07437534
161	0xbc7f0efd	-0.015567538
162	0x3d92e92c	0.0717338
163	0xbd4b3931	-0.04961509
164	0x3c8a3619	0.016871499
165	0x3d913699	0.07090492
166	0x3dc9b419	0.09848804
167	0xbd3c3677	-0.04595038
168	0x3d825474	0.063637644
169	0x3d2617ec	0.040550157
170	0xbdf6f029	-0.12057526
171	0xbd07ccac	-0.033154175
172	0xbd589cda	-0.05288396
173	0xbd6118cf	-0.0549553
174	0x3df9d724	0.12199238
175	0x3dd2a5ac	0.10285506
176	0xbd96b56d	-0.07358823
177	0x3cdc150c	0.026865505
178	0xbd9eb597	-0.07749479
179	0xbd87a36f	-0.06622969
180	0x3dacc895	0.084366955
181	0x3da5cd09	0.08095748
182	0xbdcc7146	-0.09982543
183	0x3db99ba4	0.09062889
184	0x3c1b77da	0.009489024
185	0x3dc316a8	0.09525806
186	0x3cc76eb6	0.024344783
187	0x3dfaa058	0.122376144
188	0x3d99be68	0.0750702
189	0xbc8f2400	-0.01747322
190	0xbd900cd7	-0.07033699
191	0xbd6f96af	-0.058493312
192	0xbd8c1124	-0.06839207
193	0xbd6eb14f	-0.058274563
194	0x3d7e4e26	0.062086247
195	0x3b217d90	0.0024641491
196	0xbd53ac95	-0.05167826
197	0xbd56b545	-0.052418966
198	0xbdfc156e	-0.12308775
199	0x3dec9cb5	0.11553327
200	0x3cc3c83c	0.02389919
201	0xbda0c5e1	-0.078502424
202	0xbd5b0444	-0.053470865
203	0xbd49f0b2	-0.04930181
204	0xbcc98579	-0.024599778
205	0xbc915539	-0.017740833
206	0x3d64b82d	0.055839706
207	0x3d75641e	0.059909932
208	0xbdf4be34	-0.11950341
209	0xbda9c51e	-0.0828955
210	0xbd12fcda	-0.03588567
211	0x3c8083d7	0.015687866
212	0x3da3af39	0.079924054
213	0xbd80b42d	-0.06284366
214	0xbd41ef81	-0.04734755
215	0xbdba7e33	-0.09106102
216	0xbdbf743f	-0.09348344
217	0x3d9490a6	0.07254152
218	0x3ce6d177	0.028176052
219	0x3a41b481	0.0007389263
220	0x3dd8676b	0.105666004
221	0x3e239ea0	0.1597848
222	0x3d1e47cb	0.038642686
223	0x3d1c0e49	0.03809956
224	0xbe07664d	-0.13222618
225	0xbd478b4c	-0.04871683
226	0xbd41d91b	-0.04732619
227	0x3d2c3535	0.04204293
228	0xbca96bcd	-0.020681286
229	0xbd6eb019	-0.05827341
230	0xbc61109c	-0.01373687
231	0xbd9268be	-0.07148884
232	0x3d7426a9	0.05960718
233	0xbc3bc5fa	-0.0114607755
234	0x3c948a8f	0.018132476
235	0xbd8b84ae	-0.06812416
236	0xbbb9d012	-0.005670556
237	0xbd994dbe	-0.07485531
238	0x3d67f718	0.05663213
239	0x3cfc27a4	0.03078062
240	0xbac22c54	-0.0014814236
241	0x3d7ff9e4	0.062494174
242	0x3dd3971d	0.10331557
243	0xbdd11d4a	-0.102106646
244	0xbc1776be	-0.009244619
245	0xbd2fd04c	-0.042923257
246	0xbd7713e6	-0.06032171
247	0xbd121522	-0.035664685
248	0x3d1f88ca	0.03894881
249	0xbca15817	-0.019695325
250	0xbde4b54c	-0.11167392
251	0x3c914e3d	0.017737502
252	0x3db095aa	0.08622296
253	0xbd13a358	-0.03604445
254	0x3d27ea58	0.040994972
255	0xbd564b7b	-0.052318078

h2o.bias f4 [103]
0	0xbe02b113	-0.12762861
1	0xbc99b221	-0.018761696
2	0xbe0b59a7	-0.13608418
3	0xbde70ab2	-0.11281337
4	0xbe03e15a	-0.12878934
5	0xbe4777d5	-0.19479306
6	0xbd245b82	-0.04012633
7	0xbd810d35	-0.06301347
8	0xbdff9d51	-0.124811776
9	0xbe2a3527	-0.16621839
10	0xbd85f402	-0.065406814
11	0xbd76ef03	-0.060286533
12	0xbe3e4bc5	-0.18583591
13	0xbdbb0cd8	-0.09133309
14	0xbd197a58	-0.03747019
15	0xbe2983ad	-0.16554137
16	0xbddf39c3	-0.10899689
17	0xbe09f139	-0.13470925
18	0xbe33777b	-0.17526047
19	0xbe06f1fc	-0.13178247
20	0xbd42db47	-0.0475724
21	0xbe1c08f2	-0.15237787
22	0xbd222fa0	-0.0395962
23	0xbe0cf538	-0.13765419
24	0xbe155afe	-0.14585492
25	0xbd3bf704	-0.04588987
26	0x3ec73349	0.38906315
27	0xbc575cd8	-0.013144694
28	0xbd5933d3	-0.05302794
29	0x3e032e5d	0.12810655
30	0x3eb9d326	0.36293906
31	0xbdd66e07	-0.10470205
32	0xbab4f663	-0.0013806339
33	0x3e2567e5	0.16152914
34	0x3e965351	0.2936044
35	0xbd98f204	-0.07468036
36	0xbb31cc1e	-0.002712972
37	0x3e68efb5	0.22747691
38	0x3d165ecc	0.0367115
39	0x3e939743	0.2882634
40	0x3e8a3c09	0.26998928
41	0xbdab07ec	-0.0835112
42	0xbd21d9f8	-0.03951451
43	0x3e9d602d	0.3073744
44	0x3df38c6f	0.1189202
45	0x3e2a1bef	0.16612218
46	0x3e15919f	0.14606331
47	0x3d8c09cf	0.06837808
48	0xbd9ffb0e	-0.07811557
49	0xbd96c8e7	-0.07362538
50	0x3d7dc355	0.06195386
51	0x3c8ea127	0.017410828
52	0xbdf6bd0a	-0.12047775
53	0xbe1ad50f	-0.15120338
54	0xbdcc3e62	-0.09972836
55	0xbdd46cfa	-0.10372348
56	0xbd0a2c89	-0.03373388
57	0xbe1cea52	-0.15323761
58	0xbdd44d72	-0.10366334
59	0xbc8dcf75	-0.017310837
60	0xbe10f85a	-0.14157239
61	0xbdc282d0	-0.09497607
62	0xbdb66662	-0.08906247
63	0x3bb90f78	0.005647596
64	0xbcf453af	-0.02982506
65	0xbcf27251	-0.029595526
66	0xbd4c206a	-0.0498356
67	0xbd698580	-0.05701208
68	0xbe1794da	-0.14802876
69	0xbd667e82	-0.05627299
70	0xbd8290a7	-0.063752465
71	0xbe13102d	-0.1436164
72	0xbdf9083a	-0.12159772
73	0xbe0109fa	-0.12601462
74	0x3d73a593	0.059484076
75	0xbe147a4a	-0.14499775
76	0xbe2d979a	-0.16952363
77	0xbe0e1281	-0.13874246
78	0xbe31b92f	-0.17355798
79	0xbd72b0df	-0.05925071
80	0xbd5eaded	-0.054365087
81	0xbdade6fe	-0.08491324
82	0xbe020b6b	-0.12699668
83	0xbe26ad84	-0.16277128
84	0xbbc76e49	-0.006086145
85	0xbd1f3a96	-0.03887423
86	0xbe0e9274	-0.13923055
87	0xbd959e36	-0.07305567
88	0xbdc515be	-0.096232876
89	0xbb1d236c	-0.0023977412
90	0xbe10b220	-0.1413045
91	0xbe175db3	-0.14781837
92	0xbe00039f	-0.12501381
93	0xbcfae188	-0.03062512
94	0xbd48646b	-0.04892389
95	0xbdd948f1	-0.106096156
96	0xbdd4c3cf	-0.1038891
97	0xbd8099c1	-0.06279326
98	0xbd984e8b	-0.07436856
99	0xbe24695e	-0.1605582
100	0xbe2fbb4b	-0.1716129
101	0xbe070127	-0.13184033
102	0x3e01ea35	0.12686999
