miniprojekty-vyplnene/results/model_mnist_cnn_20250624095837.pth (torch, 875945 bytes, 6 tensors)

0.weight f4 [64, 1, 5, 5]
00000000: 3c50 c6bb a15a 643d ad26 383d f458 cdb8
00000010: ecd5 20be e19a 0d3d b785 ec3c 0893 19be
00000020: cdac d9bd 8489 063d 1164 5f3e 75c4 0ebd
00000030: bacd c8bd 409e 65be 9101 c6bd 59bc 25be
00000040: b5cd 9abe ed35 35be bbfd 8a3e f0f5 083d
00000050: ca1a 67bd 4362 5dbc a4aa a1bd a8ef 43bc
00000060: 9db9 293e 0037 b5bd 3c91 013e 527e 513d
00000070: 53a7 37be 410d 88be 09fe df3d 0463 46bd
00000080: 44f6 623e 3b98 a8bd bcb2 0a3e a045 083e
00000090: 14c9 adbd cd0e 8a3d 476e 2f3e 7035 bfbd
000000a0: 0fa9 bebd e242 f23d b5ce 263e 9989 6a3e
000000b0: e748 a43d f5c5 40bc 2e24 c53d 887f 00be
000000c0: 710c 25be acef 58bc 88c4 45be 9f36 3e3d
000000d0: eac4 09be ccd1 ea3d e036 3dbc 5255 81be
000000e0: a2b1 dab9 eb99 4a3e 415c 703e 2a2c fdbd
000000f0: c88a 00be d352 bc3d d14a edbd 8b5e 003d
00000100: f713 8d3d ebac 86be 9dee 1e3d ec9c 5ebd
00000110: f428 4a3e 96dd a93d 34ed 22bd 91cd 3abd
00000120: 467e f43d 8cd0 ff3d ad8d 273e 8cba 06be
00000130: fc65 333e d967 113e 42b2 723d 03ab a1bd
00000140: 2520 bf3a 730d 3f3e f8ff 5c3e a55c 3abe
00000150: 2c7a d2bc 6c04 f53d db75 213e 7905 3fbd
00000160: 6c22 cebd bc5e 83be 3eb8 cf3d 07bf 5a3e
00000170: c81c 19be bed3 1abe d8b9 20be b01b dabd
00000180: ce94 eabd e4da f13c a7c0 423c e540 3a3d
00000190: 5e22 09bd 5cd7 373b 8a18 00be 4074 323d
000001a0: 39a4 473d 513f 37be 6960 723d b6e6 83be
000001b0: 9f37 11be b718 4c3e f50e 9abd 3eed a5bd
000001c0: b7dc 1fbe dc48 073e 17db 0c3e 82bd 78be
000001d0: 6ec3 7dbe 4b93 97bd 6dab 663e c962 4e3e
000001e0: a4f4 5fbe 4211 1f3e 1614 ff3c 634e 5b3e
000001f0: 599a db3d 313a d13d 0a67 f2bd 62e7 fa3d
00000200: 0228 05be d63b a63d 9b2a 573d 644c 053e
00000210: 3704 2a3e afaa 5b3d fbb2 7a3e 5342 7f3d
00000220: 732d be3d 365e 953d bc4e c93a 8500 4a3d
00000230: daef a93d f910 14be 62ce 28be b77f 1dbd
00000240: 2eba 9e3d 8e55 2ebe 8711 5abd 58e2 4abe
00000250: 5303 56be af15 6abe 4653 46bd 99ac 26be
00000260: 19b5 d93d 78f8 fbbd e26a ccbd 0d81 c43d
00000270: 4edb f2bd 4bb5 28bd f58a 23be a535 60bc
00000280: 743c 083c e72b e2bd 4934 edbd a13e 15be
00000290: 9a59 b4bc 0454 5c3e 8eea ce3d 936c 353d
000002a0: cc4d 003e e285 2e3c a58b b4bc bdbf 6f3e
000002b0: 14c1 9b3d e35c 3e3e 4f7a 8a3d c35d 9f3d
000002c0: 6c72 ec3c 1068 9abd efad 483e 4169 3d3e
000002d0: 31a1 453e 28a3 283c b076 513e 1fc9 a5bd
000002e0: 2929 823d 47b8 1f3e a1cb b53d d54b 903c
000002f0: 3c1d 32be 7e6f d4bd 4b82 90bc 0ed1 5dbe
00000300: 415a fd3c 5208 123e a7b4 2fbe d607 64be
00000310: 3853 5abe e11e e13d 0988 5dbe d32b 163e
00000320: 7f18 c6bd 903d 0e3e a43c e73c 1392 8d3d
00000330: 4501 103e 8d6b 3fbd 5d20 2c3e 42cb ebbd
00000340: 63eb 3e3e 520a e83d 0d28 973d 1255 783e
00000350: 5373 423e 6f94 ac3b d4dd 1fbc 1591 94bd
00000360: b41d 4e3e 890b e9bd bc3c 5ebe 665e 86bd
00000370: 1e65 9e3d 0160 303d 6cdf 51be ece4 dfbd
00000380: 2f1a acbd 73f6 bdbd 4ecb 223e da12 303d
00000390: de11 1d3e 6c94 32be 342b a9bb b9f1 90bd
000003a0: 4186 933d e514 1f3c a250 29be d562 1bbe
000003b0: 2ab8 9cb9 f054 fb3d c9a7 5b3e 6892 a13d
000003c0: 4d16 c3bc 732b 54be dd69 b73d 6458 31bd
000003d0: afba 473e 3718 ba3d a9e1 c7bd 1554 85bb
000003e0: 3758 4b3d 3100 213e 6102 9c3d d39d d63c
000003f0: 77ef 0d3e d143 833e 2dbd 353e 7cb0 eabc
-0.006052045 0.055750493 0.04495876 -9.7917306e-05 -0.15706605 0.034571532 0.028872354 -0.14997494
-0.10628662 0.03284599 0.21815516 -0.034855325 -0.09804864 -0.22423649 -0.096682675 -0.1618513
-0.30235067 -0.17696352 0.27146706 0.03343767 -0.056422032 -0.013512197 -0.07893875 -0.011958994
0.16574712 -0.08848381 0.12653059 0.05114586 -0.17934923 -0.26572612 0.10937125 -0.048434272
0.22164255 -0.08232161 0.13544744 0.1330781 -0.08485618 0.06741104 0.17131911 -0.09336364
-0.09309589 0.11829163 0.1628979 0.22904052 0.080217175 -0.011765947 0.09626041 -0.1254865
-0.16118027 -0.013240736 -0.19313252 0.04643881 -0.13454023 0.11465797 -0.011548728 -0.25260407
-0.00041712547 0.19785278 0.23472692 -0.12361939 -0.12552941 0.09195485 -0.11586536 0.031340163
0.068885736 -0.263038 0.038801778 -0.05434887 0.19742185 0.08294217 -0.039776996 -0.0456062
0.11938147 0.12490949 0.16362639 -0.131571 0.17519373 0.14199771 0.05925203 -0.07893946
0.0014581723 0.18657474 0.2158202 -0.18199404 -0.025693022 0.11963734 0.15767615 -0.04663608
-0.10065159 -0.25658214 0.10142563 0.21361934 -0.14952385 -0.15119836 -0.15695894 -0.10649812
-0.114541635 0.02952332 0.011886752 0.045472044 -0.03348004 0.0028051948 -0.12509361 0.043567896
0.0487406 -0.17895247 0.059173975 -0.25761956 -0.14181374 0.19931303 -0.07522384 -0.08101891
-0.1561154 0.13211387 0.13755451 -0.24291041 -0.24781582 -0.07401141 0.22526331 0.20154871
-0.21870667 0.15533927 0.031137507 0.21416621 0.10722799 0.10216177 -0.118360594 0.12251164
-0.13003543 0.081168815 0.052530866 0.13017422 0.1660317 0.053629573 0.24482338 0.06231911
0.092860125 0.0729336 0.0015358548 0.0493169 0.08297701 -0.144596 -0.16484979 -0.038451876
0.07750355 -0.17024824 -0.05323937 -0.19812906 -0.20899706 -0.22859834 -0.04841926 -0.16276778
0.10630245 -0.12303251 -0.09981324 0.09594927 -0.11858235 -0.04118852 -0.15970977 -0.013684665
0.008315194 -0.1104353 -0.11582238 -0.14574672 -0.022015382 0.21516424 0.101033315 0.044292998
0.12529677 0.010652037 -0.022039244 0.23412986 0.07605186 0.18590121 0.0676161 0.077815555
0.028863154 -0.075393796 0.195976 0.18497182 0.19299771 0.010292806 0.20455432 -0.080950014
0.06355507 0.1559764 0.0887673 0.017614285 -0.17393965 -0.10372828 -0.017640254 -0.2166178
0.030926825 0.14260986 -0.17158757 -0.22268614 -0.21320808 0.10992218 -0.21633925 0.14665155
-0.09672641 0.13890672 0.028227158 0.06912627 0.14062984 -0.046733428 0.1680922 -0.11513378
0.1864448 0.113300934 0.07380686 0.24251202 0.18989305 0.005266718 -0.009757478 -0.07254235
0.20128518 -0.11379153 -0.21702856 -0.06560974 0.0773413 0.043060306 -0.20495385 -0.10932335
-0.084034316 -0.09275522 0.15897867 0.04298673 0.15338847 -0.17439431 -0.005162621 -0.07077355
0.07203341 0.0097095715 -0.16534665 -0.1517442 -0.00029891852 0.1227206 0.21450724 0.07889253
-0.023814345 -0.207197 0.08955739 -0.043297186 0.19504808 0.0908665 -0.09759838 -0.0040688612
0.049644675 0.1572273 0.07617641 0.026198303 0.1386088 0.25637677 0.17747946 -0.028648607

0.bias f4 [64]
00000000: ecdc bd3c 398c 86bc 1a49 8fbc e8bc 4ebd
00000010: 6fb3 e2bb b707 933d 9e43 fbbd 65d7 16be
00000020: 96ae f3bd 7008 483d 4d94 c5bc 341a f4bd
00000030: 4822 15bd 0616 26be 59e1 e63d 931e 59bd
00000040: 62ab cebd 40f5 c23d 2ecc c83c bd44 05bd
00000050: 130e d43d a72d 62bd 916b 133d 79c4 0fbe
00000060: 59e2 3abe 3b9a 22be b2ab 873c 6d6d f13d
00000070: 19c4 073d 5db7 3cbd 1e91 29be 3c6b 2d3d
00000080: 1f02 f23d 9670 873d 421b 2bbe e09c 67bd
00000090: b138 d8bd ea2e 01bd 02c8 30be 45a1 ffbd
000000a0: 0c94 a43c 8b8d 2b3e aed3 80bd dc03 b43d
000000b0: 9a7a 0dbd f62a 96bd 8dd7 1bbe dde7 f53d
000000c0: 225a b0ba 8fc9 29bc cde8 a53d bbe8 71bd
000000d0: f6eb 713d 1905 03bc f8f6 50bd 86e0 d9bd
000000e0: b6cf 88bd bc11 2dbe b2d4 25be 4a0f 9cbb
000000f0: d079 82bc bba4 a1bd 0a25 2cbe 7ff4 5d3e
0.023176633 -0.016424285 -0.017490912 -0.050473124 -0.006918363 0.07179206 -0.12268756 -0.14730604
-0.11898534 0.04883617 -0.024118567 -0.1191906 -0.036409646 -0.16219339 0.112734504 -0.053007673
-0.100912824 0.09519434 0.024511423 -0.032536257 0.10354247 -0.05521932 0.035991255 -0.14039792
-0.18250407 -0.15879147 0.016561363 0.117884494 0.033145998 -0.046073306 -0.16559264 0.042338595
0.11816811 0.06613271 -0.16709617 -0.056546092 -0.10557688 -0.03153888 -0.17263797 -0.124819316
0.020090126 0.16753213 -0.06290375 0.087897986 -0.03454075 -0.07332413 -0.15218945 0.12007115
-0.0013454596 -0.010362997 0.08101044 -0.05905984 0.05906292 -0.007996821 -0.051016778 -0.106385276
-0.06680243 -0.16901296 -0.16194418 -0.004762565 -0.015927225 -0.07892748 -0.16811004 0.21675299

4.weight f4 [128, 64, 5, 5]
00000000: 2bcb 88bd d548 8fbc 8d50 a13b 9a63 03bc
00000010: 016f c9bb b341 bcbc 8677 18bd e485 c83c
00000020: f1fd 1d3d 7a09 afbb a032 8fbd 2ebc 36bd
00000030: d940 60bd b184 343c 3b78 aa3c bbd2 bebd
00000040: dcd8 67bd 6403 9fbd 7c55 d9bc a71f 22bc
00000050: 02ce 42bd a18e 50bd 425a 4ebd f66f d8bc
00000060: a72b 76bc 0cbb e73c 0dec c63b 77b3 843c
00000070: 6c7c a8bb 11b9 0fbd cea6 183b 805a acbb
00000080: f9b9 48bc 2fc1 43bc 725f 0abd 6e01 c7bc
00000090: ec5e 42bd db2e e7ba 51fb bfbc f15e 933b
000000a0: 78a2 403d ad20 3fbc 4e4f 19bd 9dd0 1cbd
000000b0: 6258 5f3c 29a7 a93c 4b3d 433d 88f9 29bb
000000c0: 708c 01bd d08a 4dbc b3e4 143c d549 d7ba
000000d0: ac1e 5fbc 35d7 92bc b26c 76bc 2f60 0ebd
000000e0: d621 ebbc b6c5 f6bc 3750 29bb 70bd fabc
000000f0: 52c3 29bd 389e 6fbc fe2a 4ebc e0c2 9dbb
00000100: 1af7 fd3a 7ac7 773c 9834 f8bc 5802 02bd
00000110: ca10 22bd e523 08bc 5688 623d a737 c6bc
00000120: f1b4 92bc 4d5a 2cbd e311 2fbb 8c95 063d
00000130: 4c0d e1b9 aba0 cbbc 4130 24bc 7187 9abc
00000140: 0f02 913c dcb0 163d 511f 45bc aecc 913c
00000150: 4f96 7b3c 23d1 26bd ba78 bcbc a263 a3bc
00000160: 744c 82bb 6748 863c 624d 3ebd aa63 85bd
00000170: 234c 30bd 4ac4 23bc da1d fdbb 1c49 083d
00000180: 764f e9bc 6191 8ebd 34c1 76bd e0a0 06bd
00000190: 2756 20bd 88cb 06bd 85b3 b9bb 33e7 97bb
000001a0: 646d 65bc 3d06 44bb 9337 90bc 5e85 8fbc
000001b0: 177d cb3c aecb 873c 8f28 5dbd c130 a3bc
000001c0: 0046 f2bc da82 5bbc 9b9b 1a3c eb49 59bc
000001d0: a5d3 bfbc 4dfc 64bc bc2d 113c daf5 45bc
000001e0: d4dd 58bb 9015 78bc 7423 11bd 4871 0dbd
000001f0: 2f6a e6bc 3729 f03c bca4 6c3c 16ec 3e3c
00000200: bf72 07bb dd0f b3bb 036a 023d d0a7 653c
00000210: 428e b53c dd8c a03b 0500 98bb 72c0 cfbc
00000220: 31b6 32bd 3c68 8dbc 623f 47bc 249f b73c
00000230: 4933 64bc cd77 46bd c2d5 493b 161f 253c
00000240: 95f9 843c c4c6 87bc 1c02 a0bc 751a 6dbc
00000250: 376a af3b 89a1 0cbc 0360 c2bc 3a0e 0bbd
00000260: f24a 63bc 2e1c cb3c aa83 823c cefa b2bd
00000270: 42b0 a7bd d33e f1bc 28c6 88bc 9fa8 7dbc
00000280: 0d4a 963d 7dfd babc bab3 70bd e327 cdbb
00000290: 64be 4dbb 8fea f53c da3e 833c 6909 cebc
000002a0: 8249 4bbc ec96 c1bb 5c4f d2ba 8b4a 343d
000002b0: 251d 383d 0fad 363c 8649 fdbc 8f75 57bb
000002c0: 3131 f43c 0a21 22bd 5e2b cdbc 3c25 b9bc
000002d0: 4eb0 313c 6752 ae3b 12e8 51bb 2e8e 6abc
000002e0: f592 4d3b 7de2 09bd c66a 06bd 9460 9ebc
000002f0: 78da 9a3b 5aeb 0abc 849b 98bc e89b a9bd
00000300: b3eb b5bc 548a 24bd 6003 d43b 0a19 e4ba
00000310: 2f92 c1bc 2459 42bd 2df9 eabc bba2 2d3c
00000320: 74a5 cb3c dbd7 853c 60ad debb bdf4 b5bc
00000330: 30ba 19bd eeef ee3a 9f12 a6bc 5fdf 8bbc
00000340: cacc 47bc cab9 74bb c9bc 56bd bdb2 31bd
00000350: 14f8 a2bc 67ad 1e3c b80a ae39 bb91 f0bb
00000360: f3a4 97bc 32c0 43bd ad95 1dbd 3a5f 88bc
00000370: 17c6 c1bb 17a6 6b39 4dd5 58bd ac4f 7cbc
00000380: 11bf cb3b bedd 94ba f974 3dbc f192 ac3c
00000390: 892c 6cbb f19f d3bb 7e56 cfba 9750 dbbb
000003a0: 8af1 bf3c 05b7 b73b 8fc2 68bb 20d8 00bd
000003b0: bd47 9b3c bffc 813c bcdc a73c 7368 8abc
000003c0: 52bc 5c3c 84c3 81bc 60cf edbb 009a a9bc
000003d0: 7880 2dbc c1e0 8f3d 7111 c53c ddb9 11bd
000003e0: 53cc dd3c ea0c babb ed07 21bc 0982 293c
000003f0: e888 ccbc e1e3 753b f69e 0bbd 444e 613b
-0.06679376 -0.017490784 0.0049229325 -0.008019352 -0.006147266 -0.022980547 -0.03722336 0.024477907
0.038572256 -0.005341706 -0.06992078 -0.044613056 -0.054749344 0.011017964 0.020809283 -0.093175374
-0.056603298 -0.077643186 -0.02653002 -0.009895242 -0.047559746 -0.05091727 -0.050379045 -0.026420575
-0.015025056 0.028287433 0.00607062 0.016198857 -0.0051417854 -0.035088602 0.0023292783 -0.005259812
-0.012251371 -0.011947914 -0.03378243 -0.024292674 -0.047453806 -0.0017637865 -0.023435267 0.004497402
0.047029942 -0.011665505 -0.037429146 -0.038284887 0.013631912 0.020709591 0.047665875 -0.0025936086
-0.031628072 -0.0125453025 0.009087729 -0.0016425202 -0.013618153 -0.017924884 -0.015040563 -0.034759697
-0.028702658 -0.030123573 -0.0025835165 -0.030607909 -0.041446038 -0.014625125 -0.012583492 -0.0048144907
0.001937601 0.0151232425 -0.030298516 -0.031740516 -0.039566793 -0.008309339 0.0553058 -0.024196459
-0.017908545 -0.042078305 -0.0026713542 0.032857463 -0.0004292525 -0.024856886 -0.01002127 -0.018863412
0.017701177 0.03678976 -0.012031392 0.017797794 0.015355661 -0.040726792 -0.023006786 -0.01994497
-0.003976399 0.016391946 -0.046460517 -0.0651315 -0.04304136 -0.009995529 -0.007724506 0.033272848
-0.028480273 -0.069613226 -0.060242847 -0.032868266 -0.03914466 -0.032908946 -0.0056671523 -0.0046357154
-0.014003132 -0.0029910945 -0.017604625 -0.01751965 0.02483992 0.016576614 -0.053993758 -0.019920709
-0.029574394 -0.013397897 0.009436513 -0.013262252 -0.02341635 -0.013976169 0.008861002 -0.012082541
-0.0033091204 -0.01514186 -0.0354342 -0.03453186 -0.028126804 0.029316528 0.014443573 0.011652967
-0.002066776 -0.0054645375 0.031839382 0.01401706 0.02216256 0.0048996047 -0.004638674 -0.02536032
-0.043630783 -0.017261617 -0.012161108 0.022414751 -0.013928243 -0.048454095 0.0030797576 0.010078212
0.016232291 -0.016574271 -0.019532256 -0.01447164 0.005353238 -0.008583435 -0.023727423 -0.033949114
-0.013872849 0.02479371 0.015931923 -0.087392434 -0.081879154 -0.029448902 -0.01669605 -0.015482097
0.07338343 -0.02282595 -0.05876515 -0.0062608584 -0.0031394 0.030019073 0.01602118 -0.025150971
-0.012407662 -0.005907884 -0.001604538 0.044016402 0.04494967 0.011149659 -0.030918848 -0.0032876467
0.029808613 -0.03958229 -0.025045093 -0.022600763 0.010845257 0.0053198817 -0.0032029194 -0.014316125
0.003136811 -0.03366326 -0.03281667 -0.019333161 0.0047257505 -0.008478964 -0.018628843 -0.0828169
-0.022207117 -0.040170982 0.006470129 -0.0017402482 -0.023629276 -0.047448292 -0.02868327 0.01059788
0.024859168 0.01633828 -0.0067955703 -0.022211427 -0.037531078 0.0018229464 -0.020272551 -0.017074285
-0.012194822 -0.0037342184 -0.052426133 -0.04338335 -0.019893683 0.009684897 0.00033195852 -0.007341591
-0.018511271 -0.047790714 -0.03847282 -0.01664697 -0.0059135067 0.0002247322 -0.052937794 -0.015399855
0.0062178452 -0.0011357588 -0.011563533 0.02106616 -0.0036037287 -0.0064582755 -0.0015818623 -0.0066929567
0.023430604 0.0056065344 -0.0035516357 -0.031456113 0.018955106 0.015867589 0.020490997 -0.016895508
0.013472633 -0.0158403 -0.007257387 -0.020703316 -0.010589711 0.0702529 0.024056168 -0.035577644
0.027074968 -0.005677809 -0.00982855 0.010345944 -0.024967626 0.003751986 -0.034087144 0.0034378925

4.bias f4 [128]
00000000: 2e47 e43c 7a48 d03c 4f1c 0ebc 54f4 e93c
00000010: baaf 30bd a053 afbc e2ec a5bc 825c d5bc
00000020: 6a72 bd3b d357 c4bb 8f0e acbb 3bb6 3fbc
00000030: c2d7 c0bc 86ad 3cbd 9899 a53b c4ee 3bbb
00000040: 0a81 263c 30b8 3bbd 338e 0bbd 5d93 573b
00000050: 3e52 1dbd 6d33 febc 3d5b 963c 5acc 75bc
00000060: 17da d0bc b106 2dbc 59ee 4bbc 13cf e4bb
00000070: 3205 8abc c674 9e3a 48a2 05bc 4df3 43bc
00000080: 7300 15bc f610 2f3c 1064 dabc febc 3b3b
00000090: 4f38 003d 0dd9 173c 0b19 3abd 4a7b 3abd
000000a0: c05e 2d3b 0f0f 91bc 425d f7bc 022a 433c
000000b0: daf3 83bc 52e0 df3c 1e53 9abc 33a0 bebc
000000c0: 5e6a 84bb ef38 1bbd 973b f4bb d2fe 38bb
000000d0: 9d06 1ebb fed6 823b 6631 ddbb ab6d 44bc
000000e0: 9f0f 18bd d65b 213c 1763 36bc 0161 f2bc
000000f0: 9915 38bc da4c 1abc 011e 30bd c776 75bc
00000100: 5e9b c2bc 74fd 03bd 0a00 4aba 74c2 863c
00000110: 7c64 653a 6fe8 82bc 8d8b 0dbd 2240 31b8
00000120: 70ef 71bc b350 21bc 589f 58bd 8115 3a3c
00000130: cf07 56bc f743 a4bc e42d 363c 7a99 73bc
00000140: d2df 1abd ddd0 29bc a362 4a3b 26ab eb3a
00000150: 0151 32bc bf6a ac3b f5e8 ebbc fdb9 9cbc
00000160: 2223 ddbb 1aa1 06bc 9164 e6bb 5824 3fbb
00000170: 3f37 80bc 0016 59bc 5763 b7bc 93c2 c0bc
00000180: 4ef0 253a 322f b43c 14d9 47ba f78d 2fbd
00000190: 91e8 1b3b 4e19 03bd 9938 b9bc a1f7 2ebb
000001a0: 0744 dabc a608 0fbb e51a a7bb c6f6 f0bc
000001b0: 39cb 463b 26cd a5bb 05e1 08bc 9d28 b33b
000001c0: c028 39bc c8a5 9d3a 9b07 02bd 7d40 93bc
000001d0: 5f23 5dbd f242 df3b 1c7b b6bc 0ec4 18bc
000001e0: 1fb3 0bbc 30e1 15bd 43d9 17bc fad8 c6bc
000001f0: f759 78bc 9ca7 b3ba e1f6 79bc 8250 2e3c
0.027865972 0.025425185 -0.0086737415 0.028558888 -0.043136336 -0.02140218 -0.020254556 -0.026045088
0.0057814615 -0.005991915 -0.005250759 -0.011701162 -0.023540381 -0.046063922 0.00505371 -0.002867625
0.010162601 -0.04582995 -0.03407116 0.0032894232 -0.03840851 -0.031030381 0.018354053 -0.0150023345
-0.025494618 -0.010560677 -0.012446963 -0.006982693 -0.01684818 0.0012089245 -0.008156367 -0.011959863
-0.009094345 0.010685196 -0.026659042 0.0028646584 0.0313037 0.0092680575 -0.04543404 -0.045527734
0.002645418 -0.017707376 -0.030195836 0.011911871 -0.016107488 0.027328644 -0.018838461 -0.023269748
-0.0040410003 -0.037896093 -0.0074533927 -0.0028228057 -0.0024112829 0.003992914 -0.0067502735 -0.0119890375
-0.037124272 0.009848556 -0.011132023 -0.02958727 -0.011235618 -0.009417737 -0.042997364 -0.014981932
-0.023755725 -0.032224134 -0.00077056943 0.016450144 0.000875063 -0.015979974 -0.034556914 -4.2259817e-05
-0.014766559 -0.0098459 -0.052886337 0.011357666 -0.013063385 -0.02005194 0.01111934 -0.014868135
-0.037811108 -0.010364738 0.0030881546 0.0017980083 -0.010883571 0.0052617486 -0.028797606 -0.019131655
-0.006748573 -0.008217121 -0.0070310314 -0.002916595 -0.015651343 -0.013249874 -0.022386236 -0.02353028
0.00063300587 0.02199516 -0.0007623595 -0.042859998 0.0023789743 -0.032006554 -0.022609996 -0.0026697891
-0.026643766 -0.0021825223 -0.0050996416 -0.029414546 0.0030333532 -0.005059856 -0.00835443 0.005467488
-0.011301219 0.0012027556 -0.031745534 -0.017975086 -0.05398881 0.0068134004 -0.0222755 -0.009324087
-0.0085265925 -0.03659171 -0.009268108 -0.024273384 -0.015158168 -0.0013706568 -0.015256614 0.010639312

9.weight f4 [10, 1152]
00000000: a945 82bc 0638 053d f29f 0d3d f354 b1bb
00000010: d65c bc3c d691 4ebd d98b 4e3c a6a4 ccbc
00000020: 0e05 30bc 0788 a83c d59b 66bb eea1 8e3c
00000030: 7d31 c33b 2d71 ab3c 943d f4bc d775 96bb
00000040: 5d21 643b bfc3 0d3d b0ea ef3b 3531 13bc
00000050: bc1a 0fb8 adcf 403b 455b 14bc e3c3 da3c
00000060: b305 233c e0a2 c7bc af2e 073d ad57 b2bc
00000070: 399b 7cbb b1ef 6dbb a85e 76bc e182 96bc
00000080: c02e a4bc adde 46bc 54c4 85bc 3d0b 4cbc
00000090: ef1a 4d3c aca6 6abc ff8a b83c 550c 303a
000000a0: 3289 fabc cc0c 9d3c 3854 9c3c 99bb 82bc
000000b0: 1818 893c 9727 96bc 2927 a73c 1841 453c
000000c0: 0e43 17bd accb a8ba d1a9 09bd 6e89 3b3c
000000d0: fe83 553c 5c56 be3c fc1f 26bd fba1 d1bc
000000e0: 1884 0e3d 1e5b 013d 5512 3fbd ceb3 15bb
000000f0: 901c 8abd 264f 9b3c 83ee 3fbd a6a8 053d
00000100: fa61 0e39 a81a 503c da5b c23c bcd3 0f3d
00000110: aba6 b1bc 1831 84bc 331f 8abd 3d75 f03c
00000120: 3d22 37b9 d494 7d3c c90a 14bd 315c 1fbc
00000130: 9f42 8b3c f2de afbc a0d9 68bb 15aa 00bd
00000140: 8b14 b5bc 3475 6f3c 4352 20bd 51e7 53bc
00000150: 064c 643b 214a c3ba 5cbd 173d bc58 a3bc
00000160: c59f e6bb 3c7f ca3c e5a4 57bd 708d 3e3c
00000170: 1ce4 7cbd 4087 183c df63 82bc ee5a 693c
00000180: f365 e6bc 938d 17bd 63e5 043d c087 bcbb
00000190: 105a 1f3d a1b2 893c 0128 26bc 072c 9e3c
000001a0: 2421 933b b8f6 163c 5c84 c93b a3bf 9abb
000001b0: b479 e43a 5c7f 45bc e05f 19bd 80d5 a236
000001c0: e0b8 35bd e307 ac3c f798 343c e624 6e3c
000001d0: 1ab4 acbc cd80 4ebd 795a 363d 62cd 83bc
000001e0: 9b5f cdbc 8401 2e3b 84bc 53bc 90d5 0ebc
000001f0: 9c2c 533c 4dff 9bbc 2853 dd3b f0f4 0d38
00000200: 6ca1 e4bc f0a1 1fbd 4aff 5a3d 9f5f 29bc
00000210: aeda 1a3c c327 8a3c b0b1 643b 4911 25bd
00000220: fe42 ba3c 4400 903a 988f 943c f081 8ebc
00000230: afd0 223d bddf 4cbb 7abc 08bc b462 bfbc
00000240: acba 363c 2bf0 21bc d078 7fbc 3026 443c
00000250: 74a4 1bbd bd22 f3bb 3f70 8dbc 6121 88bb
00000260: a851 dabc 0d1f 85bc 719d adbc 840d 293d
00000270: e6a3 ff3c cb69 0abc cba7 2e3d 0c5d 403d
00000280: 75c0 0cbd 3c5f f73c f52a 70bd 08b2 263d
00000290: 0380 b4bb 2f72 6c3d 8b41 3cbd f24b e93c
000002a0: 5e64 083d aea0 3dbd 77f5 213b 10a2 003b
000002b0: cc48 053d 4e25 56bd 94a0 46bc 66d6 1ebd
000002c0: f269 5d3d 295f 183d 1fa0 3ebd 65a4 5c3d
000002d0: 5955 84bb 78db 88bc e932 1a3b 209f ccba
000002e0: b68c 273d 0f63 03bd 5317 3bbc 2797 07bd
000002f0: 5e4d d0bc 9924 f3bc 227c 7c3c eaa2 a63c
00000300: e6f5 a63c 0d6b cfbc 9ad2 f9bc f193 4e3b
00000310: 59aa 183d 925d a0bb dea2 39bc c416 0c3d
00000320: 1d3e 84bd f534 1d3c 08ee 2a3c 0712 b73c
00000330: 9f92 34bc e00e 2abc 7013 1bbc b98b b9bc
00000340: 8a5c 61bc 9a40 f9bc 99d3 24bd 6196 613c
00000350: 96ba fcbc ff0c c23c 9ee2 79bc 290a 753d
00000360: 33f5 07bd 76d0 9b3c 2ff2 b0bc 8aa1 653c
00000370: a0b1 073d 22a5 ee3c 687e 94bb dfa7 41bd
00000380: eaa6 163d a66b e13c b51e 6dbc 32ba 423d
00000390: b171 89ba 36d6 e6bc d1ed 5cbc 1560 4bbc
000003a0: 75ab 0e3d be46 0ebd 1bfb a0bc 73c3 23bc
000003b0: 8014 bb3c 136a 7d3c 390c 06bc 4f0e 2bbc
000003c0: 0dcf 9abc b62a 12bd a771 c73c 6dde 3bbd
000003d0: 1be5 5f3c ff6c babc 0909 3bbc a362 b1bb
000003e0: af50 4e3d 55ce adba 7d32 f7bc 3334 943b
000003f0: c12e 033c 0e58 e8bb ae1f 663b 2ea0 56bc
-0.015902357 0.03252413 0.034576364 -0.005411738 0.022993486 -0.05043205 0.0126065845 -0.024980854
-0.010743393 0.020572675 -0.0035188098 0.017411198 0.005956827 0.02092799 -0.029814519 -0.0045916843
0.0034809925 0.034610506 0.007321678 -0.0089839 -3.4118755e-05 0.002942066 -0.0090549635 0.026704734
0.009950089 -0.024369657 0.033003505 -0.021770323 -0.0038544668 -0.0036306197 -0.015037216 -0.018372955
-0.020041823 -0.012138051 -0.016328968 -0.012453851 0.0125186285 -0.014321964 0.022527216 0.0006715705
-0.030582998 0.019171141 0.019083127 -0.015958594 0.016735122 -0.018329425 0.020404415 0.012039445
-0.036929183 -0.0012878082 -0.033609215 0.01144634 0.013031958 0.023234539 -0.040557846 -0.025589934
0.034793943 0.031581037 -0.046648342 -0.0022842768 -0.06743729 0.01895864 -0.046858322 0.03263154
0.00013578674 0.012701668 0.023725439 0.035114035 -0.021685919 -0.016136691 -0.06744232 0.029352779
-0.00017464995 0.015477378 -0.036143098 -0.00972657 0.01699954 -0.021468613 -0.0035530105 -0.031412203
-0.022104522 0.014615346 -0.03914095 -0.012933568 0.0034835353 -0.0014899411 0.03704582 -0.019939773
-0.007038089 0.024718873 -0.05264749 0.011630401 -0.06174098 0.00930959 -0.015916763 0.014242871
-0.028124785 -0.03700025 0.032445323 -0.0057534873 0.03890425 0.01680881 -0.010141374 0.019308103
0.0044900347 0.009214096 0.0061498117 -0.004722552 0.001743129 -0.012054291 -0.03744495 4.852831e-06
-0.044365764 0.020999854 0.011022798 0.014535164 -0.021081973 -0.050415803 0.044519875 -0.016089145
-0.025070002 0.0026551196 -0.012923364 -0.008717909 0.012889054 -0.019042635 0.0067542978 3.3845135e-05
-0.027909003 -0.038972795 0.05346612 -0.010337739 0.009451551 0.016864663 0.003489595 -0.040299688
0.022737022 0.0010986407 0.018134877 -0.017395943 0.039749797 -0.0031261288 -0.008345718 -0.023362495
0.0111529045 -0.009883921 -0.015592769 0.011971995 -0.03799863 -0.0074199126 -0.017265437 -0.0041543697
-0.026650265 -0.016250158 -0.021193238 0.041272655 0.031206083 -0.008448075 0.04264049 0.046963736
-0.03436323 0.030196778 -0.058634717 0.040697128 -0.0055084242 0.05772608 -0.045960944 0.028478596
0.033298843 -0.046295814 0.002471296 0.0019627847 0.032540128 -0.05228167 -0.012123246 -0.038778685
0.054056115 0.037200127 -0.046539422 0.053867716 -0.0040384945 -0.016706213 0.002352888 -0.0015611388
0.040905677 -0.03207689 -0.011419135 -0.033103134 -0.025427517 -0.029680537 0.015410455 0.020341355
0.020380925 -0.0253196 -0.03049593 0.0031521285 0.03727183 -0.004893967 -0.0113303345 0.0342014
-0.0645716 0.0095951455 0.010432728 0.022347463 -0.011021285 -0.010379523 -0.0094650835 -0.022649633
-0.013754973 -0.030426312 -0.040240858 0.013768763 -0.03085069 0.023687838 -0.015251784 0.059824143
-0.033192825 0.0190203 -0.021599857 0.014015565 0.03312838 0.029131476 -0.0045316704 -0.047279235
0.036780275 0.027517151 -0.014472653 0.04754085 -0.0010486153 -0.028178316 -0.013484434 -0.012413044
0.034831483 -0.034735434 -0.019650986 -0.009995329 0.022836924 0.015467185 -0.008181625 -0.010440423
-0.018897558 -0.035685264 0.024346186 -0.04586642 0.013665463 -0.022757052 -0.011415728 -0.0054133697
0.050369915 -0.0013260344 -0.030175442 0.004522824 0.0080067525 -0.007090575 0.0035114097 -0.013099713

9.bias f4 [10]
00000000: d59e 17bc 9f14 c0ba 8c0e d0bb 365a a83a
00000010: 318a ee3c bedd 37bc 4b75 c9bb b0be cdbc
00000020: 4dc1 c43c 9aba a33c
-0.009254177 -0.0014654583 -0.0063493904 0.0012844268 0.02911863 -0.011222301 -0.0061480156 -0.025115341
0.024017954 0.01998644
