miniprojekty-vyplnene/results/model2_jmena_rnn_20250623235343.pth (torch, 175797 bytes, 6 tensors)

i2h.weight f4 [128, 103]
00000000: f8b8 433d 2e20 993d 2574 93bd 1ca3 bb3d
00000010: 4acf 863d e086 7b3b 4e85 9dbd 417f b7bd
00000020: 1add b6bd b97f abbd 7015 ff3b eea1 97bd
00000030: 0c3a 9d3d 9c53 ba3d c02a 26bc dc62 aabd
00000040: 380f 7bbd a3ba 21bd 6758 79bd e114 acbd
00000050: c430 8bbc fc22 293d b65d 983d 2052 953d
00000060: 38a9 a5bd 4074 d03b e42f 90bd 0e4f 16bd
00000070: 907f 493d ddc3 59bd 54c4 843d 6499 543d
00000080: 9c94 36bd a06f 31bb d590 bbbd 8440 543d
00000090: 5e65 0bbd 0617 943d 6290 aa3d fe8f ad3d
000000a0: 501b ea3c 48bd 0f3c 20a0 033d 2f94 a5bd
000000b0: c8e4 543d f83a 993c 2ce1 293d 3791 47bd
000000c0: d807 c53d d0bf a03b 78c2 703c 5ee5 8d3d
000000d0: 8b5f 97bd a022 153d 6885 fcbc 481a b7bc
000000e0: 2093 14bc 2356 16bd a069 2dbc b896 7dbc
000000f0: 004a 81b9 1c59 d8bc 74e8 823d 241c 6fbd
00000100: 6897 89bc e0c2 72bd 11b5 45bd 3243 96bd
00000110: 04ba 9d3d 39cf 8abd 63b3 32bd c0b6 c93d
00000120: 0e61 7fbd bc2d 223d a245 23bd e5e4 2ebd
00000130: 0a05 9e3d 4cbe 1c3d c0df 553c c694 1ebd
00000140: f8d9 9c3d 0023 f13a 3cad c9bd d0fa 183d
00000150: 787c 083c fc9b 8b3d 30d0 e43c 6c79 8cbd
00000160: de79 06bd e19d 3dbd 5c1e b23d c826 373c
00000170: caf9 41bd 40ff 4c3b 6009 05bb d214 aabd
00000180: fce6 a53d 7c13 93bd 945e 0e3d 33c1 47bd
00000190: 28f5 24bd c00d 7dbc 866c ba3d 3932 b2bd
000001a0: fffc 2bbd 7c82 8d3d f804 863d 272f 9bbd
000001b0: 445c 013d c0d0 24bd a0b7 513c 5cfb 0b3d
000001c0: 44a4 ba3d ec05 f4bc c095 cfbb 248b 0abd
000001d0: 8739 99bd 4248 42bd f8f3 903c a090 fabc
000001e0: fc0f 603d 94e4 403d 6cf5 7f3d 007d 7c3c
000001f0: 5e67 b53d d0df debb a026 313b f055 8b3d
00000200: 30e4 46bc 84f8 bf3d 7670 953d d851 9cbd
00000210: 4cb9 c83c e078 d1bb 4ee9 c5bd 7c75 a3bd
00000220: 9206 b23d c071 7abd abe3 88bd c8e1 23bc
00000230: 18ed 1cbd a08f 193c 31a8 8abd 0c24 8f3d
00000240: 8af9 a73d b024 083c d659 a4bd d0ad f93c
00000250: 40b5 b0ba ce37 bcbd 2a85 c23d c084 003b
00000260: a0e1 2b3d 0aaa 40bd 76fb 88bd 273c afbd
00000270: b4f6 fbbc c0e0 913d c8e0 273d 357b b4bd
00000280: 5eed 8b3d a457 42bd c8ba fc3c b68a a93d
00000290: 700a e7bc ef0a 83bd 6c5c 8c3c b4b3 093d
000002a0: 64af bd3c 4040 2b3c 1831 c53d 020d 9b3d
000002b0: b8de 94bd 043c b8bc 08b1 22bc d873 643d
000002c0: 4830 c53d 34cb 00bd 96fd 92bd 923b 09bd
000002d0: 2421 a33d 0088 78ba e84e 2a3d fe07 b03d
000002e0: d034 f9bb b09e c8bd b267 2bbd 70b4 6d3d
000002f0: 22de b03d 8d3e 9cbd 9c8b 7fbd 7a83 a2bd
00000300: c40f 513d 4f11 99bd 3037 043d a031 55bc
00000310: 5083 c73d 935f 61bd 752f 49bd 1ce0 883c
00000320: 5077 da3c 944b a03d e030 28bb b2ca 62bd
00000330: ea66 b13d fc91 c63d f878 a0bd b575 83bd
00000340: 14d2 683d 70f2 473c 8078 37ba 10e4 863d
00000350: 8eda 853d ac02 503d 1cec 3a3d 6a5d b9bd
00000360: 00fa 453b b2d0 c33d 14a3 bb3d 4437 633d
00000370: 9af3 bf3d 80e5 cfba d404 843d 28e7 b03c
00000380: ec77 2f3d 224c ab3d 1ee3 ac3d b6ed c43d
00000390: 5cb3 273d ae77 0fbd 3a96 c53d 8cc3 d03c
000003a0: 243c c83d 00ad f1bb ac7e ce3c b056 7a3d
000003b0: 10aa df3b a04a 50bc c099 d6bb d853 0b3d
000003c0: 88a9 ad3d 9be2 76bd 7b7f a0bd a0b8 be3c
000003d0: 6062 b0bb 825b 5dbd fd1b 59bd d86d a23d
000003e0: 4478 873d 1c08 a8bd d59f 2bbd 3667 953d
000003f0: a027 273d a673 b53d 74ab a7bd 9d18 9abd
0.04778382 0.07476841 -0.07199887 0.0916197 0.06582506 0.0038379952 -0.076914415 -0.08959819
-0.089288905 -0.083739705 0.007784538 -0.074039325 0.07677087 0.090979785 -0.010142028 -0.08319637
-0.06129381 -0.03948463 -0.060875323 -0.0840242 -0.016991027 0.04129313 0.07439749 0.07291055
-0.080889165 0.0063615143 -0.070403844 -0.036696486 0.04919392 -0.053165305 0.06482759 0.051904097
-0.04457532 -0.002707459 -0.09158484 0.05181934 -0.03403222 0.07230954 0.0832832 0.0847473
0.028577477 0.0087731555 0.03213513 -0.080849044 0.051975995 0.018704876 0.041474506 -0.048722472
0.09620637 0.0049056783 0.014694802 0.06928514 -0.0739127 0.036409974 -0.030825332 -0.022351399
-0.00906828 -0.03670324 -0.010584265 -0.015477829 -0.00024659932 -0.026409678 0.06391993 -0.058376446
-0.016795829 -0.05926788 -0.04826838 -0.07337035 0.07701495 -0.06777806 -0.043628108 0.0984931
-0.062348418 0.039594397 -0.03986133 -0.04269876 0.07715805 0.03826742 0.013053834 -0.0387161
0.07658762 0.0018397272 -0.09847495 0.03734857 0.008330457 0.06816861 0.027931303 -0.06859097
-0.032831065 -0.046293143 0.08697197 0.01117868 -0.047357358 0.003128007 -0.0020299777 -0.083047524
0.081006974 -0.07181451 0.034758165 -0.048768234 -0.04027286 -0.015445173 0.091027305 -0.087009855
-0.041989323 0.069096535 0.065439165 -0.07577353 0.031582132 -0.040238142 0.012800127 0.03417526
0.091133624 -0.02978798 -0.0063349903 -0.0338241 -0.074816756 -0.04743219 0.017694458 -0.03058654
0.054702744 0.04709299 0.062489912 0.015410662 0.08857606 -0.006801583 0.002703108 0.06803501
-0.012139365 0.093735725 0.07296841 -0.07632798 0.024502419 -0.0063925833 -0.0966364 -0.07981393
0.086926594 -0.061143637 -0.06684049 -0.010002561 -0.038312048 0.009372622 -0.06770361 0.06989297
0.08201893 0.008309528 -0.08024947 0.030478388 -0.0013481751 -0.091903314 0.09498055 0.0019610375
0.04196322 -0.047037162 -0.06688587 -0.08556395 -0.030757286 0.07122946 0.040985852 -0.088125624
0.068323836 -0.047446862 0.030850783 0.0827841 -0.02820322 -0.0639857 0.017133914 0.033618644
0.023154922 0.01045233 0.096285045 0.075708404 -0.07269043 -0.022489555 -0.009929903 0.05577454
0.096283495 -0.03144379 -0.07177274 -0.033504076 0.079653054 -0.0009480715 0.041579157 0.085952744
-0.0076051727 -0.09795892 -0.04184694 0.058033407 0.086361185 -0.07629118 -0.062389 -0.079352334
0.051040426 -0.074740045 0.032279193 -0.01301232 0.09741843 -0.055022787 -0.049117524 0.016708426
0.02666822 0.078269154 -0.0025663897 -0.055369087 0.086622074 0.09695813 -0.07835573 -0.06418935
0.05684097 0.012203798 -0.0006998852 0.06586468 0.065358266 0.050783798 0.045635328 -0.090510204
0.0030208826 0.0956129 0.09161964 0.055472627 0.09372635 -0.0015861243 0.064462334 0.021594599
0.042838976 0.083641306 0.08441757 0.09615652 0.040942535 -0.035026245 0.09647794 0.025483869
0.09777096 -0.0073753595 0.025206886 0.061117828 0.006825693 -0.0127131045 -0.00654909 0.034015507
0.08479601 -0.0602747 -0.07836815 0.023281395 -0.005382821 -0.054042347 -0.053005207 0.07931107
0.06614736 -0.08204672 -0.041900475 0.072950765 0.040809274 0.08859949 -0.08186999 -0.07524226

i2h.bias f4 [128]
00000000: 10bc c9bc 305c ac3d 0646 8f3d 65aa 9bbd
00000010: 840f 5f3d 844b 443d 8ad6 bcbd c0d7 eb3a
00000020: 1668 89bd 80f8 9dbd 0000 e83a 9c03 883d
00000030: ca66 c83d e892 233d 94ea 1e3d 7a63 26bd
00000040: 5ecf 9d3d bca2 903c 147c a9bd c069 df3c
00000050: 63f7 41bd 8e06 bd3d b8ef a7bc 04a3 f6bc
00000060: d299 ae3d 68b9 543d 7259 a3bd 9476 943d
00000070: 3074 68bc 0028 4f38 acca 01bd 4080 dabb
00000080: c46d a33c c5ae 28bd 768f b63d 4299 1dbd
00000090: cac2 ad3d a460 723d 5dbc c0bd 10ef 7cbd
000000a0: f6f7 853d 00cd febc 8af7 bc3d 88f9 1a3d
000000b0: 20c6 06bb 72c3 07bd 6c53 bcbc eace 08bd
000000c0: 39f5 a0bd e012 0abd 2078 4c3d ac75 8ebd
000000d0: df7f 1dbd cf0d 1dbd b883 3e3d 483a 3e3d
000000e0: 08f8 abbd 502b b8bc c4c3 5bbd d0e2 e0bb
000000f0: 82c5 82bd 3439 fbbc 8c7b 95bc 143b babd
00000100: 206b 07bd d8af 3b3c 34dd bcbc 52c8 02bd
00000110: 4411 5a3d 503f e0bc 0c66 08bd 98de f73c
00000120: 8070 ef3c 0026 b439 96d0 a53d a434 803d
00000130: 3ad6 97bd 6b03 68bd 40e9 01bb 5aba 9f3d
00000140: 873d 30bd 8003 65bd 10af 7d3c 249a be3c
00000150: 3cb4 d1bc 5489 a73d 784b 703d 7c46 373d
00000160: 101d 7f3d f019 433d 788b ba3c d40c 993c
00000170: 381a 0cbd 419f 7dbd 385f f23c cbe7 8ebd
00000180: 0032 9bba b0c4 b8bc 7a33 b23d 8380 62bd
00000190: 528a aa3d badc c73d d6dc 0cbd 0090 f83b
000001a0: 3804 08bc a82f 953c f4f7 a03c bca2 1f3d
000001b0: a782 61bd caf3 15bd fccb 26bd 0cc9 a8bc
000001c0: fc05 6fbd 84b9 b2bd 2ce9 913d 2838 cf3c
000001d0: fc8f 863d 58d5 393d 0b50 9fbd b838 91bc
000001e0: bb51 35bd 3039 a73b 34bc 913d ac2c 6a3d
000001f0: c8f3 44bc f8da 323c c034 fdbb 3c3f 153d
-0.024625808 0.08416021 0.06995778 -0.076008596 0.054458156 0.04792358 -0.092206076 0.0017993376
-0.06709306 -0.07713413 0.0017700195 0.066413134 0.097852305 0.039935023 0.03879793 -0.040622212
0.07705568 0.017655723 -0.08275619 0.027272105 -0.047355067 0.09229766 -0.020500049 -0.030107029
0.08525433 0.05193463 -0.07976045 0.072491795 -0.0141878575 4.93899e-05 -0.031687424 -0.0066681206
0.019949801 -0.0411823 0.08914082 -0.038476236 0.08484419 0.059174195 -0.094109274 -0.061751425
0.065414354 -0.031103611 0.09226902 0.037835628 -0.002056487 -0.033145376 -0.022988997 -0.033400454
-0.078592725 -0.033709407 0.049919248 -0.06956038 -0.038452026 -0.038343247 0.046512336 0.0464423
-0.083969176 -0.02248159 -0.053653494 -0.0068629757 -0.06385328 -0.030666925 -0.018247388 -0.090932995
-0.033061147 0.011455499 -0.023054697 -0.03192932 0.053239122 -0.02737394 -0.033300444 0.030257508
0.029228449 0.00034360588 0.08096425 0.062600404 -0.07413907 -0.056643885 -0.0019822866 0.077992156
-0.043027427 -0.05591154 0.015483633 0.02326686 -0.025598638 0.0818049 0.058665723 0.044744954
0.062283576 0.047632158 0.022771582 0.018682875 -0.03420469 -0.061919454 0.02958642 -0.06977805
-0.0011840463 -0.022554725 0.087012246 -0.05529834 0.08327164 0.09758897 -0.034390293 0.0075855255
-0.008301787 0.0182112 0.019649483 0.038973555 -0.05505624 -0.03660945 -0.04072188 -0.02060368
-0.058355317 -0.087267905 0.07124552 0.025295332 0.065704316 0.045369476 -0.07778939 -0.01772724
-0.044267397 0.005103253 0.07115975 0.05717151 -0.012021013 0.010916464 -0.0077272356 0.036437258

h2h.weight f4 [128, 128]
00000000: 0883 bfbc 3f63 8d3d 5aac 4c3d 6453 0d3d
00000010: 049c 42bd 0c9d a7bd 704e 8b3c 2a2e 683d
00000020: f003 a03b 8c62 8cbd eee9 743d 8449 88bd
00000030: e09c 13bb 266d 15bd 9800 683c 0001 1c3c
00000040: 5053 143c 9474 8ebd 50b6 e83c 8e25 523d
00000050: 046b 823c 9d6d 823d 87f2 abbd fc76 0f3d
00000060: 4a26 93bd 11a6 8ebd 6499 98bc 5e36 763d
00000070: 2793 86bd 80ef 13bd da3e fbbc 4ab6 4ebd
00000080: 9c71 bb3c 240c 953c 8e99 a6bd 679b 943d
00000090: 1636 65bd 05db 5ebd 2494 c9bc 8d32 47bd
000000a0: 72f5 393d 7684 3b3d b08d f23b f2c3 78bd
000000b0: cecc debc b994 86bd a0bc 6dbc bfbd 5fbd
000000c0: ff7e a63d 9ccd 29bd d8f0 2f3c 98f0 3dbc
000000d0: 304e a33c 9674 133d 2077 243b 4098 28bd
000000e0: 38e3 cc3c ca52 7cbd 3956 9f3d 6706 8b3d
000000f0: d1db 71bd 003a 31bc d814 843c d146 25bd
00000100: de18 66bd 056c 903d ea75 acbd 1473 a83c
00000110: b854 5f3c aa5a 403d 2af3 88bd 32bf 273d
00000120: da92 683d 4c86 94bc d88c e13c 1079 fd3c
00000130: 7c34 8e3c d6fa 483d bedd 323d 7257 5f3d
00000140: f028 583c 1ac4 84bd 8a53 133d 2dc0 87bd
00000150: e8d1 79bd 1e51 0d3d e9f5 913d 16ba 223d
00000160: fa58 6e3d 408b db3a 5064 30bc 0a41 243d
00000170: 754d 4bbd b4bf 59bd 56a3 573d 187b 8d3c
00000180: 6eb9 5a3d c0f4 76bc c831 0fbc 30c2 94bd
00000190: de1b 89bd da7c 97bd 7a1b 7b3d e66d b4bd
000001a0: 00be c1bc 1a69 e1bc 22a7 7a3d 243a 8dbd
000001b0: bd66 33bd f082 8bbd 9a1d 52bd 8137 aabd
000001c0: e3ef 9e3d b71f 3abd 4af2 1c3d 8089 0a3b
000001d0: d8e0 75bd 0f42 a5bd 425a 1bbd c0f1 32bc
000001e0: f5d8 883d a2cb 3d3d e0b0 413c c0f6 773c
000001f0: 857d adbd 001c 6ebb 0862 4dbc bfbb aabd
00000200: a721 07bd 407c 583b c667 743d 233f 0ebd
00000210: 907c 973c fc51 8b3c 0d8d 27bd cccd 8dbd
00000220: 5ecf debc 9a7c 5b3d 0eca 093d 0433 30bd
00000230: 639d a23d 0675 6c3d 1fb1 a33d 1359 37bd
00000240: 5095 c8bb 36f7 a2bd 6f6c 97bd cb3b 59bd
00000250: eacf 52bd 4d70 b33d e8c8 97bc 4db6 33bd
00000260: 064e 623d c7da 973d b0cc 9ebb 6a00 88bd
00000270: 1575 80bd e26a 5f3d 1803 37bd 65ed 34bd
00000280: 40a9 ba3a a70c 933d 407b 18bc da27 513d
00000290: fa98 023d f92f 9b3d 5230 0ebd a1ab 803d
000002a0: 9c7b b13c 74c5 ad3c b24e 89bd 7ce2 9dbd
000002b0: 8a28 7b3d 84ce b0bd f2e7 83bd 7f66 833d
000002c0: c503 92bd c75c b43d 82be 3d3d 32ae 373d
000002d0: 78e5 f93c 7700 00bd 34c8 f3bc c6f7 303d
000002e0: 60b2 c53c de0c f7bc 704f f9bc 008a 6dbd
000002f0: 0ff0 883d 9d02 a2bd b8e1 fe3c 6e45 7d3d
00000300: 1067 863c 6e55 58bd 2f5b 913d 0082 f63b
00000310: 204e 573c ffec 803d b5d8 803d 352a 4ebd
00000320: 4c70 8cbd e0ea 083d 10ad 1ebc ce45 5fbd
00000330: 4577 9e3d 4446 59bd 303b c13b 75d2 afbd
00000340: 7e1f aabd 30c7 a3bc 4a66 133d e3bc a53d
00000350: 0e41 5c3d 964e 92bd 1a60 753d 50f1 ba3c
00000360: 0a58 4c3d d8f7 00bc 98d0 57bd 0c13 d6bc
00000370: aef0 563d 28b1 2e3c 3889 66bd 3046 b43c
00000380: 3e37 4cbd 055a b33d aea2 163d c7dd 63bd
00000390: 62a5 0d3d 6da0 8d3d 5fcc a73d 8475 08bd
000003a0: 2533 a73d 083c b6bc aed4 93bd 05ce a73d
000003b0: 1aef 22bd 9974 7abd 2b14 823d 688e 35bc
000003c0: 98e4 c63c 3927 933d 60de 7ebc fc2a 79bd
000003d0: 9d2f 88bd 52a4 a7bd a431 b3bd 460a 363d
000003e0: d02d bbbb 80c4 71bb 3020 95bc edcb 9cbd
000003f0: 80a1 243a 60cf 033d 700a 81bc 2c74 e6bc
-0.02337791 0.06903695 0.049969055 0.034503356 -0.04751207 -0.08184251 0.017005175 0.05668465
0.004883282 -0.06854734 0.059793405 -0.06654647 -0.0022523925 -0.036481045 0.014160298 0.009521723
0.009053066 -0.06955829 0.028407246 0.051305346 0.01592017 0.06368563 -0.08395868 0.03502558
-0.071850374 -0.069652684 -0.01862783 0.060110442 -0.06571036 -0.036117077 -0.030669618 -0.050466813
0.022881322 0.018194266 -0.08134757 0.07256203 -0.055959783 -0.054408092 -0.024606772 -0.048632193
0.04540009 0.04578062 0.0074021444 -0.060733743 -0.027197268 -0.06571335 -0.014510304 -0.054624315
0.08129691 -0.04145585 0.010738574 -0.011593007 0.019934744 0.035999857 0.0025095418 -0.041160822
0.02501069 -0.06160239 0.077801175 0.067883305 -0.059047524 -0.010817051 0.01612322 -0.04035074
-0.05617606 0.07051853 -0.08420928 0.020562686 0.013631038 0.046961464 -0.06687005 0.040953822
0.056780674 -0.018130444 0.02753298 0.030941516 0.01735901 0.04906734 0.0436685 0.054526754
0.013193354 -0.06482716 0.03596834 -0.066284515 -0.060991198 0.034501188 0.07126982 0.039728247
0.058190323 0.0016749874 -0.010766104 0.04010109 -0.049634416 -0.053161338 0.052646004 0.01727061
0.053399496 -0.015073001 -0.008739896 -0.07263601 -0.06694768 -0.073968604 0.0613055 -0.08810024
-0.02365017 -0.027515937 0.061194547 -0.06895855 -0.04379915 -0.06812084 -0.05129776 -0.08311368
0.077605985 -0.045440402 0.038317002 0.0021139085 -0.06002888 -0.0806924 -0.037927873 -0.0109218955
0.06682006 0.046336778 0.011821955 0.015134513 -0.084712066 -0.0036332607 -0.0125355795 -0.08336591
-0.032991078 0.0033033043 0.05966928 -0.03472818 0.018492013 0.017006867 -0.040906 -0.06924018
-0.02719849 0.053585626 0.03363996 -0.043017402 0.079401754 0.05772879 0.079927675 -0.044762682
-0.006121315 -0.07957308 -0.07393729 -0.05303554 -0.051467814 0.08761654 -0.018528417 -0.043875027
0.05525019 0.07414775 -0.004846178 -0.06640704 -0.062723316 0.05454529 -0.044680685 -0.04417171
0.0014241114 0.071801476 -0.009306729 0.051063396 0.03188417 0.075775094 -0.03471405 0.062827356
0.021665387 0.021212317 -0.06704463 -0.07709214 0.061317958 -0.0863314 -0.064407244 0.06416034
-0.07129625 0.088067584 0.04632426 0.04484386 0.030504927 -0.031250443 -0.02975855 0.043205045
0.024132907 -0.030157503 -0.030433387 -0.057992935 0.066864125 -0.07910655 0.03111349 0.06183379
0.016406566 -0.052815847 0.0709747 0.0075228214 0.013141185 0.062952034 0.062913336 -0.05033322
-0.068573564 0.03342712 -0.009684816 -0.05450993 0.077375926 -0.053045526 0.0058969483 -0.08585063
-0.08306788 -0.019992441 0.035986222 0.08092668 0.05377298 -0.07143895 0.059906103 0.022820145
0.049888648 -0.007871591 -0.052689165 -0.02613213 0.052475624 0.0106623545 -0.056283206 0.022006124
-0.04985737 0.08757404 0.036776237 -0.055631425 0.03458155 0.069153644 0.081932776 -0.033315197
0.08164052 -0.022245422 -0.072183 0.08193592 -0.039778806 -0.061146352 0.06351503 -0.011081316
0.024278924 0.071852155 -0.015555948 -0.06083201 -0.066497065 -0.081856385 -0.087497026 0.04444339
-0.0057122484 -0.0036890805 -0.018203825 -0.07656083 0.0006280169 0.03218019 -0.015752047 -0.028131567

h2h.bias f4 [128]
00000000: 90b7 6dbd f245 453d e093 83bc abe8 80bd
00000010: 90ce 843b c40c 41bd 40bf f13c 9635 793d
00000020: 7104 9e3d ab19 883d 4aa9 a8bd 2022 cebb
00000030: 6065 61bc ef84 66bd 328f 01bd 288f aebc
00000040: 204f abbd d1e9 af3d 687d 9abd 9bbc 923d
00000050: d40a 6ebd 4ae0 99bd 40f0 d9bb 6506 a7bd
00000060: 178e 0ebd 4259 1d3d 27eb 90bd e095 483c
00000070: 22b6 29bd 986c d43c 73a6 52bd 7db2 8ebd
00000080: a55b 953d ea6d e7bc 0221 493d 88bf 8abd
00000090: f8ab 99bc 4e14 1f3d 22c2 3a3d 535e 45bd
000000a0: 8adf 12bd 47f1 843d 9822 7bbc 26c1 323d
000000b0: 20d4 8dbd 8883 213c 0145 b33d 4aeb 373d
000000c0: 1099 d03b 1d74 5ebd 2822 233c 61e4 803d
000000d0: 7b25 923d 7218 493d d480 afbc 00ef 1fbc
000000e0: 348d b1bd ce98 333d 003d 72bd da96 4d3d
000000f0: 2237 50bd a628 65bd 804e b5ba c31f a63d
00000100: b5d8 ac3d d808 d23c 4d3c 66bd c06b a0bd
00000110: a0c1 e43b 6f4d 833d bceb 06bd 731f 30bd
00000120: 5a72 84bd 90d6 fd3c b876 4ebd 84dc a8bc
00000130: 801b bb3b 421c aebd 0281 413d 43a6 9a3d
00000140: 883f f33c d017 b13c d6da 87bd 9040 9cbb
00000150: 13ed 903d 46da 4b3d b859 b03c a519 a53d
00000160: c0fd aaba 100b 853c 9f8d 13bd 4c04 95bc
00000170: 8869 86bc b9ea a6bd 62dc 583d 601a 813b
00000180: 38c5 61bd e6da 323d ec39 87bd 57c8 91bd
00000190: c853 70bc 9a6f 083d 2ee7 493d d146 8a3d
000001a0: 8996 973d 80c8 a1bb d4d7 51bd 601a 74bb
000001b0: 1c8d eb3c 8470 833c 31ba 11bd 30a5 a9bd
000001c0: 7e68 223d 7a3c 1d3d 80a5 fe3c bed7 fbbc
000001d0: 74a8 6abd 409b 1d3c 711c 54bd 5528 9abd
000001e0: 46f7 523d 8a6c 9ebd b8c3 8ebd 015c aa3d
000001f0: 28b6 7c3c 60cd 1c3b 207a b2bd 7cc7 86bd
-0.058036387 0.04816241 -0.016061723 -0.06294378 0.0040529445 -0.047131315 0.02951014 0.06084212
0.07715691 0.06645521 -0.08235414 -0.006290689 -0.01375708 -0.05627912 -0.031630702 -0.021308497
-0.08364701 0.08589519 -0.075434506 0.0716488 -0.058115795 -0.07513483 -0.0066509545 -0.081555165
-0.034803476 0.0384152 -0.07076102 0.012242764 -0.04143346 0.025930688 -0.05142827 -0.06967638
0.072928704 -0.028250653 0.049103744 -0.06774813 -0.018758759 0.038837723 0.045595296 -0.048185658
-0.035857715 0.064913325 -0.015328072 0.043641232 -0.06925225 0.00985802 0.08753396 0.044902124
0.0063659027 -0.054309953 0.009956874 0.0629356 0.07136055 0.04909558 -0.021423735 -0.009761572
-0.086695105 0.043846898 -0.059140205 0.05019269 -0.05083383 -0.05594697 -0.0013832599 0.08111527
0.08439771 0.025638983 -0.05620985 -0.07833052 0.0069810897 0.06411254 -0.032939658 -0.042998742
-0.06467123 0.0309861 -0.050406188 -0.020612963 0.0057100654 -0.085014835 0.047242172 0.07551243
0.02969338 0.0216178 -0.066335365 -0.0047684386 0.07076468 0.04976871 0.021527156 0.08061532
-0.0013045594 0.016240627 -0.036023732 -0.018190525 -0.016407743 -0.081502385 0.05294455 0.0039399117
-0.055119723 0.04366579 -0.066028446 -0.0711829 -0.0146684125 0.033309557 0.049292736 0.067517884
0.07401759 -0.0049372315 -0.05123122 -0.0037247166 0.02875381 0.016044863 -0.035577957 -0.0828346
0.039650433 0.038387753 0.031084776 -0.030742522 -0.057289556 0.009619534 -0.051784936 -0.07527224
0.05150535 -0.07735546 -0.06970924 0.083183296 0.015424289 0.0023926124 -0.087147 -0.065810174

h2o.weight f4 [103, 128]
00000000: 82d8 713d 5856 8e3c 30c0 2fbd eeea 483d
00000010: 250b a73d 0066 efb9 6c3f b4bd d424 e5bc
00000020: c03c 9fbc 1b6f 943d 8da4 73bd 50d0 2fbc
00000030: bd23 893d fe23 1b3d f28c 9cbd 5acd 413d
00000040: fe32 5d3d 3f00 a83d 93eb 993d 304d 19bc
00000050: 1f88 8f3d 51ea 803d 4be8 923d a689 393d
00000060: 5270 3c3d 965f dcbc fa22 e0bc dc8b b73c
00000070: baee aabd 48ac 5f3c 4627 233d 98d5 debc
00000080: 96fc 373d e033 273c df02 873d 2037 56bd
00000090: aed0 273d a073 0c3b 2183 8cbd 497c a1bd
000000a0: 10eb c8bc 4e16 abbd 6533 9e3d 05e5 863d
000000b0: 2da7 b2bd ca66 243d 9a97 1e3d 1454 81bd
000000c0: b5c0 22bd 0445 b33c b7c7 b03d b13e 923d
000000d0: d02e aa3b e2f7 203d 82c4 153d 50f7 94bb
000000e0: eeb0 443d 699b 8ebd 90cc 66bc 5493 a3bc
000000f0: 78c8 8ebc 500a cf3b 001e d1b9 8144 893d
00000100: 47b4 6ebd e035 223b e80c 043c 7c82 c73c
00000110: 0035 ba3c 64b0 24bd b015 22bc 5a54 95bd
00000120: 6239 4e3d f06d c33b 4ebf 2e3d 2221 543d
00000130: 1a2d a4bd 083e 83bc ec64 eb3c 80f8 f93c
00000140: 2064 82bc 4ad6 683d 449e 0b3d 90bb 93bc
00000150: 0056 e3b9 60ac 12bb d4b4 a83c 6f90 80bd
00000160: e0a9 2ebb 4069 853a 5866 a9bc 6d15 aebd
00000170: b578 85bd 4cc2 40bd 139a b43d 5e7b 24bd
00000180: a6db 7a3d 00e3 d3bc e087 52bd d72e 983d
00000190: 2b73 833d 104c b9bc 807d 31ba 00ad d2bc
000001a0: f738 953d c84a bbbc 9dee 57bd 044b a43c
000001b0: 80d5 3f3a f70a b0bd 7a42 87bd 90bd 90bc
000001c0: 906e acbb 5cc0 0e3d 50b1 eabc e774 893d
000001d0: 2427 c4bc e0f7 32bc d1a4 0ebd 2051 5bbb
000001e0: ced0 123d ee54 733d 8ebe 50bd 2757 7abd
000001f0: c452 ed3c 505d 073d 576a 84bd 0c4b e7bc
00000200: 2b7b 803d fa55 263d 8854 4bbc 925c 493d
00000210: fa71 633d 6c61 b13c 44e0 cf3c eed6 39bd
00000220: 587e 5e3c 358b 853d 25d9 8c3d 8d51 7abd
00000230: 5d43 ab3d 38c1 8e3c f846 47bc eb0b a33d
00000240: 106e ee3b 68d9 a2bc 8e88 693d 60b5 cebb
00000250: 9a1b 313d 2cba 6dbd 9c22 b73c 7173 9f3d
00000260: 8aa5 453d 1240 94bd 82fd 643d 9a70 083d
00000270: c9e2 b33d b882 30bc 24e2 b2bd 2c31 a7bc
00000280: 1872 54bc 9691 31bd a806 f23c b742 913d
00000290: 844b 8e3c 6310 06bd 2829 4e3c 78a3 cbbc
000002a0: e7c2 5ebd 69d1 a4bd 381a a33c cd1a a13d
000002b0: 5809 83bc 8f58 8d3d 3639 163d 6074 5a3b
000002c0: 686d bdbc 4c95 dc3c a7dd 853d e0be 0f3b
000002d0: 3119 873d 889c 90bc fa2b 7f3d d0b3 9dbb
000002e0: 7ba4 8dbd a811 75bc e20c 5e3d 4c31 05bd
000002f0: 5932 963d 132d a3bd b472 64bd 5b39 80bd
00000300: 160c 123d 7e2d a7bd a8b6 e03c e6a6 adbd
00000310: dd6b 9b3d e261 1a3d 5d5e 18bd 5c17 87bd
00000320: 32b3 663d 9001 633c a6cf 553d db56 3dbd
00000330: cc6e a8bc c5ce 8c3d 9093 133c e8c7 b1bd
00000340: e6b3 88bd 3f12 8f3d 01ea 62bd 9046 f3bc
00000350: ee4d a4bd f9d4 98bd 0a9b 423d a15b 19bd
00000360: 76e9 703d eabf 553d e9e6 9e3d 1703 883d
00000370: 6e96 6b3d fa0c b4bd 7311 54bd 60ab 20bc
00000380: 3820 da3c e2f6 483d 0061 c0ba 16cd 703d
00000390: d37c 9e3d 0abd 123d e422 a3bc 154e ab3d
000003a0: adb0 8f3d d4d0 bf3c 8398 b13d eeb2 abbd
000003b0: 0002 a23a 7a30 173d c88c 193c 1ec5 1ebd
000003c0: 1869 bebc 2062 babb da85 3f3d 0611 2e3d
000003d0: a78e a73d 350a 813d 00ba abb9 1438 053d
000003e0: 18fd d53c 3e47 303d 0151 963d 32cc 1b3d
000003f0: 4029 00bb 6041 93bd 8cb2 7ebd 80b3 913c
0.05904437 0.017375156 -0.042907894 0.04905217 0.081564225 -0.00045661628 -0.08801159 -0.027971663
-0.019438148 0.07247754 -0.0594831 -0.010730818 0.0669627 0.03787612 -0.07644071 0.04731498
0.054003708 0.08203172 0.07515635 -0.009356782 0.07008385 0.06294692 0.071732126 0.045297287
0.046005554 -0.026901048 -0.027360428 0.022405557 -0.08346315 0.013651915 0.039832376 -0.027201459
0.04491862 0.010205239 0.065923445 -0.052298665 0.040970497 0.0021431223 -0.06860948 -0.07885034
-0.024526149 -0.08353864 0.077246465 0.06586651 -0.087232925 0.04013709 0.038718797 -0.06314865
-0.03973456 0.021883495 0.086318426 0.07140864 0.0051935688 0.0392989 0.036564358 -0.0045460835
0.048020296 -0.06963236 -0.014086857 -0.019967712 -0.017429575 0.006318368 -0.00039885938 0.06702519
-0.058277395 0.002475135 0.008059718 0.024354212 0.02273035 -0.04020728 -0.009892866 -0.072914794
0.050347693 0.0059640333 0.04266291 0.05178941 -0.08016415 -0.01602079 0.028734647 0.030514002
-0.015916884 0.056844987 0.03408648 -0.018033773 -0.0004336089 -0.0022380576 0.020594038 -0.062775485
-0.0026651546 0.0010178462 -0.020678684 -0.085001804 -0.06517164 -0.047060296 0.0881845 -0.040156715
0.06124463 -0.025865078 -0.05139911 0.07430809 0.06418451 -0.022619277 -0.0006770715 -0.025717258
0.07286256 -0.022862807 -0.052717794 0.020055301 0.0007317886 -0.085958414 -0.06604476 -0.017668515
-0.0052622035 0.034851417 -0.028649002 0.067117505 -0.023944445 -0.010923356 -0.03482515 -0.0033465102
0.035843663 0.059407167 -0.050962977 -0.06111827 0.02897013 0.033047974 -0.06465595 -0.028234027
0.062734924 0.040609337 -0.012410291 0.049160548 0.05552862 0.0216529 0.025375493 -0.04537099
0.013579927 0.06520692 0.068773545 -0.06111293 0.08362458 0.017426118 -0.012162916 0.079612575
0.007276304 -0.019879058 0.057014994 -0.0063082427 0.043239214 -0.058038875 0.02235537 0.077856906
0.048253573 -0.07238783 0.055905826 0.03331051 0.0878349 -0.010773353 -0.08734539 -0.02040919
-0.012966655 -0.043351732 0.02954419 0.07092803 0.017369993 -0.03273047 0.012583055 -0.024858221
-0.054385092 -0.08047754 0.019909963 0.0786644 -0.015995666 0.06901657 0.036675654 0.0033333525
-0.023123458 0.026926659 0.065364175 0.0021933839 0.06596602 -0.017652765 0.0622978 -0.004812695
-0.06916138 -0.014957823 0.054211505 -0.032517716 0.07333822 -0.079675816 -0.055773452 -0.0626094
0.035656057 -0.08162974 0.027430847 -0.08479099 0.07588933 0.037691005 -0.037199367 -0.06596252
0.056323238 0.013855353 0.052199982 -0.04622541 -0.020560645 0.06875376 0.00900735 -0.08680707
-0.06674938 0.06985902 -0.055398945 -0.029696733 -0.080226764 -0.07462496 0.047511138 -0.0374409
0.058816396 0.052184977 0.07758886 0.06641214 0.057516508 -0.087915376 -0.051774453 -0.009806484
0.026626691 0.04906357 -0.0014677346 0.058789335 0.07738652 0.035824813 -0.019914098 0.08364502
0.0701612 0.023415007 0.086716674 -0.083837375 0.0012360215 0.036911465 0.009371944 -0.038762204
-0.023243472 -0.005687967 0.04675851 0.042496704 0.08181506 0.06300775 -0.00032754242 0.032524183
0.026121661 0.04303669 0.07339669 0.038036533 -0.0019555837 -0.07190204 -0.062181994 0.017785788

h2o.bias f4 [103]
00000000: 1e5e 6e3d d01d 19bd 1e88 a1bd a028 36bb
00000010: 6de0 4fbd c871 3ebc 3cca b8bc c25e 88bd
00000020: 345e bdbc 1cfd 093d 4779 2dbd 70c9 4cbd
00000030: 0589 12bd 21dc a13d 93a2 9c3d 1842 093d
00000040: 041b 81bd ee28 6bbd b75e 36bd 12b4 6dbd
00000050: 4aa3 2d3d dce5 92bc d288 3c3d d863 70bc
00000060: cbc8 ab3d e76a ac3d d62d 49bd c210 483d
00000070: 0edb 453d e861 27bd 7676 78bd e40e c2bc
00000080: f778 b0bd e2df 8cbd 3365 b13d 2c32 993c
00000090: 40f0 3b3c 804a b6bb 0462 ab3c 0fb8 ae3d
000000a0: 09c7 29bd 700b 033c ac10 70bd ea0a 233d
000000b0: 901e 613c 86eb e9bc 801d 0e3a 10eb a93b
000000c0: e88e 413c c0a0 163c 4982 833d ca39 593d
000000d0: b5da b33d 8f8a ae3d 400c 70bc 9b30 2abd
000000e0: cd34 a43d 80ee 74bb 2692 6f3d 96df 533d
000000f0: 50cb 8abb f459 0b3d 3418 8fbc b01b 153d
00000100: 064f 2b3d 1bc9 803d 844e a7bc f135 a7bd
00000110: 90a7 f8bc f048 dd3c 1a8a 89bd 9854 b53c
00000120: 5e53 2c3d a86b 61bd 0813 58bc f674 663d
00000130: df34 2abd a0df 19bd 5447 8bbd 5548 68bd
00000140: fb0f a4bd e028 573c 1e2d 513d 07ed 9d3d
00000150: e65b 5c3d b03c e53c a851 863c 1cce 96bc
00000160: 9071 033d ae07 4d3d e425 cebc 7c7b 033d
00000170: 554b a33d 22b5 5f3d 70ed 033c 587b 79bd
00000180: 37eb 56bd fa20 3d3d 22c8 85bd b884 c8bc
00000190: 1f88 97bd 8ac5 a3bd ae63 b2bd
0.058195226 -0.037381947 -0.078872904 -0.002779521 -0.05075114 -0.011623807 -0.02255737 -0.066586986
-0.023116209 0.03368865 -0.042351987 -0.049996793 -0.035775203 0.079033144 0.07648196 0.033510298
-0.06303981 -0.05741208 -0.04452392 -0.058033057 0.042392053 -0.017931871 0.04602892 -0.014672242
0.083879076 0.084188275 -0.04911598 0.048844106 0.04830461 -0.040864855 -0.06065985 -0.023688741
-0.08616822 -0.0687864 0.0866188 0.018700682 0.011470854 -0.0055630803 0.02092076 0.085312
-0.04144958 0.007998332 -0.05860965 0.03980533 0.013740197 -0.02855469 0.0005421266 0.0051854923
0.011813857 0.009193599 0.06421334 0.053033628 0.087819494 0.08522522 -0.014651358 -0.04155026
0.080178834 -0.0037373602 0.058488987 0.0517269 -0.0042356625 0.034021333 -0.017467596 0.036403358
0.04182341 0.06288358 -0.020423181 -0.081645854 -0.030353338 0.027012318 -0.06715794 0.022135064
0.042071693 -0.05503431 -0.013188131 0.056263886 -0.041554328 -0.03756678 -0.06800714 -0.056709606
-0.080108605 0.013132304 0.051068418 0.07711225 0.05379858 0.02798304 0.016396359 -0.018408827
0.032090724 0.050056152 -0.025164552 0.032100186 0.07973353 0.0546161 0.008052215 -0.060908645
-0.052470412 0.046174027 -0.06532313 -0.024477348 -0.0739901 -0.07996662 -0.08710419
